notebook/model.pt (torch, 864882 bytes, 76 tensors)

batch_norm_layer.batch_norm_layer.weight f4 [10]
0	0x3f9bd506	1.2174385
1	0x3faed835	1.3659731
2	0x3f39da63	0.72598857
3	0x3f39a70c	0.7252052
4	0x3f33f6c7	0.7029843
5	0x3f627426	0.8845848
6	0x3f502837	0.81311363
7	0x3f4eaffb	0.80737275
8	0x3f26c759	0.6514793
9	0x3f289db2	0.65865624

batch_norm_layer.batch_norm_layer.bias f4 [10]
0	0x3e3c17cc	0.18368453
1	0xbd767ca1	-0.06017745
2	0x3dbc7496	0.092019245
3	0x3db59e53	0.088680886
4	0xbdaa7ce2	-0.08324601
5	0x3ca68f23	0.020331925
6	0x3deb8bf0	0.115013
7	0xbd9403c7	-0.07227283
8	0xbe1c73be	-0.15278527
9	0xbe0eeb1b	-0.13956873

batch_norm_layer.batch_norm_layer.running_mean f4 [10]
0	0x3eaaaaa8	0.33333325
1	0x4723b139	41905.223
2	0x3e324759	0.1741003
3	0xbe724414	-0.23658782
4	0xbed04e49	-0.40684727
5	0xbc370314	-0.0111701675
6	0xbcfeeff6	-0.031120282
7	0xbe22e474	-0.1590746
8	0xbeb3844f	-0.3506188
9	0x3e78b67f	0.24288367

batch_norm_layer.batch_norm_layer.running_var f4 [10]
0	0x3d70e1fd	0.05880927
1	0x4c2a0ae8	4.457565e+07
2	0x3cdde09a	0.027084637
3	0x3d52eaf7	0.05149361
4	0x3c698a9a	0.014254237
5	0x3e4df2a5	0.20112093
6	0x3d4a55b6	0.049398147
7	0x3d319208	0.043352157
8	0x3d2534a2	0.040333398
9	0x3d865a34	0.06560174

embedd_layer.embedd_layer.weight f4 [3060, 8]
0	0x3ec871ea	0.3914941
1	0x3d9de41a	0.077095225
2	0xbf12ce52	-0.5734607
3	0xbe2d0935	-0.16898043
4	0x3e8f8a82	0.2803536
5	0x3d221e6c	0.039579794
6	0xbf220178	-0.6328349
7	0xbcd63a7a	-0.02615093
8	0xbb4c49ac	-0.0031171842
9	0xbee327cb	-0.44366297
10	0xbe9ca05d	-0.30591097
11	0x3f18a954	0.59633374
12	0xbe555ae3	-0.20835452
13	0xbee39a57	-0.4445369
14	0xbe4fccdf	-0.20292996
15	0x3e2e3fb8	0.17016494
16	0x3e091aa4	0.13389069
17	0xbeafb72f	-0.34319445
18	0xbeaeb08d	-0.34119073
19	0xbeebf578	-0.46085715
20	0xbe294cdf	-0.1653323
21	0xbd93f0e6	-0.07223682
22	0xbe5d45d2	-0.21608666
23	0x3f15aa93	0.584634
24	0x3ed8e99c	0.4236573
25	0xbf9dc8c8	-1.2326899
26	0xbf1a2fe0	-0.602293
27	0xbfd42a1a	-1.6575348
28	0x3f2a7784	0.66588616
29	0xbea0fc20	-0.31442356
30	0x3f0f504a	0.55981886
31	0xbdbe1ca8	-0.092828095
32	0xbfc7a420	-1.5596962
33	0xbef1830c	-0.47170293
34	0x3cdb5205	0.026772508
35	0xbdf6b2ed	-0.12045846
36	0x3f4db434	0.80353093
37	0x3fdc5a83	1.7215122
38	0xbfa9c1e8	-1.32623
39	0x3f9cdd13	1.2254966
40	0x3f8284bb	1.0196756
41	0x3eab4fa4	0.33459198
42	0xbee11f88	-0.4396937
43	0xbf8e4731	-1.1115476
44	0xbe71406c	-0.23559731
45	0xbe6972ff	-0.22797774
46	0x3ee29435	0.44253698
47	0x3ed2f54e	0.41202778
48	0xbf11d786	-0.5696949
49	0x3f3d0567	0.7383637
50	0xbe4c653b	-0.19960491
51	0x3f5111ee	0.81667984
52	0x3da6681e	0.081253275
53	0xbf8e7c76	-1.1131732
54	0x3fa9efd3	1.3276314
55	0x3e3a7527	0.18208753
56	0x3ec9fab3	0.3944908
57	0xbe315de1	-0.17320968
58	0xbe6e50f0	-0.23273063
59	0xbf8ef61d	-1.1168858
60	0x3fa744b3	1.306784
61	0xbf1286fe	-0.5723723
62	0x3f16b1d1	0.58865076
63	0x3f2131ac	0.6296642
64	0xbe077b2e	-0.13230583
65	0xbf2b65db	-0.66952294
66	0x3d302480	0.04300356
67	0xbe9519ca	-0.29121238
68	0xbece5cc8	-0.4030516
69	0xc006b894	-2.1050158
70	0x3eeb523a	0.4596117
71	0x3cc84b71	0.024450036
72	0x3ec4a915	0.3841025
73	0x3d030513	0.03198726
74	0x3d2cf43b	0.042225104
75	0x3f42277d	0.75841504
76	0x3dd4e5bb	0.1039538
77	0xbe2b0b42	-0.16703513
78	0xbf3830a6	-0.7194923
79	0x3fd16565	1.6359068
80	0xbec0db4f	-0.3766732
81	0x4044cb50	3.0749092
82	0xbf62de83	-0.88620776
83	0xbf75daf5	-0.96037227
84	0x3e7c0a5d	0.24613328
85	0x3f8776cd	1.058313
86	0x3ef4f978	0.4784658
87	0xbfb6a4c6	-1.4269035
88	0xbfc4cffc	-1.5375972
89	0x3e80d678	0.25163627
90	0xbc20b833	-0.0098095415
91	0x3f9eebfa	1.2415764
92	0xbf1ce1cf	-0.61282057
93	0xbf8faed6	-1.1225231
94	0xbf20a635	-0.6275361
95	0xbf6b98fb	-0.92030305
96	0x3f717ca0	0.9433079
97	0x3efe2c70	0.49643278
98	0x3f499c0b	0.7875373
99	0x40052394	2.0802965
100	0xbd0e66b1	-0.034765903
101	0x3fc5733c	1.5425792
102	0x3f0ddf40	0.5541878
103	0xbf076640	-0.52890396
104	0xbe8c2fba	-0.27380162
105	0xbff30326	-1.8985336
106	0x3f8de33e	1.1084974
107	0x3f856afe	1.0423276
108	0x3f96f46d	1.1793343
109	0x403034bf	2.7532194
110	0xbf424756	-0.758901
111	0xbf161a49	-0.5863386
112	0xbfe00272	-1.7500746
113	0xbf83533c	-1.0259776
114	0x3f23cd2a	0.6398493
115	0xbf1a93bb	-0.6038167
116	0xbc499b25	-0.012305056
117	0xbf769462	-0.96320164
118	0xc0279ec2	-2.6190648
119	0xbfa5730d	-1.2925736
120	0xbe61cdd3	-0.22051172
121	0xbf48f2e4	-0.7849562
122	0x3e6d949d	0.23201223
123	0xbebe16cc	-0.37126768
124	0x3e374812	0.17898586
125	0x3d52270b	0.051306766
126	0xbf34f482	-0.7068559
127	0x3fb8a73d	1.4426037
128	0x3f1421f3	0.578643
129	0xbf0743cb	-0.5283782
130	0x3fa49c28	1.2860155
131	0xbd1c7b6b	-0.038203638
132	0xbe2e65e4	-0.17031056
133	0xbdb36f00	-0.08761406
134	0x3f592d2f	0.8483457
135	0x3f583108	0.84449816
136	0x3e9e8411	0.30960134
137	0x3f1fff48	0.62498903
138	0x3d83965e	0.06425165
139	0x3e9570f8	0.2918775
140	0x3f22b29e	0.635538
141	0x3d21e1c2	0.03952194
142	0xbec2f7a4	-0.3807956
143	0x3f3f5719	0.74742275
144	0x3f0ac533	0.5420715
145	0x3f22a1f7	0.6352839
146	0xbf528a23	-0.8224203
147	0x3f36e49d	0.71442586
148	0xbf0584d7	-0.5215582
149	0x3f68a946	0.9088329
150	0x3e8bd7e7	0.27313158
151	0xbcc2e5b2	-0.023791168
152	0xbf7a18c5	-0.97694045
153	0xbf675911	-0.9037028
154	0x3fa1b92d	1.2634636
155	0xbff36029	-1.9013721
156	0x3f27047d	0.65241224
157	0xbea92742	-0.33037764
158	0x3e81bbd3	0.2533861
159	0x40388a69	2.883448
160	0x3fe7f8a6	1.8122756
161	0xbfa40854	-1.2815042
162	0x3f8e484a	1.1115811
163	0xbf43c68e	-0.76474845
164	0xbdab78ee	-0.08372675
165	0xbeec7b6c	-0.46187913
166	0xc0192220	-2.3927078
167	0xbe0571cc	-0.13031691
168	0xbfa6dbbf	-1.3035811
169	0xbf1aba39	-0.60440403
170	0x3e5f3a3b	0.21799557
171	0xbf3cb81c	-0.7371843
172	0x3db1d382	0.0868292
173	0x3f55a437	0.83453697
174	0xbf0d4d3b	-0.5519597
175	0xc0179f98	-2.3691158
176	0xbf9e6fa0	-1.2377815
177	0xbf25d2bd	-0.64774686
178	0xc0417626	-3.0228362
179	0xbf8b36ea	-1.0876133
180	0x3f168a04	0.58804345
181	0xbf93f0a3	-1.1557811
182	0xbfdbc30a	-1.7168896
183	0x3f1c4821	0.6104756
184	0xbf1bdd1a	-0.6088425
185	0xbe22e223	-0.15906577
186	0x3e7913c2	0.24323943
187	0x3f777e00	0.96676636
188	0x3f6f830b	0.9355933
189	0x3fa7fbbb	1.3123697
190	0x3f1739f1	0.59072787
191	0x3e539613	0.20662718
192	0xbe8dd22d	-0.27699414
193	0xbf5d91ca	-0.8655058
194	0x3e335c72	0.17515734
195	0xbf0b392a	-0.543841
196	0x3daa7ef0	0.08324993
197	0x3f847dfc	1.0350947
198	0xbe98f7a5	-0.29876438
199	0xbf55c108	-0.8349767
200	0x3f624128	0.8838067
201	0x3f2f84e1	0.6856213
202	0xbef20939	-0.4727266
203	0x3e291458	0.16511667
204	0xbce60bb0	-0.028081745
205	0x3fa9ba3d	1.325996
206	0xbe37cdd5	-0.17949612
207	0x3f360882	0.7110673
208	0x3f2d623d	0.67728025
209	0xbf93ac68	-1.1536989
210	0xbfdbd014	-1.7172875
211	0x3f4c5e1e	0.7983111
212	0xbf497eaa	-0.787089
213	0x3f00b5a1	0.50277144
214	0x3fabefe5	1.3432585
215	0xbe6b1146	-0.22955808
216	0xbf9448ef	-1.1584758
217	0x3fe1d328	1.7642565
218	0xbeb9de41	-0.3630238
219	0x3fd235c8	1.6422663
220	0xbff01bcd	-1.8758484
221	0x3fda40e1	1.705105
222	0xbf1158cc	-0.5677612
223	0x3ff72f06	1.9311225
224	0xbe6c869e	-0.23098227
225	0x3fde46f9	1.7365409
226	0xbdd82ea3	-0.1055577
227	0x3e35684b	0.17715566
228	0xbf849c7c	-1.0360255
229	0xbfd26400	-1.6436768
230	0x3e962bd5	0.29330316
231	0xbf05427d	-0.5205458
232	0x3d1da63a	0.038488604
233	0x3f638f1c	0.8889024
234	0x3be3e01f	0.0069542076
235	0xbf9a5e37	-1.2060002
236	0xbe5e0d35	-0.21684726
237	0xbf8c14fa	-1.0943902
238	0x3e6dc915	0.23221238
239	0x3efb41ae	0.49073547
240	0x3e62d696	0.2215217
241	0x3f55a99d	0.83461934
242	0xbf699770	-0.912467
243	0x3ffa5f12	1.9560263
244	0x3eed4d3f	0.46347997
245	0x3fac0b4f	1.3440951
246	0xbf973087	-1.1811684
247	0x3f78ca3f	0.97183603
248	0x3fb4a63d	1.4113232
249	0x3e1993bd	0.14997764
250	0xbfc52ee3	-1.5404934
251	0xbf20a039	-0.6274448
252	0x3f732300	0.9497528
253	0x3f02e46a	0.5112978
254	0xbf2976db	-0.66196984
255	0xbf0ca5b1	-0.54940325

encoder_lstm.lstm.weight_ih_l0 f4 [192, 10]
0	0xbc605ca8	-0.013693966
1	0xbde89c7c	-0.11357972
2	0xbd8d2fea	-0.068939045
3	0x3d5a7438	0.05333349
4	0x3e50edce	0.20403215
5	0xbe9e4d26	-0.30918235
6	0x3c5856fa	0.013204331
7	0x3d501bb2	0.050807662
8	0x3d5fcd58	0.05463919
9	0x3e88c9d9	0.26716498
10	0x3d680662	0.056646712
11	0xbe8c317f	-0.27381513
12	0x3d91cef1	0.07119549
13	0x3e297efe	0.1655235
14	0x3c2fd478	0.010731809
15	0x3d7386ba	0.059454657
16	0x3d08ffb7	0.033446994
17	0x3e1265a3	0.14296584
18	0xbe4e8174	-0.2016657
19	0xbe4d6657	-0.20058571
20	0xbe0f8bbd	-0.1401815
21	0x3e8b6388	0.27224374
22	0x3d57b9c2	0.052667387
23	0x3b9bb892	0.004752227
24	0xbe58dfed	-0.21179171
25	0x3e24577f	0.16049002
26	0x3dd42466	0.10358505
27	0xbd58e78a	-0.052955188
28	0x3bda7b76	0.0066675497
29	0xbe605a14	-0.21909362
30	0x3e80b113	0.25135097
31	0x3d888616	0.066662
32	0x3d1a05d1	0.037603203
33	0x3e2845fe	0.1643295
34	0xbd052966	-0.032510184
35	0xbdab0702	-0.08350946
36	0x3e085040	0.13311863
37	0xbdb9de83	-0.09075644
38	0xbe89d2a1	-0.2691851
39	0xbd9868dd	-0.07441876
40	0x3e461f32	0.19347838
41	0xbe65d071	-0.22442795
42	0x3e738d59	0.23784389
43	0x3e10aa80	0.1412754
44	0xbe12810a	-0.14307037
45	0xbcf69827	-0.030101849
46	0x3e67e91b	0.22647516
47	0xbdbf58f9	-0.09343142
48	0xbe9a028e	-0.30080074
49	0xbde51412	-0.11185469
50	0xbc3e39bc	-0.011610445
51	0xbda1d458	-0.079018295
52	0xbc70aa88	-0.014689095
53	0x3c58c10f	0.0132296225
54	0xbdf5cf0d	-0.120023824
55	0xbcd62bfa	-0.026144017
56	0x3c367588	0.01113642
57	0xbe77af7a	-0.24188033
58	0x3df2e46b	0.118599735
59	0x3d6d393d	0.057915915
60	0xbe1841b0	-0.14868808
61	0xbe46b03d	-0.19403167
62	0x3a0b9399	0.0005324423
63	0x3da9dccd	0.082940675
64	0xbb7ac010	-0.003826145
65	0xbcad3a9a	-0.021146107
66	0x3dc3ee70	0.09566963
67	0xbdafbb0f	-0.085806005
68	0x3d45c168	0.04828015
69	0x3df717ab	0.12065061
70	0xbe2daa3a	-0.16959468
71	0x3d88b0ab	0.06674322
72	0xbe25a061	-0.16174461
73	0xbdb532db	-0.088475905
74	0x3debd1af	0.11514603
75	0xbc7ac62a	-0.015306035
76	0x3d717ea8	0.05895868
77	0xbd714a97	-0.058909025
78	0x3dacfd31	0.0844673
79	0x3e3ebf69	0.18627705
80	0x3e2f17c9	0.17098917
81	0xbde70608	-0.11280447
82	0x3dbddc75	0.092705645
83	0x3d16d875	0.036827523
84	0xbe15553f	-0.145833
85	0x3ba7d685	0.0051220083
86	0x3d8a8717	0.067640476
87	0xbd196d85	-0.03745796
88	0xbd2ad527	-0.041707184
89	0xbe075125	-0.13214548
90	0x3d088ed3	0.033339333
91	0xbd63febe	-0.055662863
92	0xbe521de4	-0.20519215
93	0x3c94007d	0.01806664
94	0x3def3953	0.116808556
95	0xbcd86a49	-0.026417868
96	0xbe162c69	-0.14665379
97	0xbdddbdf4	-0.10827246
98	0x3e4290bc	0.19000524
99	0x3ddf5629	0.109051056
100	0x3ca5f31b	0.020257523
101	0x3e758644	0.23977
102	0xbaafcb9c	-0.0013412121
103	0xbdb76404	-0.08954623
104	0x3dcbe8ed	0.099565364
105	0x3d229231	0.0396902
106	0xbd866b17	-0.065633945
107	0x3d997ccc	0.07494506
108	0xbc8b9448	-0.01703848
109	0x3d145805	0.036216754
110	0xbda56349	-0.08075578
111	0x3e63cc50	0.22245908
112	0xbe2d32d6	-0.16913924
113	0xbdd4bc78	-0.1038751
114	0xbdc99454	-0.098427445
115	0x3d2fab37	0.042887893
116	0xbd16fcdf	-0.03686225
117	0xbdb13b5d	-0.08653901
118	0x3dafb5ae	0.085795745
119	0x3c04188a	0.008062491
120	0xbde3d5ec	-0.11124787
121	0xbd8fdd62	-0.07024647
122	0xbdccb25d	-0.099949576
123	0xbe22c796	-0.15896448
124	0x3e48a3ba	0.19593707
125	0xbe5fee52	-0.21868256
126	0x3c6cac52	0.014445381
127	0xbd71c9ad	-0.059030224
128	0xbcf3ce9d	-0.029761607
129	0x3dd54d43	0.10415127
130	0xbe464ada	-0.19364491
131	0xbe893390	-0.26797152
132	0xbe317c31	-0.17332532
133	0xbdcaf8ec	-0.09910759
134	0xbe7a071b	-0.24416773
135	0x3e91fa17	0.28511116
136	0x3e274240	0.16333866
137	0xbe468262	-0.19385675
138	0x3ca80134	0.020508386
139	0xbe069fac	-0.13146847
140	0x3e443bd5	0.19163449
141	0x3e51828c	0.20459956
142	0xbc20a1d6	-0.00980421
143	0x3d9fe2a0	0.07806897
144	0xbe02b9d6	-0.12766203
145	0x3e4adb33	0.1981018
146	0x3e2bba82	0.16770366
147	0xbcadad09	-0.021200674
148	0xbe45b1fc	-0.19306177
149	0xbd9e9b92	-0.077445164
150	0x3e365809	0.1780702
151	0xbe761f21	-0.24035312
152	0x3e0851b9	0.13312425
153	0x3e266eaf	0.1625316
154	0xbd9c22fb	-0.076238595
155	0x3dac6302	0.08417322
156	0x3d119b27	0.035548355
157	0xbda38d62	-0.07985951
158	0xbd99604b	-0.074890696
159	0x3dfa1998	0.12211913
160	0xbdceaba6	-0.10091333
161	0x3e65e3fe	0.22450253
162	0xbe370db3	-0.1787632
163	0x3d2c616b	0.042085093
164	0xbca1e604	-0.019763
165	0x3ed85dda	0.42259103
166	0x3de9d7b6	0.11418097
167	0xbe95e2b9	-0.29274538
168	0xbe0eaff5	-0.1393431
169	0xbe9a8d8b	-0.30186114
170	0x3df7d6ff	0.12101554
171	0xbebce1c9	-0.3689101
172	0x3ea17d1a	0.31540757
173	0x3e8d8362	0.276393
174	0xbeea6e29	-0.4578717
175	0x3e249a8d	0.16074581
176	0x3f12e66b	0.5738284
177	0x3dc32ec8	0.09530407
178	0xbee80740	-0.4531803
179	0xbed16b3e	-0.40902132
180	0xbd2c9340	-0.042132616
181	0xbd7af233	-0.061266135
182	0x3e4d9703	0.20077138
183	0x3e5e8dc5	0.21733768
184	0xbebde205	-0.37086502
185	0x3e821ab0	0.25410986
186	0x3f0d5c0f	0.55218595
187	0x3ccef652	0.025263939
188	0xbeb4f89b	-0.3534592
189	0xbe947b32	-0.2900024
190	0xbbb7be15	-0.0056073763
191	0x3edd8b1b	0.43270192
192	0xbd3bc5a0	-0.045842767
193	0x3d86e999	0.06587524
194	0xbe16a5ab	-0.14711635
195	0x3e4c115f	0.19928502
196	0x3d93df77	0.07220357
197	0xbe279d51	-0.16368605
198	0xbdc9a7c8	-0.09846455
199	0xbc54b102	-0.012981655
200	0x3d921142	0.07132198
201	0xbe8ce464	-0.27517998
202	0x3ded0d59	0.115748115
203	0x3e189368	0.14899981
204	0xbe67b97f	-0.22629355
205	0x3d65bb60	0.056086898
206	0x3d9dbf63	0.0770252
207	0x3e28b1e2	0.16474107
208	0xbe1e191e	-0.15439269
209	0x3d69ec86	0.057110332
210	0xbd348b07	-0.0440779
211	0xbe74184e	-0.23837397
212	0xbdc90a21	-0.09816385
213	0xbc97f759	-0.018550562
214	0xbe3ebbbd	-0.18626304
215	0x3e6bbe51	0.23021819
216	0x3ccc10a1	0.024910273
217	0xbe8d9b6b	-0.27657637
218	0xbe681f54	-0.226682
219	0xbecdd9cd	-0.4020523
220	0x3cd7cd89	0.026343124
221	0x3db8d3c3	0.09024765
222	0xbd808764	-0.06275824
223	0x3dc88dbf	0.09792661
224	0x3d1bb63d	0.038015593
225	0x3e7df2f7	0.24799715
226	0x3be09b27	0.006854433
227	0xbe53240b	-0.20619218
228	0x3d4fe82a	0.05075852
229	0xbe53622d	-0.2064292
230	0x3e0dc676	0.13845238
231	0x3d15e43e	0.03659462
232	0x3d16858c	0.036748454
233	0x3e224411	0.15846278
234	0x3d4dc93f	0.05024075
235	0x3d06bf02	0.032897003
236	0x3ce3c840	0.027805448
237	0x3dc4343c	0.095802754
238	0xbd932b74	-0.071860224
239	0xbdbd4c4c	-0.09243068
240	0xbcec4e37	-0.02884589
241	0x3cb8e4b0	0.022569984
242	0x3d516eb6	0.051130973
243	0xbda1b89c	-0.078965396
244	0x3dde31d9	0.108493514
245	0xbcac6c5b	-0.021047762
246	0x3db3369d	0.08750651
247	0xbe0755fe	-0.13216397
248	0xbcacde1f	-0.02110201
249	0x3e417869	0.18893589
250	0x3b83b407	0.0040192637
251	0xbe2b155b	-0.16707365
252	0xbd944d89	-0.07241351
253	0x3e4808e7	0.19534646
254	0xbe675294	-0.22590095
255	0xbdbc5501	-0.09195901

encoder_lstm.lstm.weight_hh_l0 f4 [192, 48]
0	0x3e3ba454	0.18324405
1	0x3e2a88a5	0.16653688
2	0x3dbb24f1	0.091379054
3	0x3d2eb0af	0.042648967
4	0x3e5416b3	0.20711784
5	0xbd3eb81f	-0.04656231
6	0x3a71ceb5	0.0009224222
7	0x3da2b505	0.07944683
8	0xbd6563b3	-0.056003284
9	0x3dfae1ab	0.12250074
10	0x3e931775	0.28728834
11	0x3debac0a	0.11507423
12	0x3e0789e2	0.13236192
13	0x3e3b750b	0.18306367
14	0x3c987a26	0.018612932
15	0xbe39ccf1	-0.18144585
16	0x3e470019	0.19433631
17	0x3dad70fd	0.084688164
18	0x3e26ea06	0.1630021
19	0x3e176d3d	0.14787765
20	0xbe060d22	-0.13090947
21	0xbe134b02	-0.14384082
22	0x3e655a75	0.22397788
23	0x3d617e80	0.05505228
24	0x3d784d4b	0.060620587
25	0xbc05517c	-0.008137103
26	0x3de2b309	0.110693045
27	0xbcc762a2	-0.024339024
28	0x3c38502e	0.011249585
29	0x3e0caf0b	0.13738649
30	0xbe14f09c	-0.1454491
31	0xbe014e6a	-0.12627569
32	0xbe1669e8	-0.14688838
33	0x3dfe9582	0.1243086
34	0xbd1ac6de	-0.03778731
35	0xbc030beb	-0.007998447
36	0xbe042553	-0.12904863
37	0xbd79d7ac	-0.060996696
38	0xbc99b17f	-0.018761395
39	0xbd55c092	-0.052185602
40	0x3d9ff1aa	0.07809766
41	0x3e2691d9	0.16266574
42	0x3dc7c7a0	0.09754872
43	0xbdcbb1da	-0.09946032
44	0xbe18d343	-0.1492434
45	0x3e2859af	0.16440462
46	0xbdcbfe0c	-0.09960565
47	0xbe88e835	-0.2673966
48	0x3dff5de5	0.12469081
49	0xbe55621f	-0.20838211
50	0x3d8ce90d	0.068803884
51	0xbe2229d4	-0.15836269
52	0xbce57e97	-0.028014464
53	0x3e086341	0.13319112
54	0x3e84ca9c	0.2593583
55	0xbd60adad	-0.05485313
56	0xbc03a2b0	-0.008034393
57	0x3ddd23a3	0.10797813
58	0xbe8b44f3	-0.27201042
59	0x3d9b6300	0.07587242
60	0xbe5be69d	-0.2147469
61	0xbde2bd5a	-0.11071272
62	0x3dc3d20c	0.09561548
63	0x3e2540c0	0.16137981
64	0xbc91bf44	-0.017791398
65	0xbd71de24	-0.05904974
66	0x3d075dfc	0.033048615
67	0xbd885ef8	-0.06658739
68	0x3c29075b	0.010316695
69	0x3d938272	0.07202615
70	0xbe4ff44b	-0.20308034
71	0xbe25fa85	-0.16208847
72	0x3e2a569d	0.16634603
73	0x3da2b708	0.07945067
74	0x3c948236	0.018128496
75	0x3dea6a48	0.11446053
76	0x3db490fa	0.088167146
77	0x3d3c27bb	0.045936327
78	0x3e8c5ed3	0.27416095
79	0xbe0c42fb	-0.13697426
80	0xbe620942	-0.22073844
81	0xbc63e7ed	-0.013910276
82	0x3db43aed	0.08800302
83	0xbc0f64f6	-0.008752098
84	0x3dea87c4	0.114516765
85	0x3dd6cfeb	0.10488876
86	0x3c98963d	0.018626327
87	0xbdc439fe	-0.09581374
88	0xbde410e5	-0.11136035
89	0xbdebfc0e	-0.11522685
90	0xbd886171	-0.066592105
91	0xbc983374	-0.018579222
92	0xbb8387d6	-0.0040139956
93	0xbd48548b	-0.04890875
94	0x3e791dd2	0.24327782
95	0xbd925faf	-0.071471564
96	0x3e49aa81	0.19693948
97	0xbd979730	-0.074018836
98	0xbdcca9ac	-0.099933
99	0xbe07335a	-0.13203183
100	0xbcade6d3	-0.02122823
101	0x3d82b567	0.06382256
102	0x3e256ddf	0.16155194
103	0xbdeb5e7e	-0.11492632
104	0x3c16ca8f	0.009203567
105	0x3d6937c2	0.05693794
106	0x3d7b2dfa	0.061323144
107	0xbe4cd170	-0.20001769
108	0xbe51d0be	-0.20489785
109	0x3c199690	0.009374276
110	0xbd87d4d0	-0.06632388
111	0xbd7c8393	-0.061648916
112	0xbd963641	-0.07334567
113	0x3c9cd627	0.019145085
114	0x3da794d2	0.08182682
115	0x3deb48d5	0.11488501
116	0xbdef9662	-0.11698605
117	0xba49d757	-0.00076996296
118	0x3c81bb58	0.015836403
119	0xbda1497d	-0.07875345
120	0xbca1dca4	-0.01975853
121	0x3ccbc023	0.024871891
122	0x3db7cbc1	0.0897441
123	0x387d14ef	6.0339396e-05
124	0xbba3673d	-0.004986672
125	0x3d762450	0.060093224
126	0x3e2398ca	0.15976253
127	0xbcadb0ad	-0.02120241
128	0xbd5c5ea0	-0.05380118
129	0xbdcf957d	-0.101359345
130	0x3da80f88	0.08206087
131	0xbe584308	-0.2111932
132	0x3e2a08ab	0.16604869
133	0x3e0192fe	0.1265373
134	0x3da8e18a	0.08246143
135	0x3eb1e0ff	0.3474197
136	0xbd4b919d	-0.049699415
137	0xbd7daacd	-0.061930466
138	0xbe5bc152	-0.21460465
139	0x3dea9659	0.11454458
140	0x3d91bd08	0.07116133
141	0x3df2abdf	0.11849188
142	0x3de7077b	0.11280724
143	0x3d3692e1	0.04457367
144	0x3e51a218	0.2047199
145	0xbd9aa228	-0.0755046
146	0x3e08d2fb	0.13361733
147	0xbe183f5c	-0.1486792
148	0xbce04f5e	-0.027381595
149	0x3e32c147	0.17456542
150	0x3dfc80e1	0.12329269
151	0xbc04ec31	-0.008112953
152	0xbe83b892	-0.25726753
153	0x3db76c4c	0.08956203
154	0x3d201fa8	0.03909269
155	0xbe0658e4	-0.13119847
156	0x3e40406d	0.18774576
157	0xbe05bced	-0.1306035
158	0x3d1f34c0	0.038868666
159	0x3d0b2b65	0.03397693
160	0xbe72690e	-0.23672888
161	0x3df7a65b	0.12092277
162	0x3d87541c	0.066078395
163	0xbe2be05d	-0.16784807
164	0xbd535041	-0.051590208
165	0xbd3312c5	-0.043719072
166	0x3d4d7e8d	0.050169516
167	0xbd49827d	-0.04919671
168	0x3e389db1	0.18028904
169	0xbdd588b1	-0.104264624
170	0x3e484070	0.19555831
171	0x3ddf7016	0.109100506
172	0x3e141ffa	0.14465323
173	0x3e18f6fc	0.14937967
174	0x3d53894a	0.0516446
175	0xbde60449	-0.11231286
176	0xbce2fcb2	-0.027708385
177	0x3d0bcde5	0.034131903
178	0x3de60c67	0.11232834
179	0x3d88f2f3	0.06686964
180	0xbd8cdfe2	-0.0687864
181	0xbe470c64	-0.1943832
182	0x3df8fa4f	0.121571176
183	0xbde63679	-0.112408586
184	0x3d72032f	0.059085067
185	0x3e0ec349	0.13941683
186	0xbe26a2ea	-0.16273084
187	0x3d134c00	0.03596115
188	0xbcf9d43f	-0.030496715
189	0x3de33523	0.110941194
190	0xbdd0a6ef	-0.1018809
191	0x3e1b7ed3	0.15185098
192	0xbb9ba98a	-0.0047504352
193	0xbc8f2119	-0.017471837
194	0x3d5ab34c	0.053393647
195	0xbe3eab1b	-0.18619959
196	0x3d6ef3d8	0.058338016
197	0x3e848c7e	0.25888437
198	0xbdb67bfe	-0.089103684
199	0xbce09a30	-0.027417272
200	0xbe45dbd0	-0.19322133
201	0x3da70a1a	0.081562236
202	0xbdb1acfe	-0.08675574
203	0xbdf74a9d	-0.12074778
204	0xbcf49877	-0.029857857
205	0x3b73e7c6	0.0037217005
206	0x3d3d9875	0.046287972
207	0xbdcb286c	-0.09919819
208	0xbe67c3f1	-0.2263334
209	0x3d809f58	0.062803924
210	0x3dd4c312	0.10388769
211	0xbcae3552	-0.02126566
212	0xbe3b0617	-0.18264042
213	0x3e14503e	0.14483735
214	0xbca0ea7b	-0.019643059
215	0xbe7989b0	-0.2436893
216	0x3c5570b1	0.013027356
217	0xbe958672	-0.29204136
218	0x3e02d0d8	0.1277498
219	0x3d059bc1	0.03261924
220	0x3cf077ce	0.029354002
221	0x3dc3869f	0.09547161
222	0xbd83df2c	-0.06439051
223	0xbde85fe2	-0.11346413
224	0x3d1a9da9	0.037748013
225	0xbe2cfdfd	-0.16893764
226	0x3c351dc0	0.011054456
227	0x3ce557b4	0.027995922
228	0x3d25c119	0.040467355
229	0xbdc77f66	-0.09741096
230	0x3d48315d	0.0488752
231	0x3e716a43	0.23575692
232	0x3e2e73a0	0.17036295
233	0xbdc0b648	-0.094097674
234	0xbccf6e10	-0.025321037
235	0x3e0d7b0d	0.13816471
236	0xbe6c78ae	-0.2309291
237	0x3d3ab134	0.04557915
238	0x3dd87668	0.10569459
239	0x3e0bf5c2	0.13667968
240	0x3dccba53	0.09996476
241	0x3e40fbbc	0.18846029
242	0x3e67b8ea	0.22629133
243	0xbe770184	-0.24121672
244	0x3e9ca894	0.30597365
245	0x3dc65830	0.09684789
246	0x3e8099e5	0.25117412
247	0x3d4c48e6	0.04987421
248	0xbde2273b	-0.11042639
249	0xbdcd6bfc	-0.10030362
250	0x3e16fb2b	0.1474425
251	0xbd8a2130	-0.06744611
252	0xbdb2b3a0	-0.08725667
253	0x3d0c425b	0.03424297
254	0x3dc92cbc	0.098229855
255	0xbb864861	-0.0040979837

encoder_lstm.lstm.bias_ih_l0 f4 [192]
0	0x3ea6e91c	0.32599723
1	0xbeae423c	-0.34034908
2	0xbe0521ed	-0.13001223
3	0xbe89098c	-0.26765096
4	0xbe1f03de	-0.15528819
5	0x3da5a4f0	0.080881
6	0xbd696bbd	-0.056987513
7	0x3c80730a	0.015679855
8	0x3c8dbd9c	0.017302327
9	0x3b3d2cb6	0.002886576
10	0xbdb26b68	-0.08711892
11	0xbdb898a1	-0.09013487
12	0xbd24e959	-0.0402616
13	0xbcf8f3ca	-0.030389685
14	0xbe7a9218	-0.24469793
15	0xbe89e809	-0.2693484
16	0x3cfe1129	0.031014042
17	0xbe5d1992	-0.21591786
18	0xbd62e04d	-0.05538969
19	0xbdc78da6	-0.09743814
20	0xbe57f963	-0.21091227
21	0xbe1c8d00	-0.15288162
22	0xbcb2ad97	-0.02181129
23	0xbea4346f	-0.32071254
24	0x3e1075fb	0.14107506
25	0xbe41c725	-0.18923624
26	0xbcacf3c5	-0.021112332
27	0x3c2c1e14	0.010505218
28	0xbe289172	-0.16461733
29	0xbe10f2d4	-0.14155132
30	0x3e04e13e	0.12976548
31	0x3d1778d3	0.03698046
32	0xbde087bc	-0.10963389
33	0xbdd6d033	-0.104889296
34	0xbcde87b4	-0.027164318
35	0xbdb16f7a	-0.086638406
36	0xbd9be4b1	-0.07611979
37	0xbdbbd8f2	-0.091722384
38	0xbd725741	-0.059165243
39	0x3c12504f	0.00893028
40	0xbd9311ea	-0.07181151
41	0xbe96913f	-0.2940769
42	0xbe99a98e	-0.30012172
43	0xbe6c88c8	-0.23099053
44	0x3e437a72	0.19089678
45	0xbd7d6877	-0.061867204
46	0xbd8ece58	-0.06972951
47	0xbe88eaf5	-0.26741758
48	0xbd20c0b1	-0.039246265
49	0xbd574c65	-0.05256309
50	0xbdd5133e	-0.10404061
51	0xbdcbc6fb	-0.09950062
52	0xbd069d90	-0.032865107
53	0x3c431f21	0.011909277
54	0xbdfb3eb4	-0.12267819
55	0x3e169a5d	0.14707322
56	0xbd8335e7	-0.064067654
57	0xbdadf766	-0.08494453
58	0xbd281e11	-0.0410443
59	0xbd942425	-0.072334565
60	0xbda1f266	-0.07907562
61	0x3cd0e008	0.025497451
62	0x3cc83a77	0.02444194
63	0xbe041401	-0.12898256
64	0xbe22c929	-0.15897049
65	0x3de5fde1	0.11230064
66	0x3dacf715	0.08445565
67	0xbdb318d2	-0.087449685
68	0xbe51a88f	-0.20474456
69	0xbe20b6dc	-0.15694755
70	0x3b277cb1	0.00255565
71	0xbe467e50	-0.19384122
72	0x3d437663	0.047720324
73	0xbe43cf01	-0.19121934
74	0xbe3e77e9	-0.1860043
75	0xbe17b052	-0.14813355
76	0x3d36a624	0.044592038
77	0xbcd49d37	-0.025953872
78	0x3c7139ef	0.014723285
79	0xbd9014c7	-0.07035213
80	0xbdf71e37	-0.1206631
81	0xbc075d6f	-0.008262022
82	0x3e0d7c12	0.1381686
83	0xbe34d46e	-0.1765916
84	0xbd019128	-0.031632572
85	0x3d70e4e2	0.05881203
86	0xbe887523	-0.26651868
87	0xbe97d6ec	-0.2965616
88	0xbe147bad	-0.14500304
89	0xbe0a0f3d	-0.13482375
90	0xbe8b008a	-0.2714885
91	0xbd8e2889	-0.06941325
92	0xbbe2c044	-0.0069198925
93	0xbbbe84a6	-0.005814153
94	0xbe31838d	-0.17335339
95	0xbd4ab81c	-0.049491987
96	0x3d78d60c	0.060751006
97	0x3e07dbf5	0.132675
98	0xbd001109	-0.031266246
99	0x3e003d1e	0.12523314
100	0x3de1b873	0.11021509
101	0x3d538e06	0.051649116
102	0x3cfa91c2	0.03058708
103	0x3e0d2736	0.13784489
104	0xbcf26249	-0.029587882
105	0x3d59d9dd	0.053186286
106	0xbc971059	-0.018440412
107	0x3e0e4483	0.13893323
108	0xbdae53d4	-0.08512083
109	0x3dfac80f	0.122451894
110	0xbd81ae57	-0.06332081
111	0x3da65522	0.081217065
112	0x3c6c50ac	0.014423531
113	0x3ded80f0	0.115968585
114	0x3cf49a82	0.029858831
115	0xbcc096b4	-0.02350936
116	0xbc86aa8e	-0.016438749
117	0xbdff4298	-0.124638736
118	0x3cc535f5	0.02407358
119	0xbcaa2fb4	-0.0207747
120	0xbdb5eea8	-0.08883411
121	0xbdeda71a	-0.11604138
122	0xbcad05b9	-0.021120893
123	0xb9d8f4e0	-0.00041381177
124	0x3dd7db90	0.10539925
125	0x3d9820f0	0.07428157
126	0x3cac02ba	0.020997394
127	0x3a81fb17	0.000991675
128	0xbe30e1d0	-0.1727364
129	0xbdcfb511	-0.101419576
130	0xbd8336a5	-0.06406907
131	0x3e0079e3	0.12546496
132	0xbd11fa8a	-0.035639323
133	0x3c929782	0.01789451
134	0x3cdfcb7f	0.027318714
135	0x3cd88bee	0.026433911
136	0x3d91f3ad	0.071265556
137	0x3dcfc5fb	0.10145184
138	0x3c85c291	0.016328128
139	0xbd98f0ea	-0.07467826
140	0xbd5a8a0a	-0.0533543
141	0x3db499c9	0.08818395
142	0xbde10e76	-0.10989086
143	0xbe17981d	-0.1480412
144	0x3e879416	0.26480168
145	0xbdf0fe4d	-0.11767254
146	0xbe21aa0a	-0.15787521
147	0x3e13c187	0.14429294
148	0xbe10832d	-0.1411254
149	0x3ec37ac3	0.38179597
150	0xbd89e276	-0.06732647
151	0x3e13cf07	0.14434443
152	0xbea6bdca	-0.32566673
153	0x3e282052	0.16418579
154	0xbc7da71b	-0.015481736
155	0xbdb94650	-0.09046614
156	0x3e02d701	0.1277733
157	0xbec56cc3	-0.3855954
158	0xbdfe521e	-0.12418006
159	0xbdb1657d	-0.086619355
160	0xbe7028b8	-0.23453033
161	0xbb9ea10c	-0.0048409756
162	0xbe4caf33	-0.19988708
163	0xbe0d99e8	-0.13828242
164	0xbda6c547	-0.081430964
165	0xbe37c66d	-0.17946787
166	0x3d80b487	0.06284433
167	0xbe355f5d	-0.1771216
168	0x3d721288	0.059099704
169	0x3dac861d	0.084240176
170	0xbc264f8e	-0.010150803
171	0xba83a565	-0.0010043798
172	0xbe0bee4d	-0.13665123
173	0xbec7c95f	-0.3902082
174	0xbdd3d690	-0.10343659
175	0x3ce72d30	0.02821979
176	0x3d820026	0.063476846
177	0xbe6f89db	-0.23392431
178	0x3da8543f	0.08219194
179	0xbeaf373e	-0.34221834
180	0xbe29eb11	-0.16593577
181	0xbe536f31	-0.20647885
182	0xbd3f0ada	-0.04664121
183	0xbe243d8f	-0.16039108
184	0x3d163382	0.036670215
185	0xbed6ddc0	-0.41966057
186	0xbe9e582e	-0.3092665
187	0xbe1ad4f2	-0.15120295
188	0x3dc2221a	0.094791606
189	0xbe4d7368	-0.20063555
190	0xbd5471d6	-0.051866375
191	0xbe2abd1e	-0.16673705

encoder_lstm.lstm.bias_hh_l0 f4 [192]
0	0x3ded64c9	0.11591489
1	0xbd91ada0	-0.071131945
2	0xbda00d06	-0.07814984
3	0xbe5adddb	-0.21373694
4	0x3b860002	0.0040893564
5	0x3e0eaa94	0.13932258
6	0x3ae785b2	0.0017663746
7	0x3d9751bd	0.07388637
8	0xbdb71e96	-0.08941381
9	0x3d398e56	0.045301758
10	0xbe90fe00	-0.28318787
11	0xbd9f8d00	-0.077905655
12	0xbd9f5272	-0.07779397
13	0xbe2acff9	-0.16680898
14	0xbd83491b	-0.06410428
15	0xbea7048b	-0.32620654
16	0xbc767103	-0.0150415925
17	0xbe786fb2	-0.24261358
18	0xbe15eac5	-0.14640339
19	0x3dc5c3f3	0.09656515
20	0xbec1383d	-0.3773822
21	0xbe24e024	-0.16101128
22	0xbae57d6c	-0.0017508692
23	0xbe3e6799	-0.18594207
24	0x3dcd5229	0.100254364
25	0xbe91f090	-0.28503847
26	0xbe31ea48	-0.17374527
27	0x3ddd482d	0.10804782
28	0xbdbb57fe	-0.091476426
29	0xbea26aee	-0.31722206
30	0x3e4ca7ae	0.1998584
31	0x3dd5f115	0.104463734
32	0x3d1052e0	0.035235286
33	0xbe89df4e	-0.2692818
34	0x3d2090d1	0.039200608
35	0xbea1eb6d	-0.31624928
36	0xbdd2c46d	-0.102913715
37	0xbe8ddb55	-0.277064
38	0xbe2cd688	-0.16878712
39	0xbd493ccc	-0.049130246
40	0xbe572ae7	-0.2101246
41	0xbe8c55d3	-0.2740923
42	0xbea872b5	-0.32900015
43	0xbdf4e026	-0.119568154
44	0x3dc77e03	0.09740832
45	0xba9f7ee9	-0.001216856
46	0xbe06f11c	-0.13177913
47	0xbe8d47ee	-0.2759394
48	0xbcb7c800	-0.022434235
49	0xbda53dd3	-0.08068433
50	0xbc7b092b	-0.01532201
51	0x3c01854d	0.007905317
52	0xbe476fa3	-0.1947618
53	0xbc6fb2f8	-0.014630072
54	0xbca9155d	-0.02064007
55	0xbd3ecc39	-0.04658148
56	0xbe18ee43	-0.1493464
57	0xbdb72027	-0.089416794
58	0xbe232ed8	-0.15935838
59	0xbda0c5c1	-0.078502186
60	0x3cbde2b8	0.023179397
61	0xbe161622	-0.1465688
62	0xbe2676c4	-0.16256243
63	0x3caa84b7	0.020815236
64	0xbd005ea0	-0.03134024
65	0x3cfe8300	0.031068325
66	0xbc0b1ab4	-0.008490253
67	0xbd16cae5	-0.03681459
68	0xbdcd7173	-0.10031404
69	0xbeb471ea	-0.3524316
70	0xbdbac430	-0.09119451
71	0xbe518362	-0.20460275
72	0xbd928024	-0.07153347
73	0xbe5d9896	-0.21640238
74	0x3cd8e459	0.026476072
75	0x3d85beb9	0.06530518
76	0x3dbb7c83	0.09154608
77	0xbe52ccf0	-0.2058599
78	0xbdba82d3	-0.09106984
79	0xbc9726d0	-0.018451124
80	0xbc5b291d	-0.013376501
81	0xbd515f72	-0.051116414
82	0xbe0917bb	-0.13387959
83	0xbdc0e409	-0.09418494
84	0x3ce2c098	0.027679726
85	0xbe332283	-0.17493634
86	0xbe245b69	-0.16050495
87	0xbe260fb1	-0.16216923
88	0xbdb9f892	-0.09080614
89	0xbecccb9a	-0.39999086
90	0xbe806f06	-0.25084704
91	0xbe423c54	-0.18968326
92	0xbd9794f2	-0.07401456
93	0xbdad3f41	-0.0845933
94	0xbdbc111c	-0.09182951
95	0xbdbb6c0b	-0.09151467
96	0xbd86e2d4	-0.06586233
97	0x3e02f453	0.12788515
98	0xbc9673e7	-0.018365813
99	0x3e0cdd77	0.13756357
100	0xbaf1e1f5	-0.0018454181
101	0xbe274812	-0.16336086
102	0x3cb9372d	0.022609318
103	0x3e1ec602	0.15505221
104	0x3e354e52	0.17705658
105	0xbdceda3c	-0.10100219
106	0x3d813170	0.063082576
107	0x3e2399a1	0.15976574
108	0xbc8151ae	-0.015786018
109	0x3dc4ae0c	0.09603509
110	0xbcbea334	-0.02327118
111	0x3c6250d3	0.013813215
112	0x3e29b6f6	0.165737
113	0x3e4585ab	0.19289272
114	0x3e214a73	0.15751056
115	0x3db91ff5	0.090392984
116	0x3e1bd891	0.15219332
117	0x3cd2fea1	0.025756182
118	0x3cb2c364	0.021821685
119	0x3e221eae	0.15832016
120	0x3dab6d18	0.08370417
121	0x3d157a5e	0.03649365
122	0x3defe7e2	0.1171415
123	0xbda190fc	-0.07888982
124	0x3e0d295b	0.13785307
125	0xbe205bee	-0.15660068
126	0x3e00b67a	0.1256961
127	0x3e04b4ea	0.12959638
128	0xbcbb1459	-0.022836851
129	0x3d12c32f	0.035830673
130	0x3e126d7b	0.14299576
131	0xbd0d895b	-0.03455482
132	0xbc6853c9	-0.014180132
133	0xbd4b5dd4	-0.04965003
134	0xbded60f8	-0.11590761
135	0xbd8f83ea	-0.070075825
136	0xbdeeadf4	-0.11654273
137	0x3ce38b77	0.027776463
138	0x3c3022aa	0.010750452
139	0xbd3d0ac6	-0.046152852
140	0xbe02f735	-0.12789614
141	0x3c3c6d4c	0.011500668
142	0xbe120ee7	-0.14263497
143	0xbe030972	-0.12796572
144	0x3e9d88d2	0.30768448
145	0xbe03abd2	-0.12858513
146	0xbdf721f0	-0.1206702
147	0xbdd27afa	-0.10277362
148	0xbd70e97b	-0.058816414
149	0x3e9c88d8	0.30573153
150	0xbe54e3b9	-0.20789994
151	0x3c801ac8	0.01563777
152	0xbe89267c	-0.26787174
153	0xbde3208f	-0.110901944
154	0xbd328fd5	-0.0435942
155	0xbe4944b2	-0.19655111
156	0xbd0a4239	-0.03375456
157	0xbe855057	-0.26037857
158	0xbe859412	-0.2608953
159	0xbe8e758a	-0.2782405
160	0xbe61f4b1	-0.22065999
161	0x3be13e32	0.0068738693
162	0xbe00368e	-0.12520811
163	0x3ce76fef	0.028251616
164	0xbd08c331	-0.033389274
165	0xbeaa8e9a	-0.3331192
166	0xbdb5cf28	-0.088774025
167	0xbe69219f	-0.22766732
168	0xbde09347	-0.10965591
169	0x3d843504	0.064554244
170	0xbe832662	-0.2561522
171	0x3dad5fd1	0.08465541
172	0x3d1949b5	0.037423808
173	0xbea7a1a7	-0.32740518
174	0xbd28ebbd	-0.041240443
175	0x3e38562a	0.18001619
176	0xbcc26484	-0.02372957
177	0xbe33775a	-0.17525998
178	0xbce2d16f	-0.027687756
179	0xbe4fd101	-0.20294572
180	0xbe167f8c	-0.14697093
181	0xbe88ab4a	-0.26693183
182	0xbdabc46f	-0.08387076
183	0xbd7aa633	-0.061193656
184	0x3c67f03e	0.014156399
185	0xbeb0b2d3	-0.34511432
186	0xbeb14024	-0.34619248
187	0xbeb0664e	-0.34453052
188	0x3e8ddc3f	0.27707097
189	0xbed5988e	-0.41717952
190	0xbd06c7e2	-0.032905467
191	0xbe2107ca	-0.15725628

decoder_lstm.lstm.weight_ih_l0 f4 [192, 10]
0	0xbdc691c4	-0.09695771
1	0xbe53a437	-0.20668112
2	0x3d98a843	0.074539684
3	0xbda9b907	-0.08287244
4	0x3c92ef2d	0.017936314
5	0xbd9c8019	-0.0764162
6	0x3d08789e	0.033318155
7	0x3deb8065	0.11499099
8	0x3caaaffd	0.02083587
9	0x3e63621c	0.22205395
10	0x3e18dbe9	0.14927639
11	0xbefb56ba	-0.49089605
12	0x3bbb93ca	0.005724405
13	0x3cc85d4e	0.024458554
14	0x3c8c603d	0.017135734
15	0xbdd3eac5	-0.10347513
16	0x3d6f3789	0.05840257
17	0x3df1d869	0.11808855
18	0xbd138027	-0.036010887
19	0x3e74bf78	0.23901165
20	0xbdc17128	-0.09445411
21	0x3c93403e	0.017974969
22	0xbd00fe85	-0.03149273
23	0xbd6c91d4	-0.05775626
24	0xbe236e39	-0.15960015
25	0xbc850aff	-0.016240595
26	0xbbc0db66	-0.0058855293
27	0x3d4715b3	0.04860468
28	0xbe1f9885	-0.15585525
29	0xbe74f587	-0.23921786
30	0xbbea2d9f	-0.0071465517
31	0x3e890dcf	0.26768348
32	0x3d8925c3	0.066966556
33	0x3dfcc9d9	0.12343187
34	0xbde29ff5	-0.11065666
35	0x3d9b3ba0	0.07579732
36	0xbc48762e	-0.0122352075
37	0xbdac669f	-0.08418011
38	0xbc866856	-0.016407173
39	0xbe0699d8	-0.13144624
40	0x3e117a22	0.14206746
41	0x3b562313	0.0032674714
42	0x3cfadd75	0.030623177
43	0x3dad65b1	0.08466662
44	0xbcec9abb	-0.028882375
45	0x3e0c6831	0.13711621
46	0x3e3ca2da	0.18421498
47	0xbd9100e2	-0.070802465
48	0xbcea7cae	-0.028623905
49	0xbd5bf98c	-0.053704783
50	0x3e362874	0.17788869
51	0xbe06312f	-0.131047
52	0xbcd10a22	-0.025517527
53	0xbbf4b019	-0.0074672815
54	0xbe10f5eb	-0.1415631
55	0x3e14fef0	0.14550376
56	0x3e66ea88	0.22550404
57	0x3d31ccf9	0.043408368
58	0x3d8c596c	0.06852993
59	0xbe4a303a	-0.1974496
60	0x3d86b1c4	0.06576875
61	0x3e406f1e	0.18792388
62	0xbe61a89f	-0.2203698
63	0x3d3dd361	0.046344165
64	0x3e1e7b86	0.15476808
65	0x3e2a5e98	0.16637647
66	0xbb9ef460	-0.004850909
67	0xbd3c6ecc	-0.0460041
68	0x3dda7d85	0.10668472
69	0x3c51f7a2	0.012815388
70	0x3d993993	0.074816845
71	0x3dab3c73	0.08361139
72	0x3de07229	0.10959274
73	0xbd9cb364	-0.076514035
74	0xbd859a20	-0.06523538
75	0x3be30b2f	0.0069288234
76	0x3e2176d6	0.15767989
77	0xbd385ea2	-0.045012124
78	0xbd693c9d	-0.05694257
79	0xbe357bf4	-0.17723066
80	0xbdfc096e	-0.12306486
81	0xbd026eb1	-0.031843845
82	0x3cab0e06	0.02088071
83	0xbc4b81b4	-0.01242106
84	0x3e3fae16	0.18718752
85	0xbe0e10b2	-0.13873556
86	0xbe206e1e	-0.15667006
87	0x3dcac9eb	0.09901794
88	0x3ca9650e	0.02067807
89	0x3e416f3d	0.1889009
90	0x3e2551b6	0.16144451
91	0xbe4befbc	-0.1991567
92	0x3da0e539	0.07856221
93	0x3d3bbbfc	0.045833573
94	0xbe1b51ea	-0.15167966
95	0x3db151e4	0.086581975
96	0xbc282768	-0.010263301
97	0xbd2f5872	-0.042808957
98	0xbd083e1b	-0.033262353
99	0x3d16b006	0.036788963
100	0x3dd7f89d	0.10545466
101	0x3e41389f	0.18869255
102	0x3e3fbd00	0.18724442
103	0x3e0b8570	0.13625121
104	0x3d26c160	0.04071176
105	0x3d73aeed	0.059492994
106	0x3cc5cbcb	0.024145028
107	0xbe100294	-0.14063483
108	0xbe77f4d9	-0.24214496
109	0xbb87b4d0	-0.0041414276
110	0x39fa0aa8	0.00047691655
111	0xbae9d846	-0.0017840944
112	0x3cd54506	0.02603389
113	0x3c65e576	0.0140317585
114	0x3cf0fba9	0.029416876
115	0xbd00141c	-0.031269178
116	0xbd8ce7b6	-0.06880133
117	0x3d85f1e5	0.06540278
118	0xbd0964b0	-0.03354329
119	0x3ce06029	0.027389603
120	0xbe2973f0	-0.16548133
121	0xbe0a1e01	-0.13488008
122	0x3db0d3b4	0.08634129
123	0x3dea9353	0.11453881
124	0xbe32ad4a	-0.17448917
125	0xbc98a45c	-0.01863306
126	0x3d08f8a5	0.03344025
127	0xbb78e9a4	-0.0037981058
128	0xbdabd92c	-0.083910316
129	0xbccdcb28	-0.025121287
130	0xbe5fda12	-0.21860531
131	0x3d4acbdf	0.049510833
132	0x3dd2141f	0.10257744
133	0x3d972f08	0.073820174
134	0x3b9b817d	0.004745661
135	0x3e446d7e	0.19182393
136	0x3e3fd4bf	0.187335
137	0xbde29be7	-0.11064892
138	0xbda8622f	-0.08221852
139	0xbe3764ee	-0.17909595
140	0xbe5a9513	-0.2134593
141	0xbd7d99d5	-0.061914284
142	0x3caecb9b	0.021337321
143	0x3cdec627	0.027194096
144	0x3d0422ef	0.032259878
145	0x3e3b7267	0.1830536
146	0x3e3906fb	0.18069069
147	0x3d9b3a2c	0.07579455
148	0xbd3d96ee	-0.046286516
149	0x3d8e3586	0.069438025
150	0xbcc086d2	-0.023501787
151	0xbe93e479	-0.28885248
152	0xbe0a5f21	-0.13512851
153	0xbd6354b4	-0.0555007
154	0x3e6a9066	0.22906646
155	0xbe035481	-0.12825204
156	0xbe428086	-0.1899434
157	0x3e5bf886	0.21481523
158	0x3dbcd5a1	0.09220434
159	0x3e74c64f	0.23903774
160	0x3e63c276	0.2224215
161	0xbbbbdcb3	-0.0057330965
162	0xbd116c6a	-0.035503782
163	0xbc21acb1	-0.009867833
164	0xbd9b11bf	-0.07571744
165	0x3efabd95	0.48972765
166	0x3d5c536d	0.0537905
167	0xbed18010	-0.40918016
168	0xbe793aca	-0.24338832
169	0xbf431f3e	-0.76219547
170	0xbeae7be5	-0.340789
171	0x3e9c4ed6	0.30528897
172	0xbebb9c96	-0.36642903
173	0xbe5018c6	-0.2032195
174	0x3d6733c9	0.05644587
175	0x3f163b78	0.5868449
176	0xbde614c6	-0.11234431
177	0xbe1cbde5	-0.15306814
178	0x3db5b6b3	0.08872738
179	0xbf05b86b	-0.52234524
180	0xbe709e57	-0.23497902
181	0x3ddae1ed	0.10687623
182	0xbe55f7f8	-0.20895374
183	0x3dbffd46	0.0937448
184	0x3d636db2	0.055524535
185	0x3eaae259	0.33375815
186	0x3de0481d	0.109512545
187	0xbe76fd35	-0.24120028
188	0x3d7799bc	0.060449347
189	0xbf131856	-0.5745901
190	0x3d88ec4f	0.06685697
191	0xbdfe71d2	-0.12424053
192	0xbdd05e21	-0.10174204
193	0xbdcafffd	-0.09912107
194	0x3d098695	0.033575613
195	0x3e458435	0.19288714
196	0x3b8c8bab	0.0042891107
197	0xbdafc09f	-0.085816614
198	0xbd8973b9	-0.067115255
199	0xbd15f1db	-0.036607604
200	0xbe22fb2e	-0.1591613
201	0xbe9a3cd6	-0.3012454
202	0xbd919fbc	-0.07110545
203	0x3e1fb52f	0.1559646
204	0xbe23d2d8	-0.159984
205	0x3dee0e30	0.116238
206	0x3e055f06	0.1302453
207	0x3da1ec06	0.07906346
208	0x3dc380b4	0.095460325
209	0xbbb37163	-0.0054761632
210	0x3c006f7f	0.007839083
211	0x3c4beea7	0.012447036
212	0xbda68a9a	-0.08131905
213	0xbdabf07f	-0.0839548
214	0xbe4de67a	-0.20107451
215	0x3eba6a7c	0.36409366
216	0xbcc168c7	-0.023609532
217	0xbe1e568f	-0.15462707
218	0xbe17ec51	-0.14836241
219	0xbe99247b	-0.29910645
220	0x3d8a2ebd	0.06747196
221	0xbe9ea36d	-0.3098406
222	0xbd1f7f64	-0.03893985
223	0xbbf12c86	-0.007360044
224	0xbcea170d	-0.028575445
225	0xbc0bc265	-0.008530234
226	0x3d08937e	0.033343785
227	0x3d95eb95	0.07320324
228	0x3e18b360	0.14912176
229	0xbd37db86	-0.04488709
230	0x3c866164	0.016403861
231	0xbd4f22c5	-0.05057027
232	0xbe6a2dd8	-0.2286905
233	0x3c05d56d	0.00816856
234	0xbe296bb4	-0.16544992
235	0xbd43e662	-0.047827132
236	0x3db327bb	0.08747812
237	0xbdc47530	-0.09592664
238	0xbdaa843d	-0.08326004
239	0xbe018b61	-0.12650825
240	0xbde1be43	-0.11022618
241	0x3e4828b0	0.19546771
242	0xbd97ee45	-0.07418493
243	0xbe1e6967	-0.15469895
244	0x3e2093b7	0.15681349
245	0xbd9a1f6a	-0.07525523
246	0xbe270c5b	-0.16313307
247	0x3d90718f	0.070529096
248	0x3e32cb92	0.17460468
249	0x3e626df2	0.22112253
250	0x3dc46050	0.09588683
251	0x3dbfaf7e	0.09359644
252	0xbe0b3d68	-0.13597643
253	0x3d6f38e9	0.058403883
254	0xbd6d119b	-0.057878118
255	0x3d74d4c6	0.05977323

decoder_lstm.lstm.weight_hh_l0 f4 [192, 48]
0	0x3d857a74	0.06517497
1	0xbdaf1264	-0.085484296
2	0xbd1ffe9b	-0.03906117
3	0x3c1938db	0.009351934
4	0x3df27d9a	0.11840363
5	0xbd1cb7f2	-0.03826136
6	0x3d3bc296	0.04583987
7	0x3da15909	0.0787831
8	0x3e370b95	0.17875512
9	0xbc90de81	-0.017684223
10	0xbe4aa21a	-0.197884
11	0x3e792bc1	0.24333097
12	0xbdd2b474	-0.10288325
13	0xbb5298e8	-0.0032134596
14	0x3d192830	0.03739184
15	0x3eb9e191	0.36304906
16	0xbd2146d3	-0.039374184
17	0x3e0e29b9	0.13883103
18	0x3c4f6564	0.012658451
19	0xbe219397	-0.15778957
20	0x3de542b7	0.111943655
21	0x3d79eed0	0.061018765
22	0x3e258797	0.16165005
23	0x3e816d2c	0.25278604
24	0x3cadc734	0.021213152
25	0xbd1557b2	-0.036460586
26	0xbd2c6c72	-0.04209561
27	0x3c8af619	0.016963052
28	0xbd1be2ed	-0.03805821
29	0x3e196843	0.14981179
30	0x3e1732df	0.147655
31	0xbb9350c4	-0.004495712
32	0x3d1d9c23	0.03847898
33	0xbe289b06	-0.16465387
34	0xbb5bc3ae	-0.0033533382
35	0x3cad902a	0.021186907
36	0x3d7fd704	0.062460914
37	0xbe50872f	-0.20364068
38	0xbcc16063	-0.023605531
39	0xbe173571	-0.1476648
40	0xbdd1130c	-0.10208711
41	0x3e880987	0.2656977
42	0xbdcf79bd	-0.101306416
43	0xbe5cb6f9	-0.21554174
44	0xbdd4b113	-0.10385337
45	0x3de0bac1	0.109731205
46	0x3cd8c7f6	0.026462536
47	0xbe03ac3c	-0.12858671
48	0xbe5718db	-0.21005575
49	0xbd8e67b5	-0.06953374
50	0x3e146c5b	0.1449446
51	0x3dcce25e	0.100041136
52	0x3cd9eb64	0.0266015
53	0xbc786aca	-0.015162179
54	0xbe63b050	-0.22235227
55	0x3e3226f9	0.1739768
56	0xbe890943	-0.2676488
57	0x3b3e1ad4	0.002900769
58	0xbdfea908	-0.12434584
59	0xbe47179b	-0.19442599
60	0x3d9dc177	0.07702916
61	0x3d80ed54	0.06295267
62	0x3e80d7b1	0.2516456
63	0xbd30e1ef	-0.043184217
64	0x3e15ee92	0.14641789
65	0xbd97abbe	-0.07405804
66	0xbe6c529e	-0.23078391
67	0x3e756fdf	0.23968457
68	0x3decdd43	0.1156564
69	0xbd85c3af	-0.06531464
70	0x3d3bcfbf	0.04585242
71	0x3e88f53c	0.267496
72	0xbe05cb8a	-0.13065925
73	0xbb1615d5	-0.0022901196
74	0xbdf44d7e	-0.11928843
75	0xbe33bea3	-0.17553191
76	0xbe8443f4	-0.25833094
77	0xbb200e74	-0.0024422677
78	0x3dd190cc	0.10232696
79	0x3d20d837	0.0392687
80	0x3dff5b4a	0.12468584
81	0xbea19482	-0.31558615
82	0xbdf24fd5	-0.11831633
83	0x3c918f34	0.01776848
84	0xbe064a69	-0.13114323
85	0x3e295ccf	0.1653931
86	0x3df31d1e	0.11870788
87	0xbd8a4ad0	-0.067525506
88	0x3e686275	0.22693808
89	0xbdb262ca	-0.08710249
90	0xbe28432a	-0.16431871
91	0x3d8924d4	0.066964775
92	0xbde38cf9	-0.11110873
93	0xbe1c1bb0	-0.15244937
94	0xbc1979a8	-0.009367384
95	0x3d35fea2	0.04443229
96	0x3d267edb	0.040648323
97	0x3cdd0c47	0.026983393
98	0xbe1a6a30	-0.1507957
99	0xbe5f3c75	-0.21800406
100	0x3e0e6ec1	0.13909437
101	0x3e059e46	0.13048658
102	0x3e086947	0.1332141
103	0xbd0b74e3	-0.03404702
104	0x3c718a57	0.014742455
105	0x3e6bf959	0.23044337
106	0xbe0f130a	-0.13972107
107	0x3e4479a7	0.19187032
108	0xbdde3e5b	-0.10851737
109	0x3df4aa71	0.119465716
110	0x3d7b3620	0.061330914
111	0xbdd2f5a9	-0.10300762
112	0xbdb76f4a	-0.089567736
113	0x3dcc0532	0.099619284
114	0xbd922401	-0.071357735
115	0x3da74386	0.08167176
116	0xbd9025d3	-0.070384644
117	0xbd91024c	-0.07080516
118	0xbbb066fe	-0.0053833714
119	0xbd6d6a48	-0.057962686
120	0x3e2c629f	0.16834496
121	0x3d76fd75	0.06030031
122	0xbd456de3	-0.0482005
123	0xbe07c18f	-0.1325743
124	0xbdbf5425	-0.09342221
125	0x3dcfc869	0.10145647
126	0xbdae9a9f	-0.085255854
127	0xbd0c02b4	-0.034182265
128	0xbd24138b	-0.0400577
129	0xbd591e3c	-0.05300735
130	0x3d646805	0.055763263
131	0xbe39c369	-0.1814095
132	0x3cf7013d	0.030151958
133	0xbb2301e7	-0.002487296
134	0xbd1f4bb9	-0.038890574
135	0xbe0e1484	-0.13875014
136	0x3dcc27a7	0.099685006
137	0xbd9abc79	-0.075554796
138	0x3e5db70f	0.21651863
139	0x3dd5e33d	0.10443733
140	0x3d9f725e	0.07785486
141	0xbdb6649a	-0.08905907
142	0x3d1084a4	0.035282746
143	0x3cbf566a	0.023356635
144	0xbd062b98	-0.032756418
145	0x3e003196	0.12518916
146	0x3db3751c	0.08762571
147	0xbe56154e	-0.20906565
148	0x3d07eab5	0.03318282
149	0x3e405670	0.18782973
150	0x3d92e02b	0.07171663
151	0x3d11f501	0.035634045
152	0x3d99a57a	0.07502265
153	0x3d4402d1	0.04785425
154	0xbda70800	-0.08155823
155	0x3d92bd98	0.071650684
156	0x3e9ecd90	0.31016207
157	0xbe1d8eb4	-0.15386468
158	0xbd05ea0b	-0.032693904
159	0x3d2067a0	0.039161325
160	0xbd60337c	-0.0547366
161	0x3d963eac	0.073361725
162	0xbda2c3b6	-0.07947485
163	0xbe1712c1	-0.14753248
164	0x3d78de04	0.060758606
165	0x3e0e5c0a	0.13902298
166	0xbdad88df	-0.08473372
167	0x3dc4880f	0.095962636
168	0x3e005323	0.12531714
169	0xbd4c35d8	-0.049856037
170	0xbd87f3d5	-0.06638304
171	0xbd713010	-0.058883727
172	0x3d656065	0.056000132
173	0x3d6cfcb5	0.057858188
174	0x3d9d8718	0.07691783
175	0x3cc00cab	0.02344354
176	0x3c9ed9d4	0.019390978
177	0xbd26e68e	-0.040747218
178	0x3d601c3d	0.05471443
179	0x3e6522ce	0.22376558
180	0xbe951e7d	-0.29124823
181	0x3ced9611	0.029002221
182	0x3d6c3c4b	0.057674687
183	0xbd1ecac2	-0.038767584
184	0x3e69f5e4	0.22847706
185	0x3e1bbc21	0.15208484
186	0x3dacd956	0.08439891
187	0x3dac1431	0.08402289
188	0xbc3dc767	-0.011583186
189	0x3d23d109	0.039994273
190	0xbe6efeb6	-0.23339352
191	0x3d9c6393	0.0763618
192	0xbe1e63e8	-0.15467799
193	0xbdad9349	-0.08475358
194	0x3e2dbcb9	0.16966523
195	0xbe4066a2	-0.18789151
196	0x3d25baee	0.040461473
197	0xbbebc182	-0.007194699
198	0x3db31915	0.087450184
199	0xbd025d82	-0.031827457
200	0x3d1a2301	0.03763104
201	0x3cc5fac5	0.024167428
202	0xbe472a35	-0.19449694
203	0x3cfe963e	0.0310775
204	0x3d37cd21	0.04487336
205	0xbd318b81	-0.043345932
206	0x3e116065	0.14196928
207	0x3e166323	0.14686255
208	0xbced8e96	-0.028998654
209	0x3d1cafa9	0.03825346
210	0x3da32f76	0.07968037
211	0xbdb59438	-0.08866161
212	0xbc832687	-0.016009582
213	0xbd07a7f8	-0.03311917
214	0x3ceec963	0.029148763
215	0x3c90d858	0.017681286
216	0x3e1cb543	0.15303521
217	0xbdab2b55	-0.08357874
218	0x3b37658d	0.0027984113
219	0x3dd1ecb4	0.10250226
220	0xbdf770e5	-0.1208208
221	0x3d864ed0	0.06558001
222	0xbdb86da6	-0.09005289
223	0x3c378dce	0.0112032425
224	0xbd9c0e0e	-0.07619868
225	0xbdb69f05	-0.08917049
226	0xbcd208f0	-0.025639027
227	0x3e08a8f1	0.13345696
228	0x3dc0b294	0.09409061
229	0xbcba8fad	-0.022773588
230	0xbc0fa58f	-0.0087675
231	0x3ce3e6ad	0.027819956
232	0x3e393802	0.18087772
233	0xbbdf0ac6	-0.006806704
234	0xbd79e941	-0.061013464
235	0x3d88ec65	0.06685714
236	0x3ca3d3a8	0.019998387
237	0xbdfa8522	-0.12232424
238	0xbd2e38f9	-0.042534802
239	0x3e2333cd	0.15937729
240	0x3e1ea607	0.15493022
241	0x3c41a89a	0.011819983
242	0x3d0e4183	0.034730446
243	0xbe10d1e3	-0.14142565
244	0x3d900bfa	0.07033534
245	0x3e7344f9	0.2375678
246	0xbddf5aef	-0.10906016
247	0xbe08f99d	-0.1337647
248	0xbdd91319	-0.10599346
249	0x3e48604f	0.19567989
250	0x3dd0cb0c	0.10194978
251	0x3e260bd9	0.16215457
252	0x3d29eb3a	0.041484095
253	0xbe73386e	-0.23751995
254	0xbda1b896	-0.07896535
255	0xbd961854	-0.07328859

decoder_lstm.lstm.bias_ih_l0 f4 [192]
0	0xbc012fc0	-0.00788492
1	0x3e0b3622	0.13594869
2	0xbe822057	-0.25415298
3	0xbd86a1b1	-0.06573809
4	0xbeb16c2d	-0.34652844
5	0xbe40d46e	-0.18831035
6	0xbe44f7aa	-0.19235101
7	0x3da691af	0.08133256
8	0x3d9fda2b	0.07805284
9	0xbe0f9338	-0.14021003
10	0xbe631e30	-0.22179484
11	0xbd1eb335	-0.038745124
12	0xbdf7c7e1	-0.12098671
13	0x3df1481e	0.117813334
14	0x3b0eaf3a	0.0021771924
15	0xbcdbd96f	-0.026837079
16	0x3c8c4e9b	0.017127326
17	0xbdc5a902	-0.09651376
18	0xbe104b0a	-0.14091125
19	0xbe009a65	-0.12558897
20	0xbe9d5793	-0.30730876
21	0xbe1f224d	-0.15540428
22	0xbcbac9a7	-0.022801233
23	0xbe23a186	-0.15979585
24	0xbe1248eb	-0.14285628
25	0xbe4226bb	-0.18960087
26	0x3caa705b	0.020805528
27	0x3c2d1b91	0.010565654
28	0xbbe764c3	-0.0070615723
29	0xbd772fc5	-0.06034829
30	0x3e3abdd6	0.18236479
31	0xbe0c306b	-0.13690345
32	0xbe20ab59	-0.15690364
33	0xbe2a1aaf	-0.16611741
34	0x3da07796	0.07835309
35	0xbde258ac	-0.11052069
36	0xbe75b9bc	-0.23996633
37	0xbe3d0af0	-0.18461204
38	0xbe7cefa6	-0.24700794
39	0xbe1a1584	-0.1504727
40	0xbdd71af6	-0.10503189
41	0xbd4c86c8	-0.049933225
42	0xbe247601	-0.1606064
43	0xbd805dce	-0.06267892
44	0x3c77e6b5	0.015130688
45	0x3dd18f4b	0.10232409
46	0xbc7eacf7	-0.015544168
47	0xbd9cda7a	-0.076588586
48	0xbdabbdc6	-0.08385806
49	0xbe301bc5	-0.17198093
50	0xbe122948	-0.1427356
51	0xbdf04258	-0.11731404
52	0xbe4c9949	-0.19980349
53	0x3d96f89a	0.07371636
54	0x3d88f361	0.06687046
55	0xbd6977ee	-0.05699914
56	0x3df23473	0.1182641
57	0x3cc0bc18	0.02352719
58	0xbc5a63ef	-0.01332949
59	0x3d8fb90b	0.07017716
60	0x3daec23f	0.08533143
61	0x3e11d2ab	0.1424052
62	0xbc132bed	-0.008982641
63	0xbdf3492e	-0.11879192
64	0x3efbe3f1	0.49197343
65	0x3e85e5af	0.26151797
66	0x3e1c2367	0.1524788
67	0x3e84d313	0.25942287
68	0xbe90abc2	-0.2825604
69	0x3e529425	0.20564325
70	0xbd909e36	-0.07061426
71	0xbe8f040d	-0.27932778
72	0x3d73db80	0.059535503
73	0xbdbd6326	-0.09247427
74	0xbd246224	-0.040132657
75	0x3db9985a	0.09062262
76	0xbe6937cd	-0.22775193
77	0xbd181e9a	-0.03713856
78	0xbd589e85	-0.05288555
79	0x3e2dc4bf	0.16969584
80	0xbd31bdc4	-0.043393865
81	0xbcc3e110	-0.02391103
82	0xbe9a4f45	-0.30138603
83	0xbdb46180	-0.08807659
84	0xbca326e9	-0.019916015
85	0x3ea9a1a3	0.33131132
86	0x3e00b583	0.12569241
87	0x3dcc274f	0.09968435
88	0x3cdf1cbf	0.027235387
89	0xbd52f138	-0.051499575
90	0x3ce5214e	0.027969982
91	0x3d23510d	0.039872218
92	0xbdf849b5	-0.121234335
93	0x3db20bde	0.0869367
94	0x3cea35c4	0.02859009
95	0xbe7ee094	-0.24890357
96	0xbddc29ae	-0.10750137
97	0x3bcc0369	0.0062259925
98	0xbccb7ff6	-0.02484129
99	0x3cde2240	0.027115941
100	0x3c474ddb	0.012164558
101	0xbdc536c0	-0.09629583
102	0x3cd29139	0.025704013
103	0x3db03cbe	0.08605336
104	0x3d599a9b	0.05312596
105	0xbdf53617	-0.119732074
106	0x3d2db6aa	0.04241053
107	0xbd96b5c3	-0.07358887
108	0xbdd043c1	-0.10169173
109	0x3d8bace4	0.06820086
110	0xbd30baab	-0.04314677
111	0x3dd3672a	0.10322411
112	0x3bbfa684	0.0058487076
113	0x3da038cd	0.07823334
114	0xbd7a82f4	-0.061160043
115	0xbd1fa1d0	-0.038972676
116	0xbc8b49aa	-0.0170029
117	0xbd81d2aa	-0.06339009
118	0x3c4c8ebd	0.012485203
119	0xbd047563	-0.03233851
120	0x3dba9065	0.09109572
121	0x3d02ee9e	0.031965844
122	0x3daa9712	0.083295956
123	0x3dbab41c	0.091163844
124	0x3dcf9e2c	0.10137591
125	0x3d92263b	0.07136198
126	0x3cf1179c	0.029430203
127	0xbd81c535	-0.063364424
128	0x3d92e9fb	0.071735345
129	0xbdc7ecd8	-0.09761971
130	0xbc80fd85	-0.015745888
131	0x3b674d00	0.0035293698
132	0x3d074ce4	0.033032313
133	0x3d580965	0.052743334
134	0x3dabee2a	0.083950356
135	0xbd637d13	-0.055539202
136	0xbdb18016	-0.086670086
137	0xbccd8774	-0.025089003
138	0x3d07ee7e	0.03318643
139	0x3dcc610d	0.099794485
140	0x3d345b1f	0.044032212
141	0x3e04a779	0.12954511
142	0x3ccecb0d	0.025243307
143	0x3d928b46	0.071554706
144	0x3c55ed37	0.013057045
145	0xbb9a3eaf	-0.0047071795
146	0xbdece6c3	-0.11567452
147	0xbee36c29	-0.44418457
148	0xbef9bf82	-0.4877892
149	0xbe18d586	-0.14925203
150	0xbe18cb0e	-0.14921209
151	0x3daf77f8	0.08567804
152	0x3ce47f2b	0.02789267
153	0xbc3277ff	-0.010892867
154	0xbe091431	-0.13386609
155	0xbcc6e508	-0.024279132
156	0xbe06644b	-0.13124196
157	0xbdf17915	-0.11790673
158	0xbea06f11	-0.31334737
159	0xbc306c40	-0.010767996
160	0x3d583691	0.052786414
161	0x3e72c5c0	0.23708248
162	0x3d65d983	0.05611564
163	0xbd7dc733	-0.06195755
164	0xbeb8b691	-0.36076787
165	0x3c259cd9	0.010108196
166	0xbc4b62dd	-0.012413708
167	0xbec3f357	-0.3827159
168	0xbde88746	-0.11353926
169	0xbe03945b	-0.12849562
170	0x3d97b75f	0.07408022
171	0x3da03719	0.07823009
172	0xbce4f9b6	-0.027951103
173	0xbe33807d	-0.17529483
174	0xbdec54e4	-0.11539629
175	0x3b11139c	0.0022136932
176	0xbb6c5abf	-0.003606483
177	0xbe5fd676	-0.21859154
178	0x3de3e0ad	0.11126838
179	0x3c9b28f8	0.018940434
180	0xbc8984cc	-0.016786955
181	0xbe38990f	-0.18027137
182	0xbe87787d	-0.26459113
183	0xbaac2eb7	-0.0013136481
184	0xbeb4335e	-0.3519544
185	0xbd8aa9b7	-0.06770652
186	0xbe57be5c	-0.2106871
187	0xbe762080	-0.24035835
188	0xbde5e425	-0.11225156
189	0xbdcd55cc	-0.1002613
190	0xbd36bb6b	-0.04461233
191	0xbe9936c8	-0.29924607
