notebook/model.pt (torch, 856717 bytes, 68 tensors)

batch_norm_layer.batch_norm_layer.weight f4 [10]
0	0x3f833f26	1.0253646
1	0x3f724f56	0.9465231
2	0x3f833360	1.0250053
3	0x3f832b78	1.0247641
4	0x3f804330	1.0020504
5	0x3f83be61	1.0292474
6	0x3f80a0f2	1.0049117
7	0x3f83b9bd	1.0291058
8	0x3f7f13ed	0.9963978
9	0x3f83f2aa	1.030843

batch_norm_layer.batch_norm_layer.bias f4 [10]
0	0x3ca5374d	0.020167971
1	0xbc74d4b8	-0.014943294
2	0xbd0b53dc	-0.03401552
3	0xbd438b45	-0.04774024
4	0x3cad7a7f	0.021176575
5	0x3b280a05	0.0025640738
6	0x3c1f7978	0.00973355
7	0xbccbe4e0	-0.02488941
8	0xbc4951de	-0.012287585
9	0xbd21ecc2	-0.03953243

batch_norm_layer.batch_norm_layer.running_mean f4 [10]
0	0x3eaaaaa8	0.33333325
1	0x46d15caa	26798.332
2	0x3dc87d6b	0.097895466
3	0x3eaf9426	0.34292716
4	0x3d1451cd	0.036210824
5	0xbe997b64	-0.29976952
6	0x3eb29e02	0.34886175
7	0x3e0aa3f7	0.1353911
8	0x3eddf5dc	0.43351638
9	0xbe2264ca	-0.1585876

batch_norm_layer.batch_norm_layer.running_var f4 [10]
0	0x3d9022cb	0.07037886
1	0x4b85910f	1.7506846e+07
2	0x3d4cffd1	0.050048653
3	0x3cbbd609	0.022929208
4	0x3dc1948a	0.0945216
5	0x3d939a84	0.07207206
6	0x3d6b60d0	0.057465374
7	0x3d1eebf3	0.038799237
8	0x3d0c30d9	0.034226272
9	0x3d64e061	0.055878047

embedd_layer.embedd_layer.weight f4 [3060, 8]
0	0xbd88c209	-0.06677634
1	0x3e057a8e	0.13035032
2	0x3d662e95	0.056196768
3	0xbf2b894d	-0.6700638
4	0x3e4b8ffc	0.19879144
5	0xbdbc85fd	-0.09205244
6	0x3ef702a1	0.48244193
7	0xbef1c787	-0.4722254
8	0xbd543e99	-0.05181751
9	0x3eeb4718	0.45952678
10	0xbeb1f748	-0.34758973
11	0xbd531170	-0.0515303
12	0x3f2f6ad5	0.6852239
13	0x3ec595dd	0.385909
14	0x3e40636a	0.18787923
15	0x3dbf1727	0.09330588
16	0x3ed3252e	0.41239303
17	0x3ee0b0d7	0.43884918
18	0x3ecce34d	0.40017167
19	0xbe35f554	-0.17769367
20	0x3e267b0c	0.16257876
21	0x3de6113f	0.11233758
22	0x3f2158f0	0.6302633
23	0xbdc6415b	-0.09680434
24	0x3fe36b8b	1.7767195
25	0xbf793b30	-0.9735594
26	0xbd231843	-0.03981806
27	0x3e6812bb	0.22663395
28	0x3f6aea1f	0.9176349
29	0x3f93f40f	1.1558856
30	0x3f972865	1.1809202
31	0xbdd84660	-0.10560298
32	0xbf51a1e8	-0.81887674
33	0xbf051c4b	-0.51996297
34	0xbf57bdd2	-0.8427402
35	0xbf7f420b	-0.9971015
36	0x3f6dd1dc	0.92898345
37	0xbe680af9	-0.22660436
38	0xbfd7ecc8	-1.6869135
39	0xc017f063	-2.374047
40	0x3e2c81dc	0.16846412
41	0xbfb2977d	-1.395248
42	0xbf7dc6f9	-0.99131733
43	0x3f5dfda9	0.8671518
44	0x3ef5614e	0.479258
45	0x3f76dd2e	0.96431243
46	0xbf0deb56	-0.5543722
47	0xbfd4bb48	-1.6619654
48	0x4001a408	2.0256367
49	0x40071dd5	2.1111958
50	0x3e7bb990	0.24582505
51	0xbf827253	-1.0191139
52	0x3eebd88d	0.46063653
53	0x3fa8d145	1.3188864
54	0xbea680fc	-0.32520282
55	0x3e500722	0.20315221
56	0xbf08b389	-0.5339895
57	0x3ef4d90d	0.47821847
58	0x3e91ba76	0.2846257
59	0x3f1f478d	0.6221855
60	0xbec4a399	-0.38406065
61	0x3f0c398c	0.5477531
62	0xbfa79603	-1.3092655
63	0x3e9fff00	0.31249237
64	0x3ec725ed	0.38896123
65	0xbfd54a07	-1.6663216
66	0xbfc67004	-1.5502934
67	0xbf244cb3	-0.64179534
68	0x4014f901	2.327698
69	0x3f140623	0.57821864
70	0x3e7f72f2	0.24946192
71	0x3f681d34	0.9066956
72	0x3db8b653	0.090191506
73	0x3f6af743	0.9178354
74	0x3f254b00	0.64567566
75	0x3ff6d1c3	1.9282764
76	0x3ffd78e3	1.9802517
77	0xbf4f0b11	-0.8087626
78	0x40096a71	2.1471217
79	0xbdfc779a	-0.123275
80	0x3f259124	0.6467459
81	0xbdc2c778	-0.09510702
82	0xbd07610b	-0.03305153
83	0x3f9300ae	1.1484582
84	0x3fb5c315	1.4200159
85	0xc0073450	-2.112568
86	0x3d89ea47	0.06734138
87	0xbf04d374	-0.5188515
88	0xbf132c20	-0.57489204
89	0x3d189ab0	0.037256896
90	0x3f3b3d4d	0.7314041
91	0x3f272bb8	0.65301085
92	0xbc22b0b4	-0.009929825
93	0xbf4a9a8e	-0.7914208
94	0x3f5f54f0	0.8723898
95	0x3f852baa	1.040395
96	0x3ff2e5ad	1.8976341
97	0x3e017428	0.12641966
98	0x3f62470f	0.88389677
99	0xbfb582d0	-1.4180546
100	0x3e14debe	0.14538094
101	0xbf566748	-0.83751345
102	0xbfa47435	-1.2847964
103	0xbdcf8d5e	-0.101343855
104	0xbf90fba0	-1.132679
105	0x3e21eb05	0.15812309
106	0x3fc7faa5	1.5623366
107	0xbeae2113	-0.3400961
108	0xbe4b76c7	-0.19869529
109	0x3ecffea9	0.40623978
110	0x3db35f26	0.087583825
111	0x3e956ef3	0.2918621
112	0xbfb0a27e	-1.3799589
113	0x3ee28dee	0.4424891
114	0xbf99a9ec	-1.2004981
115	0x3e1e0312	0.15430859
116	0xbf6bb2ed	-0.92069894
117	0x3f185179	0.5949932
118	0x3edb2d0b	0.42807803
119	0xbe01e8af	-0.12686418
120	0x3ba76f77	0.005109723
121	0xbf3304f7	-0.6992945
122	0x3fb41ed0	1.4071903
123	0x3c5a8ea2	0.01333967
124	0x3ff0b4a0	1.8805122
125	0x3f95ceed	1.1703774
126	0xbf8565c4	-1.0421681
127	0x3fe31f9b	1.774402
128	0xbee3e094	-0.44507277
129	0x3f6f8c8a	0.9357382
130	0xbf826761	-1.0187799
131	0x3d98bdca	0.074580744
132	0x3fd0e474	1.6319718
133	0xbe18d727	-0.14925824
134	0x3f91e768	1.1398745
135	0x3fa493af	1.285757
136	0x3e94c305	0.29055038
137	0x3d2d5d9c	0.0423256
138	0x3e2c327f	0.16816138
139	0x3f0e4dbe	0.55587375
140	0x3fc5a34d	1.544046
141	0xbe257a9c	-0.16160053
142	0x3f858779	1.0431968
143	0xbf78c1e6	-0.97170866
144	0x3fa1327a	1.2593529
145	0xbe8ebe43	-0.27879533
146	0xc027b754	-2.6205645
147	0x3f1dbb2a	0.61613715
148	0x3f728c12	0.9474498
149	0xbfaa48a4	-1.3303418
150	0xbf2ab0ad	-0.66675836
151	0x3fa97bca	1.3240902
152	0x3e06837c	0.13136095
153	0xbf8c4263	-1.095776
154	0xbecbd11c	-0.39807975
155	0xc01dcbe7	-2.4655702
156	0x3fecc499	1.8497497
157	0x3f8f3521	1.1188089
158	0x3d3e14a2	0.046406396
159	0x3ff8be29	1.9433032
160	0xbf8d3a7b	-1.1033472
161	0x3ea40dcc	0.32041776
162	0x3fa3031c	1.2735324
163	0x3f2c7a90	0.67374516
164	0x3f2baee8	0.6706376
165	0xbf8453ac	-1.0338035
166	0xbf155002	-0.5832521
167	0xbede2966	-0.4339096
168	0xbef20819	-0.47271803
169	0xbfd3c2d5	-1.6543833
170	0xbec887c1	-0.39166072
171	0x3fa72d6f	1.306074
172	0x3fe0275e	1.7512014
173	0xbf5700bd	-0.839855
174	0xbf911551	-1.133463
175	0x3e0271b8	0.12738693
176	0x3ff9a0ee	1.9502237
177	0x3ebcf7be	0.36907762
178	0x3f85675a	1.0422165
179	0x3f94a907	1.1614083
180	0x3c0e217d	0.008674976
181	0xbfacdc79	-1.3504783
182	0x3f4729a8	0.7779794
183	0xbfe14b21	-1.7601053
184	0x3f513894	0.81726956
185	0x3fae1677	1.3600606
186	0xbf9929bf	-1.1965865
187	0x3edd9dad	0.4328436
188	0x3f91eb20	1.139988
189	0x3d4c0c6b	0.04981653
190	0x3f2694e1	0.6507092
191	0xbf9b328a	-1.2124798
192	0x3f6cc805	0.92492706
193	0x3e773ae3	0.24143557
194	0x3e889649	0.26677158
195	0x3e4273db	0.18989508
196	0x3eb90c1d	0.36142054
197	0x3ee2f7a5	0.44329563
198	0x3f4c1af6	0.7972864
199	0x3facd4dd	1.3502461
200	0x3f11c696	0.56943643
201	0xbe385628	-0.18001616
202	0x3f11cfa2	0.5695745
203	0xbfcb05f7	-1.5861195
204	0xbeca1a09	-0.39472988
205	0x3f846380	1.0342865
206	0xbdc1ac54	-0.09456697
207	0xbf775274	-0.9661019
208	0x3f8b5714	1.0885949
209	0xbf1c10b8	-0.6096301
210	0xbf0f7289	-0.5603414
211	0x3f245b9f	0.642023
212	0x3f8633fb	1.0484613
213	0xbefb0c00	-0.49032593
214	0x3fb1a275	1.3877703
215	0xbea8a982	-0.32941824
216	0xbf42223e	-0.758335
217	0xbf9cc835	-1.2248598
218	0x3f952c42	1.1654131
219	0x3f62bde4	0.88571
220	0xbe14e223	-0.1453939
221	0x3fff97ad	1.9968163
222	0x3f8a2ee5	1.0795561
223	0x3ec340b7	0.3813531
224	0xbfc92450	-1.5714207
225	0x3f9803ba	1.1876137
226	0x3f57f426	0.84356916
227	0xbf2660fd	-0.6499174
228	0xbfe7f7d6	-1.8122509
229	0xbf9e018d	-1.2344223
230	0x3ed6a051	0.41919187
231	0xbf0e25a4	-0.55526185
232	0xbfea1122	-1.8286479
233	0x3dc896b7	0.097943716
234	0x3ff64176	1.9238727
235	0x3d8e064d	0.069347955
236	0x3f76d083	0.96411914
237	0xbfcc803a	-1.5976632
238	0x3efde421	0.4958811
239	0xbf6e687b	-0.93128175
240	0x3f106f6f	0.56420034
241	0xbe299f19	-0.16564597
242	0xbfe8ba00	-1.8181763
243	0xbee1dc8f	-0.44113585
244	0x3f8a4656	1.0802715
245	0x3e9620ca	0.2932189
246	0x3fda7ea1	1.7069894
247	0x3f9d9274	1.2310319
248	0x3f0996de	0.5374583
249	0x3f7aa053	0.97900885
250	0xbd036c03	-0.03208543
251	0xbfc84e18	-1.5648832
252	0x3ed5f6c6	0.41789836
253	0xbef777b0	-0.48333502
254	0x3ef18aca	0.471762
255	0xbfa30b39	-1.27378

encoder_lstm.lstm.weight_ih_l0 f4 [192, 10]
0	0xbaaea0db	-0.0013323085
1	0x3dfa764c	0.122295946
2	0x3d51f141	0.05125547
3	0xbdb8de61	-0.090267904
4	0xbd19c80b	-0.03754429
5	0x3ddf2b92	0.10896982
6	0x3da6aab5	0.081380285
7	0xbd80dd6a	-0.062922314
8	0xbda5ecf3	-0.08101835
9	0xbcb9d4d7	-0.022684498
10	0x3dcde630	0.100536704
11	0xbda2d462	-0.07950665
12	0xbd6c3f2d	-0.057677437
13	0xbb8bc277	-0.0042651254
14	0x3d256983	0.040383827
15	0x3d81e4d6	0.06342475
16	0xbd54d907	-0.051964786
17	0x3dd40744	0.10352948
18	0xbe0a38d7	-0.13498245
19	0xbde7ad39	-0.113123365
20	0xbd4a12de	-0.0493344
21	0x3d136d80	0.0359931
22	0x3dc6cf29	0.097074814
23	0x3d163178	0.03666827
24	0xbdc79fa1	-0.09747244
25	0xbde0eef2	-0.10983075
26	0xbe03fde8	-0.12889826
27	0xbe2d0f6f	-0.16900419
28	0xbddf9632	-0.10917319
29	0x3dd5e980	0.10444927
30	0xbccab1cc	-0.024742983
31	0x3d15f681	0.036612038
32	0xbe18be2c	-0.14916295
33	0x3ce887db	0.028385093
34	0xb9fdf1fb	-0.0004843621
35	0x3d81f5aa	0.06345685
36	0xbd492277	-0.049105134
37	0xbdefe241	-0.117130764
38	0x3ddd0974	0.10792819
39	0xbc1af25c	-0.009457197
40	0x3d88541d	0.06656668
41	0x3dbde452	0.09272064
42	0xbd6ef8b5	-0.058342654
43	0xbcb73357	-0.022363348
44	0xbdf9f08d	-0.122040845
45	0xbda57a62	-0.08079983
46	0x3dc956d2	0.09831013
47	0xbe006ceb	-0.12541549
48	0xbd102d0c	-0.03519921
49	0x3df5e4ef	0.12006556
50	0xbd320b82	-0.043468006
51	0x3daddb0b	0.08489045
52	0x3da6043b	0.08106276
53	0xbd9fa150	-0.0779444
54	0xbc69f592	-0.01427974
55	0xbe43221a	-0.19055977
56	0xbd479b2c	-0.048731968
57	0xbd641b1e	-0.055689923
58	0xbca4ae26	-0.020102572
59	0xbe12bb8d	-0.14329357
60	0xbd3e6bb7	-0.046489444
61	0xbdfa881d	-0.12232993
62	0x3dd76adc	0.10518429
63	0x3d6f0d20	0.058362126
64	0xbd297da4	-0.041379586
65	0xbd840692	-0.06446566
66	0xbc992843	-0.018695956
67	0xbd013203	-0.031541836
68	0x3e026fc8	0.12737954
69	0x3d20e4a1	0.039280538
70	0xbc890297	-0.016724868
71	0x3d9bb6fb	0.0760326
72	0xbe005857	-0.12533699
73	0xbdb341ef	-0.0875281
74	0x3d59f128	0.0532085
75	0x3d9e7bb4	0.07738438
76	0x3dbde9ed	0.092731334
77	0x3d82b8c3	0.06382897
78	0xbe0a522f	-0.13507913
79	0xbdba4372	-0.090948954
80	0x3d3f4e12	0.046705313
81	0x3e1a38b7	0.15060697
82	0xbe39550a	-0.18098846
83	0xbe48d9d7	-0.1961435
84	0xbdbd287b	-0.09236237
85	0xbd3fb229	-0.046800766
86	0xbcc86f13	-0.024467027
87	0x3d50ea33	0.0510046
88	0x3ca4783e	0.020076867
89	0xbe4ce9e7	-0.20011102
90	0x3e2fc97b	0.17166702
91	0xbcfdf13e	-0.030998822
92	0xbd35682a	-0.04428879
93	0xbd997d67	-0.07494622
94	0x3e000cc4	0.1250487
95	0xbd40c7a3	-0.04706539
96	0xbe23f723	-0.16012244
97	0x3d1926c2	0.037390478
98	0x3e0f23dc	0.13978523
99	0xbb3021c4	-0.0026875595
100	0xbe0a6029	-0.13513245
101	0x3e230b64	0.15922314
102	0x3d343592	0.0439964
103	0x3d0507f2	0.03247828
104	0xbd9dc359	-0.07703275
105	0x3da5efbf	0.081023686
106	0x3dcc2b94	0.09969249
107	0x3d312be8	0.043254763
108	0xbc3c1f9e	-0.0114821475
109	0xbe03114e	-0.1279957
110	0xbdd80982	-0.105486885
111	0x3dac6d53	0.084192894
112	0x3d334dfa	0.043775536
113	0x3dde8600	0.10865402
114	0xbd9bc422	-0.07605769
115	0xbd5ecacb	-0.054392617
116	0xbd864526	-0.06556158
117	0x3e0253ad	0.12727232
118	0xbccae2bf	-0.024766324
119	0xbdaa0d44	-0.083033115
120	0xbdb41c50	-0.08794463
121	0x3dbc3f15	0.091917194
122	0x3d50a55f	0.05093896
123	0x3d29c4c8	0.04144743
124	0x3c1e7953	0.009672481
125	0xbdcd449e	-0.10022853
126	0xbd2255bc	-0.039632544
127	0xbe1b9f5b	-0.15197508
128	0x3e251445	0.16121013
129	0xbe34501b	-0.17608683
130	0xbe1a3d56	-0.1506246
131	0x3dd9c4d6	0.106332466
132	0xbcfef5a2	-0.031122986
133	0x3e08effa	0.13372794
134	0x3da500ff	0.080568306
135	0xbd5ca949	-0.05387238
136	0x3dd795c7	0.10526615
137	0xbcb54f4e	-0.022132542
138	0xbdea8ca6	-0.11452608
139	0x3d1eeba6	0.03879895
140	0x3e0e55da	0.13899937
141	0x3cce08f4	0.025150754
142	0xbd1cbf15	-0.038268168
143	0x3d4480bd	0.047974337
144	0xbd938520	-0.07203126
145	0x3d8eab57	0.06966274
146	0xbdd181a5	-0.10229806
147	0xbdce8a90	-0.100850224
148	0x3dc5ee33	0.096645735
149	0x3d0a9899	0.033836935
150	0x3dc1ccb6	0.09462874
151	0x3de4363d	0.11143158
152	0xbd77cf5b	-0.060500484
153	0xbdee40f2	-0.11633481
154	0x3d2aad93	0.04166944
155	0x3c4be87c	0.012445565
156	0xbdc48a29	-0.095966645
157	0x3d8fc0f2	0.07019223
158	0xbe1e5e34	-0.15465623
159	0xbd0abef6	-0.03387352
160	0xbcd35102	-0.025795463
161	0xbe0f6845	-0.1400462
162	0x3d939ac0	0.072072506
163	0x3d814979	0.06312842
164	0x3c27d79a	0.0102442745
165	0x3cf53a4b	0.029935023
166	0xbde9a065	-0.11407546
167	0xbd5fd7d1	-0.054649178
168	0xbe0a885d	-0.13528581
169	0xbe200d91	-0.15630175
170	0xbd6b51af	-0.057450946
171	0x3db73b88	0.089469016
172	0xbc98d678	-0.018656954
173	0x3d8b8218	0.06811923
174	0xbe0bb723	-0.1364408
175	0x3e3eded8	0.18639696
176	0x3e0b27f0	0.13589454
177	0x3ca78fc8	0.020454302
178	0xbd6a0325	-0.057131905
179	0x3de5a23c	0.112125844
180	0x3dd009ce	0.1015812
181	0x3d9f32eb	0.07773384
182	0xbcde6eb7	-0.027152402
183	0x3db33784	0.08750823
184	0xbdd3db07	-0.103445105
185	0xbbfaa793	-0.007649371
186	0x3dbb012e	0.091310844
187	0xbd742ae9	-0.059611235
188	0xbd88e649	-0.066845484
189	0xbb155b67	-0.0022790076
190	0xbdbcce45	-0.0921903
191	0xbe21de93	-0.15807562
192	0xbe35ad25	-0.1774183
193	0xbdc74ee0	-0.09731841
194	0xbd2e53b8	-0.04256031
195	0xbdf9a0d2	-0.12188877
196	0x3cd79e42	0.02632058
197	0xbe2f8907	-0.17142116
198	0xbb92458d	-0.0044638575
199	0xbb455030	-0.003010761
200	0xbd24fe06	-0.040281318
201	0xbd709c96	-0.058743082
202	0xbe02e1bd	-0.12781425
203	0xbe1350ad	-0.14386244
204	0xbd85a27e	-0.065251336
205	0xbdf4c521	-0.11951662
206	0x3e0054cf	0.12532352
207	0xbdb5a475	-0.08869258
208	0x3d803264	0.06259611
209	0x3d5e55e5	0.054281134
210	0xbe148ff7	-0.14508043
211	0xbd7ca776	-0.06168314
212	0xbdafc804	-0.08583072
213	0x3d6d134c	0.05787973
214	0xbd983a4e	-0.07432996
215	0x3d6d9e3d	0.058012236
216	0x3d8a7107	0.067598395
217	0xbde878ed	-0.1135119
218	0x3dabafeb	0.08383163
219	0x3c2a9a99	0.0104128355
220	0x3ccde0e4	0.02513165
221	0x3cbcadaa	0.023032028
222	0x3dcd9053	0.10037293
223	0xbc2b43af	-0.010453149
224	0xbb81c17c	-0.0039598327
225	0xbd03dd56	-0.032193504
226	0x3e07581e	0.13217208
227	0xbd058960	-0.032601714
228	0x3e19404d	0.14965935
229	0xbd78742e	-0.060657673
230	0xbc4f2c09	-0.012644776
231	0xbd7006c1	-0.05860019
232	0xbcb89944	-0.02253402
233	0xbd77037c	-0.060306057
234	0xbdd6fa55	-0.10496966
235	0xbe0fc7cb	-0.14041059
236	0x3ccddb9d	0.025129134
237	0xbbeea8c0	-0.0072833
238	0x3c4d78e9	0.012541034
239	0x3d8d8919	0.06910915
240	0xbdcfbba8	-0.101432145
241	0x3da57237	0.080784254
242	0xbe14d7fe	-0.1453552
243	0xbe1040f2	-0.14087275
244	0x3dc0e262	0.09418179
245	0xbdc23f28	-0.09484702
246	0xbcb5c0b2	-0.02218661
247	0x3e164d86	0.1467801
248	0x3b4f96b6	0.0031675524
249	0xbc4bbb37	-0.012434772
250	0x3de346e4	0.11097506
251	0x3d97327c	0.07382676
252	0x3c88e77f	0.016711948
253	0x3da94e6e	0.082669124
254	0xbd8c6be7	-0.06856518
255	0x3df8b789	0.121443816

encoder_lstm.lstm.weight_hh_l0 f4 [192, 48]
0	0x3dd22fe8	0.10263044
1	0x3d9530a4	0.07284668
2	0x3dea3f0c	0.114378065
3	0xbdb51715	-0.08842293
4	0xbd1ec107	-0.038758304
5	0xbc127d06	-0.008940941
6	0xbbbe4d27	-0.005807537
7	0x3dd5b0e7	0.10434132
8	0x3db281c4	0.08716157
9	0xbcd367af	-0.025806276
10	0x3df6a49b	0.12043115
11	0xbc3b9fda	-0.011451686
12	0x3dcf4859	0.10121221
13	0xbdeb0910	-0.11476338
14	0xbdb1b6f4	-0.08677474
15	0xbd93d191	-0.07217706
16	0xbd49c757	-0.04926237
17	0x3d5b0a85	0.05347683
18	0x3d59376e	0.053031377
19	0x3d11b811	0.03557593
20	0xbe178480	-0.14796638
21	0x3ded3cc4	0.11583856
22	0x3de2a217	0.110660724
23	0xbda954aa	-0.082681015
24	0x3d5253c0	0.0513494
25	0xbdac8477	-0.08423703
26	0x3db33d94	0.087519795
27	0xbe006e56	-0.1254209
28	0xbdf799f6	-0.120899126
29	0x3da5afd2	0.08090176
30	0x3d95af33	0.07308807
31	0xbd07ffc5	-0.033202905
32	0x3cc11f37	0.023574455
33	0xbd7f12b4	-0.062273696
34	0x3d942969	0.07234461
35	0x3de3d89b	0.111252986
36	0xbc5770a3	-0.013149413
37	0x3dd22a97	0.102620296
38	0x3dd91fc3	0.10601761
39	0xbda87cb3	-0.082269095
40	0x3d2c5ec0	0.04208255
41	0xbd917183	-0.07101729
42	0x3dcd6ac3	0.10030129
43	0x3ce3d3e1	0.027810993
44	0x3e15bff7	0.1462401
45	0x3d6748a0	0.056465745
46	0xbd804c54	-0.062645584
47	0x3d1755fb	0.03694723
48	0xbe1428c0	-0.1446867
49	0xbc87c300	-0.016572475
50	0x3e4bb2ca	0.19892421
51	0x3d2c279a	0.042029954
52	0xbc420351	-0.011841611
53	0x3dbfab22	0.09358813
54	0x3da5d587	0.08097368
55	0x3e0e0e83	0.13872723
56	0xbd3c3e90	-0.0459581
57	0x3ca357f0	0.019939393
58	0xbdb60b06	-0.08888821
59	0xbdfaa041	-0.12237597
60	0xbe109e40	-0.14122868
61	0x3d1e304f	0.03862029
62	0xbddb0c92	-0.10695757
63	0xbd4ab158	-0.049485534
64	0xbdd6288e	-0.10456954
65	0xbe1ef04b	-0.15521352
66	0x3cc762c0	0.02433908
67	0x3e2f22cf	0.17103122
68	0x3dd09c62	0.10186078
69	0xbd962c90	-0.07332718
70	0xbcc1253e	-0.023577329
71	0x3de33908	0.11094862
72	0x3e2d1fbb	0.16906635
73	0xbd10b3c8	-0.035327703
74	0xbb2c0c4a	-0.0026252442
75	0x3cd66c41	0.026174666
76	0xbe03eb05	-0.12882622
77	0xbdb854be	-0.09000538
78	0xbdd391e1	-0.103305586
79	0x3c6194e7	0.013768411
80	0x3cbf394d	0.023342753
81	0x3e26afd3	0.16278009
82	0xbdc72449	-0.09723718
83	0xbd3498bc	-0.04409097
84	0x3deeddc3	0.116633914
85	0x3a7885e0	0.0009480398
86	0x3e1c2399	0.15247954
87	0xbda45f7f	-0.08026027
88	0x3e08ecd0	0.13371587
89	0xbe002fc7	-0.12518226
90	0xbce8ea2b	-0.028431972
91	0xbd92da75	-0.071705736
92	0x3d96fbd2	0.0737225
93	0xbe0fac87	-0.14030658
94	0xbd13b1c9	-0.03605822
95	0xbde28258	-0.11060017
96	0xbdff3929	-0.12462074
97	0xbde5dc89	-0.11223704
98	0x3ded822c	0.11597094
99	0x3d887a0d	0.06663904
100	0x3a1a24a9	0.00058800966
101	0x3e1b511f	0.15167664
102	0x3e28a9e8	0.16471064
103	0x3c8d80b8	0.017273292
104	0xbd907560	-0.070536375
105	0x3c2e74b1	0.010647939
106	0xbde6e2ad	-0.11273704
107	0xbd90ddc9	-0.07073552
108	0x3d3a7748	0.04552391
109	0xbdee9669	-0.11649782
110	0xbd68da08	-0.056848556
111	0x3e07138e	0.13191053
112	0x3dc25825	0.094894685
113	0xbdf7bc24	-0.12096432
114	0xbd8649e1	-0.0655706
115	0xbded2bb6	-0.11580603
116	0x3d809bed	0.062797405
117	0xbd02c65b	-0.031927448
118	0xbd46aac4	-0.0485027
119	0xbd8e5d2f	-0.06951367
120	0xbd8cd4e0	-0.0687654
121	0x3e120832	0.14260939
122	0x3c937c8c	0.018003725
123	0x3e158222	0.14600423
124	0xbd9b893b	-0.07594534
125	0x3da481dc	0.08032581
126	0xbd5c74bc	-0.053822264
127	0x3d903975	0.07042209
128	0x3c347fd9	0.011016809
129	0x3b014820	0.0019726828
130	0xbcf6667a	-0.030078162
131	0xbdaf0394	-0.08545604
132	0x3d95058b	0.07276448
133	0x3cba3289	0.022729175
134	0x3e318e13	0.17339353
135	0x3dea981d	0.114547946
136	0x3d9d9491	0.076943524
137	0x3de3e55d	0.11127732
138	0x3d475486	0.048664592
139	0xbca7ba4f	-0.020474581
140	0xbd4d4848	-0.05011776
141	0xbca43c04	-0.020048149
142	0xbdaa0217	-0.0830118
143	0x3cdbfb35	0.026853183
144	0x3de5bb3d	0.112173535
145	0x3e199ac0	0.15000439
146	0x3d832ff4	0.06405631
147	0xbd21668f	-0.039404448
148	0x3cce1472	0.025156233
149	0xbd3c4187	-0.04596093
150	0xbcedce1a	-0.029028941
151	0xbd6d3437	-0.057911124
152	0x3d56d626	0.05245032
153	0x3daf69bd	0.0856509
154	0xbd91f703	-0.07127192
155	0xbc88ab4a	-0.01668324
156	0xbe1bc86f	-0.15213178
157	0x3df1c189	0.11804492
158	0xbd6b8335	-0.057498176
159	0xbd34d92d	-0.044152427
160	0x3c0fb146	0.008770293
161	0x3d962617	0.07331484
162	0x3e00fb8e	0.1259596
163	0x3c830f86	0.015998613
164	0xbdbdaf0c	-0.09261903
165	0xbd5e6e90	-0.05430466
166	0x3c983533	0.018580055
167	0x3c9734a8	0.018457726
168	0x3c721e8b	0.01477779
169	0x3d5c6269	0.05380479
170	0xbd5bd719	-0.05367193
171	0x3d45aece	0.04826241
172	0xbd491179	-0.04908893
173	0x3dada28d	0.0847827
174	0xbe0751b5	-0.13214763
175	0xbdda507f	-0.10659885
176	0xbd278ee9	-0.040907774
177	0x3cce30a4	0.025169678
178	0xbe1afb99	-0.1513504
179	0x3daf3f5c	0.08557007
180	0x3ba1800e	0.0049285954
181	0x3de4f517	0.1117956
182	0x3cfb5916	0.030682128
183	0x3c08601d	0.008323696
184	0xbd6eef28	-0.058333546
185	0x3d211e3f	0.039335486
186	0xbced64a4	-0.028978653
187	0x3dcdd03d	0.10049484
188	0xbd8a8ebc	-0.06765506
189	0xbe13f2ec	-0.14448136
190	0xbdaec358	-0.085333526
191	0xbc18f624	-0.009336028
192	0x3d452c3c	0.04813789
193	0x3d86c7a8	0.0658105
194	0xbda83702	-0.08213617
195	0xbc63b0e6	-0.013897156
196	0xbc181f52	-0.009284811
197	0xbdffe44d	-0.12494717
198	0xbd58af5e	-0.05290162
199	0xbd08d064	-0.03340186
200	0x3d825095	0.06363026
201	0x3d992a7a	0.07478805
202	0x3d03b041	0.03215051
203	0xbd84677a	-0.06465049
204	0xbb8c2a1c	-0.0042774808
205	0xbd825e0b	-0.063655935
206	0xbd566209	-0.052339587
207	0xbc806826	-0.015674662
208	0xbd4087cd	-0.04700451
209	0xbccd9fd3	-0.025100624
210	0x3de63fed	0.112426616
211	0x3dfda4b1	0.12384928
212	0x3ced177f	0.028941868
213	0xbd405a17	-0.046960916
214	0x3db69b24	0.089163095
215	0x3ccc39cb	0.024929902
216	0xbc74bb95	-0.014937301
217	0x3da68d43	0.08132412
218	0xbd447e5b	-0.047972064
219	0x3cd7d02d	0.026344383
220	0xbd9984c7	-0.074960284
221	0xbe119b43	-0.14219384
222	0xbb869be0	-0.004107937
223	0xbd2f9593	-0.042867254
224	0x3da74358	0.08167142
225	0xbd0665ea	-0.032812037
226	0x3e06c832	0.13162306
227	0x3d316e0e	0.043317847
228	0xbc71106e	-0.01471339
229	0xbd3998fe	-0.04531192
230	0xbdc5ff25	-0.096678056
231	0xbd698c7a	-0.057018735
232	0xbc1bcdc0	-0.009509504
233	0x3db5dbab	0.08879789
234	0x3e0bfc83	0.13670544
235	0x3d5e0f62	0.05421389
236	0x3e15b4fc	0.14619821
237	0x3b22a807	0.002481939
238	0xbd97fc43	-0.07421162
239	0xba3fa936	-0.0007311286
240	0x3d335f54	0.043792084
241	0xbd1aaa74	-0.037760213
242	0x3e17c9cd	0.14823075
243	0xbc9a00b2	-0.01879916
244	0xbbadf926	-0.005309242
245	0xbd335497	-0.043781843
246	0x3da44734	0.080213934
247	0xbd7e41f8	-0.06207463
248	0xbd0ec26f	-0.034853395
249	0x3b6a701f	0.0035772396
250	0x3d577b68	0.052607924
251	0x3cdc30e4	0.026878782
252	0x3dc98256	0.09839313
253	0xbcc16be9	-0.023611026
254	0xbd439f65	-0.047759432
255	0x3e2686dc	0.16262382

encoder_lstm.lstm.bias_ih_l0 f4 [192]
0	0x3dea1315	0.11429421
1	0x3c3dcbc8	0.01158423
2	0x3e0b1b14	0.13584548
3	0x3df395a0	0.11893773
4	0x3df182fd	0.11792562
5	0x3cf8c76d	0.030368531
6	0xbd299c3c	-0.041408762
7	0x3cdeb914	0.027187862
8	0xbd702cb9	-0.0586364
9	0x3d190b7c	0.037364468
10	0x3dc86d58	0.09786481
11	0x3dcc0d20	0.09963441
12	0x3d20fcc2	0.03930355
13	0x3d256de7	0.040388014
14	0xbd8167db	-0.06318637
15	0xbd468abd	-0.048472155
16	0x3bb88c14	0.005631933
17	0xbb69085a	-0.0035557956
18	0x3cfdfe2d	0.03100499
19	0x3dbd63c4	0.092475444
20	0xbd7e4285	-0.062075157
21	0x3d1a784e	0.037712388
22	0x3dd668cd	0.10469208
23	0x3e288b89	0.16459478
24	0xbd98acf0	-0.0745486
25	0xbcbf078a	-0.023319025
26	0x3e07b258	0.13251626
27	0x3d5b8dea	0.053602137
28	0x3dceea31	0.10103262
29	0xbdd3cc74	-0.10341731
30	0xbd954eea	-0.07290442
31	0x3deb3994	0.114855915
32	0xbdf3d4c3	-0.119058155
33	0xbdeee0e9	-0.11663992
34	0x3d26d568	0.040730864
35	0x3e1cab2d	0.15299673
36	0x3dafbdd1	0.085811265
37	0x3db94e72	0.090481654
38	0x3b84f67c	0.0040577035
39	0x3dc1e298	0.094670475
40	0xbd291555	-0.04128011
41	0xbd22fa8a	-0.039789714
42	0x3de76026	0.11297636
43	0xbdcc894b	-0.09987124
44	0x3e0fd81c	0.14047283
45	0x3e0d3efc	0.13793558
46	0x3e193b15	0.14963944
47	0xbdad9f5a	-0.084776595
48	0x3e0e8ca5	0.13920839
49	0xbd894b0f	-0.067037694
50	0xbd8b6205	-0.06805805
51	0x3dd34a36	0.10316889
52	0x3d85625e	0.06512903
53	0xbd168be4	-0.036754504
54	0xbdbc1845	-0.091843165
55	0x378b4fd8	1.6607271e-05
56	0x3a898b1a	0.0010493726
57	0x3d1bd913	0.038048815
58	0x3d978f41	0.074003704
59	0x3d10f5c8	0.035390645
60	0xbcb070f4	-0.021538235
61	0xbcab8f1c	-0.020942263
62	0x3b2f58e2	0.002675586
63	0x39dfd9e4	0.00042696216
64	0xbd5f04c3	-0.0544479
65	0x3db4b003	0.08822634
66	0xbbf3793b	-0.0074302233
67	0xbda312d3	-0.07962575
68	0x3cd3b9f6	0.025845509
69	0xbd550c62	-0.052013762
70	0xbd91edb8	-0.071254194
71	0x3dc439d7	0.095813446
72	0xbc3b3abb	-0.011427577
73	0xbdf27713	-0.11839118
74	0x3e0ba164	0.13635784
75	0x3e0d39bd	0.13791557
76	0x3d44470a	0.04791931
77	0x3e0d8795	0.13821252
78	0xbc4f4c58	-0.012652479
79	0x3d297949	0.041375432
80	0x3e0f0f8c	0.13970774
81	0xbdb8cbbd	-0.09023235
82	0x3abd2029	0.001442914
83	0x3d8d55b2	0.06901111
84	0x3e251b81	0.16123773
85	0xbddc09f8	-0.10744089
86	0xbde0b68f	-0.1097232
87	0x3d595d54	0.05306752
88	0x3e16c509	0.147236
89	0xbd9a330b	-0.07529267
90	0xbe03b7fe	-0.12863156
91	0x3e026b3b	0.12736218
92	0x3dd8dc00	0.10588837
93	0xbd9c4285	-0.07629875
94	0xbd715ef8	-0.05892846
95	0xbd83e2ea	-0.06439765
96	0xbe049037	-0.12945639
97	0xbd80d580	-0.06290722
98	0x3cd6fdb6	0.026244026
99	0x3d75de09	0.060026202
100	0xbcb283be	-0.021791335
101	0xbcd84bec	-0.02640339
102	0x3cc3219f	0.023819743
103	0xbc0cc6b1	-0.008592294
104	0xbdc773be	-0.09738873
105	0xbccfec6e	-0.025381293
106	0xbb82078d	-0.0039681853
107	0xbddf9327	-0.10916739
108	0xbd31ed89	-0.04343942
109	0xbae69a45	-0.0017593583
110	0x3d92ec06	0.07173924
111	0xbd1c8981	-0.03821707
112	0x3e12c24f	0.14331935
113	0xbdfbd17b	-0.122958146
114	0xbc153afe	-0.009108303
115	0x3d9da20e	0.07696925
116	0x3e015a36	0.12632069
117	0x3e1ee5f2	0.15517405
118	0xbcc70397	-0.024293704
119	0x3d6e0e23	0.05811895
120	0x3cc8d9ff	0.024518011
121	0x3e1c6e72	0.15276507
122	0x3c282f6b	0.010265212
123	0xbe05c256	-0.13062415
124	0xbcd46e9d	-0.02593165
125	0xbe305bc9	-0.17222513
126	0x3df99a35	0.12187616
127	0xbe0ed9fe	-0.13950345
128	0x3d00eb95	0.03147467
129	0xbd3376ad	-0.04381435
130	0x3d735254	0.059404686
131	0xbde5c27b	-0.11218735
132	0x3d1ec356	0.038760506
133	0xbdac89d7	-0.08424728
134	0x3d442a00	0.047891617
135	0x3d76ae90	0.06022507
136	0xbd1a5a0b	-0.037683528
137	0xbe04894e	-0.12943003
138	0xbd045722	-0.03230966
139	0x3e1b870d	0.15188237
140	0x3df43205	0.11923603
141	0xbde8442f	-0.1134113
142	0xbd99aa77	-0.07503217
143	0x3dc1df25	0.094663896
144	0x3e1c6331	0.15272214
145	0x3d3b43b9	0.045718882
146	0x3dabff27	0.08398276
147	0x3d7964dd	0.060887206
148	0xbd86f3a0	-0.065894365
149	0x3cbf04ba	0.023317683
150	0xbd8724e5	-0.06598834
151	0x3d7dee85	0.061995048
152	0xbd0cf764	-0.034415618
153	0xbd3741f1	-0.04474062
154	0xbd30a788	-0.04312852
155	0x3d5822f8	0.052767724
156	0x3dfef961	0.12449909
157	0xbd434d9b	-0.047681432
158	0x3dacbb8c	0.08434209
159	0xbd8c8e11	-0.068630345
160	0x3cda4ed0	0.026648909
161	0x3ce82973	0.028340077
162	0x3cb0cf79	0.021583306
163	0x3e16dbd3	0.14732294
164	0x3ca1763f	0.019709704
165	0xbdbc764d	-0.092022516
166	0x3e239132	0.15973356
167	0xbde508f0	-0.11183345
168	0x3dab2cac	0.0835813
169	0xbd61b917	-0.055108156
170	0x3d925f9a	0.07147141
171	0x3da3f69d	0.08006022
172	0xbd3363c9	-0.043796334
173	0x3d9479b2	0.07249774
174	0xbe0fbbac	-0.14036435
175	0xbd2bf25f	-0.04197919
176	0x3d4a4ce1	0.049389724
177	0xbd4d519c	-0.050126657
178	0x3da334bf	0.07969045
179	0xbd7dd907	-0.06197455
180	0x3d04b8d0	0.032402813
181	0x3da485db	0.080333434
182	0xbd1f0aa6	-0.038828515
183	0x3d558081	0.052124504
184	0xbdd528c0	-0.10408163
185	0xbdafafaa	-0.08578427
186	0x3d2248d6	0.039620243
187	0x3cf4f7a3	0.029903239
188	0xbd92125f	-0.0713241
189	0x3e0c348b	0.13691919
190	0x3e2ddab4	0.1697796
191	0xbddb6106	-0.10711865

encoder_lstm.lstm.bias_hh_l0 f4 [192]
0	0x3ba653f5	0.0050759264
1	0xbd8bb6be	-0.06821965
2	0x3e13705f	0.14398335
3	0x3dd2d453	0.10294404
4	0xbdc79eee	-0.0974711
5	0xbd7a53db	-0.061115127
6	0xbe1765f0	-0.1478498
7	0x3de6246b	0.11237415
8	0x3d591e47	0.05300739
9	0x3dfa428a	0.122197226
10	0x3dc3c4e2	0.09559037
11	0xbdeda5fe	-0.11603926
12	0x3e20324b	0.15644185
13	0x3c1ce03c	0.009574946
14	0xbd4e28f1	-0.050332014
15	0x3c27cc02	0.01024151
16	0x3d0397e5	0.03212728
17	0x3df37567	0.11887627
18	0x3e0a0498	0.13478315
19	0xbda0ae53	-0.0784575
20	0x3e0c89b6	0.13724408
21	0xbd619d4c	-0.05508165
22	0xbe088890	-0.13333344
23	0x3db2c7f3	0.087295435
24	0x3db65f69	0.08904917
25	0xbdc0e36d	-0.09418378
26	0x3dd64e47	0.10464149
27	0xbd36ea7e	-0.044657223
28	0xbd7700d4	-0.060303524
29	0xbdb2f8c3	-0.08738854
30	0x3c8f86dc	0.01752036
31	0x3da9cec2	0.08291389
32	0x3d9ecf26	0.07754354
33	0xbe0ca9f6	-0.1373671
34	0x3d1e2263	0.038607012
35	0xbd6d3a8f	-0.057917174
36	0x3dd57e1e	0.104244456
37	0xbdebcc54	-0.11513582
38	0x3ddc4692	0.10755648
39	0x3e10f846	0.14157209
40	0xbcc9a935	-0.024616817
41	0xbd188728	-0.03723827
42	0xbd21115d	-0.0393232
43	0xbde8a079	-0.11358733
44	0x39cc18ba	0.00038928335
45	0xbdf2adc5	-0.1184955
46	0x3d09ce05	0.03364374
47	0x3d5dbada	0.054133274
48	0xbdaf9a60	-0.085743666
49	0x3c532d25	0.012889181
50	0xbcd0b1a7	-0.025475336
51	0x3c382dbf	0.0112413755
52	0xbdb6f02c	-0.08932528
53	0x3d035e6d	0.032072473
54	0x3dd3f19f	0.1034882
55	0x3ddf9c7a	0.109185174
56	0xbd926678	-0.071484506
57	0x3d01cd0f	0.0316897
58	0x3d63c282	0.05560542
59	0xbded9653	-0.11600938
60	0x3e247823	0.16061454
61	0xbcfd73c4	-0.03093899
62	0x3da9fa6e	0.08299719
63	0xbd3fcd4b	-0.046826642
64	0x3d87bd96	0.066279575
65	0x3dda49a1	0.10658575
66	0xbdf8136a	-0.12113078
67	0xbd84a031	-0.064758666
68	0xbd0bbcf1	-0.034115735
69	0x3e0a9cc4	0.13536364
70	0xbc9c58b6	-0.01908527
71	0x3dd0d736	0.10197298
72	0x3de64170	0.1124295
73	0xbddfbc86	-0.1092463
74	0x3dcf301b	0.10116597
75	0x3dc38bdc	0.095481604
76	0xbd544f62	-0.051833518
77	0xbdbed2b8	-0.09317535
78	0x3dd1651e	0.10224365
79	0xbda72cd8	-0.0816285
80	0x3d0612e8	0.032732874
81	0xbdd18892	-0.10231127
82	0xbd4bc0de	-0.04974448
83	0xbcd1194b	-0.025524756
84	0xbd8df7df	-0.06932043
85	0xbc140b81	-0.009035946
86	0x3d439ef3	0.047759008
87	0x3cf5ef41	0.030021312
88	0xbcef72f4	-0.029229619
89	0xbddc9731	-0.10771025
90	0xbd455553	-0.048177075
91	0x3be3b0de	0.0069485744
92	0x3dfb6bae	0.12276398
93	0x3df7be4c	0.12096843
94	0xbdfdf738	-0.12400669
95	0xbd908c67	-0.070580296
96	0x3d58590e	0.052819304
97	0x3d916556	0.070994064
98	0x3dd31ed0	0.103086114
99	0x3d53d135	0.051713187
100	0xbe2c063f	-0.16799258
101	0x3da02d2c	0.07821116
102	0xbb3fe9a1	-0.002928354
103	0x3b237f27	0.0024947615
104	0x3c175570	0.0092366785
105	0x3df83979	0.12120337
106	0x3c64a312	0.013954895
107	0xbe159e6e	-0.14611217
108	0x3c82c7c0	0.015964389
109	0xbe211052	-0.15728882
110	0x3cfd4630	0.030917257
111	0x3cb4bed6	0.022063654
112	0xbcf11cec	-0.029432736
113	0x3c8984b2	0.016786907
114	0x3e20674e	0.15664408
115	0x3dacbf49	0.08434922
116	0xbd182b56	-0.037150703
117	0x3d68eac3	0.05686451
118	0xbbcbbf0c	-0.006217843
119	0xbd57d1df	-0.052690383
120	0xbe1031aa	-0.14081445
121	0xbc8e6245	-0.017380843
122	0xbdbb08cd	-0.09132538
123	0xbcc6c603	-0.024264341
124	0xbdc17cd4	-0.09447637
125	0xbd994608	-0.074840605
126	0x3a79cadb	0.0009528824
127	0xbe24b5f7	-0.16085039
128	0x3e16e143	0.14734368
129	0xbb663407	-0.0035126226
130	0xbe02526a	-0.12726751
131	0x3c2279ea	0.009916762
132	0xbd53e749	-0.051734243
133	0x3c9e5789	0.01932885
134	0xbdca453f	-0.09876489
135	0xbe211848	-0.15731919
136	0x3e1ace46	0.1511775
137	0xbc089863	-0.008337113
138	0xbdbb777f	-0.091536514
139	0x3e1ee595	0.15517266
140	0x3e236348	0.15955842
141	0xbe0dd955	-0.13852437
142	0x3de2ecce	0.11080323
143	0x3df4059f	0.11915135
144	0x3d41d4ee	0.047322206
145	0xbdb11060	-0.086457014
146	0x3dff6b90	0.12471688
147	0xbe0b9838	-0.13632286
148	0xbdb917f4	-0.09037772
149	0xbda33637	-0.07969325
150	0xbe02e64b	-0.12783162
151	0x3c9ffdc2	0.01953018
152	0x3e044fa4	0.12921005
153	0x3d86eb3f	0.065878384
154	0x3e19c967	0.15018235
155	0xbd3c4f6e	-0.045974188
156	0x3c7db29d	0.015484479
157	0xbce2483b	-0.027622333
158	0x3dc5f3e4	0.09665659
159	0xbcb7bb7f	-0.022428272
160	0xbdf4a5e4	-0.119457036
161	0x3de547dd	0.111953475
162	0x3cf0983b	0.029369464
163	0x3e2bee18	0.16790044
164	0x3e0c1033	0.13678055
165	0x3ddfef01	0.10934258
166	0xbcf0e40f	-0.029405622
167	0xbdd8e47b	-0.10590454
168	0xbc048f8b	-0.008090864
169	0xbdab1bb0	-0.0835489
170	0xbd4cbeae	-0.049986534
171	0x3cd7feb2	0.026366565
172	0x3dd9cf51	0.106352456
173	0xbc998341	-0.018739345
174	0xbd81127d	-0.063023545
175	0xbd854651	-0.065075524
176	0xbde058d7	-0.10954445
177	0xbdeb416d	-0.11487088
178	0xbd3f1bd2	-0.04665739
179	0x3d0d962e	0.03456705
180	0x3cb51db8	0.022108898
181	0xbdae1cb2	-0.08501567
182	0xbd8ff732	-0.07029571
183	0xb9a2f79c	-0.0003108353
184	0xbdf44cbd	-0.11928699
185	0xbdb3f851	-0.08787597
186	0xbda90169	-0.08252222
187	0xbdfabd61	-0.122431524
188	0x3ccbf26c	0.02489587
189	0x3da15367	0.07877236
190	0x3c08b1e3	0.008343193
191	0x3dde518a	0.10855396

decoder_lstm.lstm.weight_ih_l0 f4 [192, 10]
0	0x3e251f71	0.16125275
1	0xbc4ecb92	-0.012621777
2	0xbc54f7d2	-0.012998538
3	0xbdddf7b1	-0.10838259
4	0x3dfcc4c0	0.123422146
5	0xbc3fb1ff	-0.011700152
6	0xbdf3458c	-0.118784994
7	0x3d73fd9b	0.05956803
8	0x3d1f2bc2	0.03886009
9	0xbbcae106	-0.0061913757
10	0x3c93cb73	0.018041348
11	0x3d9a7981	0.07542706
12	0xbde0fd07	-0.10985761
13	0xbdad599e	-0.08464359
14	0xbe1fd069	-0.15606846
15	0xbd19d463	-0.037556063
16	0xbdd684e0	-0.10474563
17	0xbda62827	-0.08113127
18	0x3daf8a8c	0.085713476
19	0x3da7c796	0.08192365
20	0xbe091afe	-0.13389203
21	0xbe12e684	-0.14345747
22	0xbddb59b7	-0.10710471
23	0x3de3dedc	0.111264914
24	0x3c0e73c8	0.008694597
25	0x3e15be90	0.14623475
26	0x3d1aa8db	0.03775869
27	0xbac34fc3	-0.001490109
28	0xbd923615	-0.071392216
29	0x3d8978cc	0.06712493
30	0xbd812895	-0.063065685
31	0x3dc14055	0.094360985
32	0xbd7640d9	-0.060120437
33	0xb97b40e2	-0.00023961396
34	0xbdd57f01	-0.10424615
35	0xbddc15f7	-0.10746377
36	0x3cebe354	0.028794922
37	0x3cf448f2	0.02981994
38	0xbd9844d0	-0.07435
39	0x3dfe2d0e	0.12410937
40	0x3de31b31	0.11089171
41	0xbcdce27c	-0.026963465
42	0xbcfd1bd4	-0.030897059
43	0x3dba088e	0.09083663
44	0xbb4e3b6b	-0.0031468521
45	0x3e13e035	0.14440997
46	0x3e0b6217	0.13611637
47	0xbdb9811a	-0.09057827
48	0xbd4168c0	-0.047219038
49	0x3deb0eb6	0.11477415
50	0x3e140c1c	0.14457744
51	0x3d13b118	0.03605756
52	0xbd87aafa	-0.06624408
53	0xbd910e97	-0.07082861
54	0x3d5952bb	0.053057414
55	0xbdcb844e	-0.099373445
56	0x3d68a888	0.05680135
57	0xbc515036	-0.012775471
58	0x3d052b1a	0.032511808
59	0xbd2a9806	-0.041648887
60	0x3cad2c68	0.021139339
61	0xbda5a744	-0.08088544
62	0x3ba3a2a1	0.004993752
63	0x3d3f15d4	0.046651676
64	0xbdcc50d2	-0.09976353
65	0x3e0d2a75	0.13785727
66	0xbe19d8cc	-0.15024108
67	0x3cc79f12	0.024367843
68	0x3c4ae37a	0.012383336
69	0x3d8c03ef	0.06836688
70	0xbca0592d	-0.019573772
71	0xbdcecd0d	-0.10097704
72	0xbd6dac5f	-0.058025714
73	0x3d0e632d	0.03476255
74	0xbd803884	-0.062607795
75	0xbd8c52df	-0.06851744
76	0xbd4d2540	-0.050084352
77	0x3d4643a8	0.048404366
78	0xbdfe1c18	-0.12407702
79	0xbc373a59	-0.011183345
80	0x3de7a9e1	0.11311699
81	0xbcbfd448	-0.023416653
82	0x3dd1808f	0.10229599
83	0x3e081f48	0.13293183
84	0xbc8d812e	-0.017273512
85	0xbdcc411f	-0.09973358
86	0x3df68aa3	0.120381616
87	0xbc9a7bcd	-0.018857861
88	0x3de4d422	0.111732736
89	0x3d88e5db	0.066844665
90	0xbd2ef3fd	-0.042713154
91	0xbce98e31	-0.028510185
92	0x3e1e6794	0.154692
93	0xbd22ccca	-0.039746083
94	0x3df2f605	0.11863331
95	0x3d609c12	0.05483634
96	0x3cffba88	0.031216875
97	0xbd437982	-0.0477233
98	0x3e2d8fea	0.1694943
99	0x3da22ff8	0.079193056
100	0xbbc31da4	-0.005954461
101	0xbd332662	-0.043737777
102	0xbe214faf	-0.15753053
103	0x3cc20868	0.023685649
104	0xbd52d212	-0.05146987
105	0x3ddeb0f0	0.10873592
106	0xbe1972b3	-0.1498516
107	0x3d978bb7	0.07399695
108	0x3e0e6726	0.13906536
109	0xbd330471	-0.043705408
110	0x3cc67f3b	0.02423059
111	0xbe0eccb2	-0.13945273
112	0x3b669f35	0.003519011
113	0x3cf225b8	0.029559001
114	0xbe1a944d	-0.15095635
115	0x3d4e4bfa	0.050365426
116	0x3dce11f6	0.100620195
117	0x3dd2d1e4	0.1029394
118	0xbd83b7e7	-0.06431561
119	0x3d7a8d30	0.061169803
120	0xbbc3840e	-0.00596667
121	0xbd934317	-0.07190531
122	0x3da1215e	0.078676924
123	0xbd1afa67	-0.03783646
124	0xbc06c86a	-0.008226493
125	0xbe0da979	-0.1383418
126	0xbd6af561	-0.057362918
127	0x3e16db80	0.1473217
128	0x3d00a792	0.031409808
129	0xbe163cb1	-0.1467159
130	0xbd8c2db4	-0.06844655
131	0x3ddbf7b8	0.10740608
132	0x3d96202d	0.07330356
133	0x3d1d1ac6	0.03835561
134	0x3cd96d51	0.026541384
135	0x3c8fd431	0.017557235
136	0xbdffa971	-0.1248349
137	0xbd556e05	-0.052106876
138	0xbd04b0f0	-0.032395303
139	0x3d0e40a1	0.034729604
140	0x3d1cbf9a	0.038268663
141	0x3daea3e5	0.08527354
142	0x3d22ab71	0.03971428
143	0xbd7beacf	-0.061503228
144	0xbd955f0b	-0.07293519
145	0x3d34abec	0.04410927
146	0x3d51e3e9	0.051242743
147	0xbca18b2b	-0.01971968
148	0x3db946ac	0.09046683
149	0xbd3795f2	-0.044820733
150	0xbd53e86a	-0.05173532
151	0x3c86a3bc	0.016435497
152	0x3c82473c	0.015903108
153	0xbb676c7f	-0.0035312471
154	0x3ddbe977	0.10737889
155	0xbe3256c2	-0.17415908
156	0x3d510d04	0.051037803
157	0xbdfaccf9	-0.12246127
158	0x3db1d3a5	0.08682946
159	0xbb099e15	-0.0020998765
160	0x3c541b32	0.012945937
161	0x3ddcd2d6	0.10782401
162	0xbd480d44	-0.048840776
163	0x3dca6219	0.09881992
164	0xbe21bc7f	-0.15794562
165	0xbe2f1526	-0.17097911
166	0x3cb1a5aa	0.02168544
167	0x3d490cc8	0.049084455
168	0x3ba44301	0.0050128703
169	0xbdeef9b8	-0.11668724
170	0xbdc920c3	-0.09820702
171	0xbc701131	-0.014652536
172	0xbd1d4410	-0.038394988
173	0x3e235879	0.15951718
174	0x3ce9b68e	0.028529432
175	0xbda2b252	-0.07944168
176	0xbdd4a7e5	-0.10383586
177	0x3dc9ac87	0.0984736
178	0xbd9a8621	-0.07545114
179	0x3de12146	0.109926745
180	0xbc91ba40	-0.017789006
181	0x3c9c5e73	0.019088006
182	0x3d8147a0	0.063124895
183	0x3df749cd	0.12074623
184	0x3b3b4573	0.002857533
185	0xbdc01725	-0.093794145
186	0x3db4fbc4	0.08837083
187	0x3e162c44	0.14665323
188	0x3d7e68ec	0.06211178
189	0x3e03bd9c	0.12865299
190	0x3d92a31f	0.07160019
191	0x3d6106a5	0.054937977
192	0x3dfcfec8	0.12353283
193	0xbda589de	-0.08082937
194	0xbd1d7685	-0.038443107
195	0xbde80bb1	-0.11330355
196	0x3d50b395	0.050952513
197	0xbd84e202	-0.0648842
198	0xbe3834cc	-0.1798889
199	0xbd7a3792	-0.061088152
200	0x3d9f61dd	0.07782338
201	0x3d46e31f	0.048556443
202	0x3dbff7ee	0.09373461
203	0xbdc6386f	-0.096787326
204	0xbe1997ab	-0.14999263
205	0x3d9f9810	0.077926755
206	0xbdb27e0f	-0.0871545
207	0x3df5ede5	0.120082654
208	0x3d744926	0.059640072
209	0xbdf39cb2	-0.11895122
210	0x3e1834f9	0.14863957
211	0x3c60cc06	0.013720518
212	0xbe0d0ebb	-0.1377515
213	0x3df12c59	0.11776037
214	0x3dd23ace	0.10265122
215	0x3d636ee2	0.055525668
216	0xbd591c63	-0.053005587
217	0xbd10d2d6	-0.03535732
218	0xbe256cf8	-0.1615485
219	0x3dbd4b75	0.09242908
220	0x3c6192b2	0.013767885
221	0xbded9401	-0.11600495
222	0x3d1e6d01	0.038678173
223	0xbce2a26d	-0.027665341
224	0xbcc5548d	-0.024088169
225	0xbdc31718	-0.09525889
226	0x3d9fc251	0.07800735
227	0xbdc0af7c	-0.09408471
228	0x3dfa4d80	0.12221813
229	0xb9bd124e	-0.00036062527
230	0x3d283466	0.041065596
231	0xbd8349b7	-0.06410544
232	0xbd818981	-0.06325055
233	0x3dce872d	0.100843765
234	0x3ce1fd1f	0.027586518
235	0xbd2a91f5	-0.0416431
236	0x3c800934	0.015629388
237	0xbddacfa6	-0.10684137
238	0x3d38b950	0.045098603
239	0xbe068213	-0.13135557
240	0xbddc21f6	-0.10748665
241	0xbd4bad1c	-0.049725637
242	0xbdbf85dd	-0.09351704
243	0xbda2aa0a	-0.079425886
244	0xbd9873b9	-0.07443947
245	0xbd8672fd	-0.06564901
246	0xbd3c1c2b	-0.0459253
247	0x3c9fc9c5	0.01950539
248	0x3c92c1d0	0.017914683
249	0x3dc4ab6c	0.09603009
250	0x3dc2cbad	0.09511504
251	0xbe1a07bf	-0.15042017
252	0x3d8d6002	0.06903078
253	0x3d78b9a7	0.060723927
254	0xbd1c0b62	-0.038096793
255	0xbd90273c	-0.07038733

decoder_lstm.lstm.weight_hh_l0 f4 [192, 48]
0	0xbc6688aa	-0.014070669
1	0x3da8ed09	0.08248336
2	0x3d316b85	0.04331543
3	0xbd5f0c18	-0.054454893
4	0xbd602ae7	-0.054728415
5	0xbca90e10	-0.020636588
6	0x3e0490df	0.12945889
7	0xbda105da	-0.07862444
8	0xbe137de3	-0.1440349
9	0x3c9dbea3	0.019255942
10	0xbc2f55a4	-0.010701571
11	0x3d8139bb	0.06309839
12	0x3c341705	0.010991816
13	0xbdb90c12	-0.09035505
14	0x3e1f60a3	0.15564208
15	0xbd8a2ab8	-0.06746429
16	0xbdfeb259	-0.12436361
17	0x3ddf2e9b	0.10897561
18	0x3d3bceac	0.045851395
19	0xbce96efe	-0.028495308
20	0xbccd03de	-0.025026258
21	0xbdec70e2	-0.11544968
22	0x3e0b178f	0.13583206
23	0x3dc2983f	0.09501695
24	0xbdcfe9a4	-0.10151985
25	0x3e079cac	0.1324336
26	0xbde560bc	-0.11200091
27	0xbaee58cf	-0.0018184426
28	0xbde792db	-0.11307307
29	0xbe0f32d8	-0.13984239
30	0x3de5daa9	0.11223347
31	0x3d894d45	0.06704191
32	0xbdc1a69e	-0.09455608
33	0x3d0ee408	0.034885436
34	0xbdae3e71	-0.085080035
35	0x3d6b8206	0.057497047
36	0xbdf63e6f	-0.12023627
37	0x3e16e569	0.1473595
38	0xbddeecb1	-0.10884989
39	0xbd48dbd6	-0.049037777
40	0x3dd50436	0.10401194
41	0x3dcbdb30	0.09953916
42	0xbe1f881f	-0.1557927
43	0x3da7fe65	0.08202819
44	0xbe0a93db	-0.13532965
45	0xbde92d7f	-0.11385631
46	0xbd85fccf	-0.0654236
47	0xbddd689b	-0.108109675
48	0x3cf99743	0.030467635
49	0x3d090743	0.03345419
50	0xbddf488e	-0.109025106
51	0xbd06def0	-0.032927454
52	0x3ca3d885	0.020000705
53	0xbdd505c3	-0.104014896
54	0xbd844097	-0.06457632
55	0x3b27e7ee	0.0025620419
56	0xbd069f2d	-0.032866646
57	0x3d777216	0.060411535
58	0xbe202d48	-0.15642273
59	0x3defda16	0.117115185
60	0xbda846d6	-0.08216636
61	0x3dbf04bc	0.09327075
62	0x3df9874a	0.121840075
63	0x3d4d64bc	0.050144896
64	0xbd7d4c79	-0.061840508
65	0xbdbce8b3	-0.09224071
66	0xbcb9b2ca	-0.022668261
67	0xbdbc9daa	-0.092097595
68	0x3bd94084	0.0066300053
69	0x3dcf57e9	0.101241894
70	0x3e081b3a	0.13291636
71	0x3d494380	0.04913664
72	0xbdea6bb6	-0.114463255
73	0x3dc71009	0.09719855
74	0xbd12c440	-0.03583169
75	0x3d19dea2	0.037565835
76	0xbcb389a8	-0.021916226
77	0xbdf2f818	-0.118637264
78	0xbd9c56c8	-0.0763374
79	0x3d45a803	0.04825593
80	0xbc2b741e	-0.010464696
81	0xbdf5f09b	-0.120087825
82	0xbdbaddfb	-0.09124371
83	0xbdc7db29	-0.09758598
84	0x3d6a302b	0.057174843
85	0xbd82ebd5	-0.06392638
86	0xbdd1b613	-0.10239806
87	0xbce73037	-0.028221233
88	0xbc06cf5b	-0.008228148
89	0xbdc16d81	-0.09444714
90	0xbd80b0e6	-0.06283741
91	0x3d940364	0.07227209
92	0xbde07206	-0.10959248
93	0x3dc5daae	0.096608505
94	0x3db3f5a4	0.087870866
95	0xbdb42bfa	-0.0879745
96	0xbc718a28	-0.014742412
97	0x3c8d4c56	0.017248314
98	0x3df45521	0.119302996
99	0xbe045d66	-0.12926254
100	0x3d8ebc76	0.0696954
101	0x3d91488d	0.07093916
102	0xbdd00360	-0.10156894
103	0x3d56e642	0.052465685
104	0xbd6761a9	-0.05648962
105	0x3ddfc7ab	0.109267555
106	0x3d4044f1	0.046940748
107	0xbe172bb5	-0.14762767
108	0xbe1adbfb	-0.15122978
109	0xbcd8a03a	-0.02644359
110	0xbd39e5d6	-0.045385204
111	0x3dd674f7	0.10471528
112	0xbcb6b6e1	-0.022304
113	0x3d618299	0.05505619
114	0xbd48179f	-0.04885065
115	0xbde615a9	-0.112346
116	0xbded7566	-0.115946576
117	0x3cf7d9c2	0.030255202
118	0x3caec283	0.021332985
119	0x3b00b721	0.0019640403
120	0x3dbde10e	0.092714414
121	0x3b041f09	0.00201601
122	0x3d33ff22	0.043944485
123	0xbde5b095	-0.11215321
124	0xbddee1e2	-0.108829275
125	0xbdd57b81	-0.10423947
126	0x3e1b88ce	0.15188906
127	0x3d8bcd3b	0.06826254
128	0x3d8ee367	0.06976967
129	0xbdb39158	-0.087679565
130	0x3dcabfad	0.098998405
131	0xbdb742ee	-0.08948313
132	0x3e2840b5	0.16430934
133	0x3dc58c64	0.09645918
134	0x3da71311	0.081579335
135	0x3dbb5b18	0.09148234
136	0x3dbf0946	0.09327941
137	0xbd8c8b72	-0.068625346
138	0xbdd375b2	-0.10325183
139	0x3d40f5ba	0.047109343
140	0xbd2c6cf7	-0.042096104
141	0x3dac0a42	0.08400394
142	0x3dba26d6	0.090894386
143	0x3e07b5ea	0.13252988
144	0x3dd2ff9a	0.103026584
145	0xbadc602c	-0.001681333
146	0xbe09632a	-0.13416734
147	0x3cc4eafe	0.024037834
148	0xbd74f11e	-0.05980026
149	0xbd8ea9aa	-0.069659546
150	0xbdd1536d	-0.1022099
151	0x3dc35758	0.09538144
152	0x3b8d2689	0.0043075723
153	0x3c395c72	0.011313545
154	0xbc0d0892	-0.008608
155	0xbd9839c8	-0.07432896
156	0xbd8ac949	-0.06776673
157	0x3cd1141b	0.025522282
158	0x3de5723c	0.11203429
159	0x3d92e313	0.07172217
160	0xbdb2bcee	-0.08727442
161	0x3cf69158	0.030098602
162	0xbd903321	-0.07041002
163	0x3d5d198d	0.053979445
164	0xbd573112	-0.05253703
165	0xbdda4d4e	-0.10659276
166	0xbdc0eacf	-0.09419786
167	0x3d01a9e7	0.031656172
168	0xbda3fc98	-0.08007163
169	0x3db05525	0.0860999
170	0x3d00115d	0.03126656
171	0xbdaf0050	-0.085449815
172	0x3d8f2812	0.06990065
173	0xbc5f70db	-0.013637747
174	0xbddaea13	-0.10689177
175	0xbc1a0ac6	-0.009401983
176	0xbd440136	-0.047852717
177	0xbd15beec	-0.03655903
178	0x3dc63633	0.096783064
179	0xbdedc817	-0.1161043
180	0x3e26e215	0.16297181
181	0x3dc42d6c	0.09578976
182	0x3cb39264	0.02192039
183	0xbd5f5462	-0.054523833
184	0xbd9043c3	-0.070441745
185	0x3de5a579	0.11213202
186	0xbdafff21	-0.08593584
187	0x3c8b23a5	0.01698477
188	0x3e032dc0	0.12810421
189	0xbdd1751c	-0.10227415
190	0x3d9a09c8	0.07521397
191	0xbca2c92a	-0.019871313
192	0x3c6689e5	0.014070963
193	0x3dcbe359	0.099554725
194	0x3da7bf8f	0.08190834
195	0xbde8d0ef	-0.11367976
196	0x3d4aa686	0.049475215
197	0xbd759a15	-0.059961397
198	0xbd98c5a1	-0.0745957
199	0xbde68449	-0.112557
200	0xbdba3782	-0.090926185
201	0xbce1d710	-0.02756837
202	0x3bed6683	0.0072448864
203	0x3dd49a52	0.10380997
204	0x3c803381	0.015649559
205	0x3d836f44	0.064177066
206	0x3d886ea7	0.0666173
207	0x3daf9dc8	0.08575016
208	0xbd5c1e6b	-0.053739946
209	0x3c519555	0.012791951
210	0xbd8f2a0a	-0.0699044
211	0x3a9d8b8c	0.0012019738
212	0x3d92de09	0.07171256
213	0x3dba5027	0.09097319
214	0xbdc33439	-0.09531445
215	0xbb869853	-0.004107514
216	0x3d7bfca7	0.061520245
217	0x3d68f266	0.056871794
218	0x3db153aa	0.08658536
219	0x3e065cb1	0.13121296
220	0x3d2309e9	0.039804373
221	0xbc00905e	-0.00784692
222	0xbce7535c	-0.028237991
223	0xbc067b7c	-0.008208152
224	0x3dc398f9	0.095506616
225	0xbe03344b	-0.12812917
226	0x3d8b7fef	0.06811511
227	0xbd8c479c	-0.06849596
228	0xbdde589f	-0.10856747
229	0xbbd711c4	-0.006563397
230	0xbd6039b8	-0.054742545
231	0x3e0447c6	0.12918004
232	0xbbba86ed	-0.005692354
233	0x3e1775ee	0.1479108
234	0x3e0ccd30	0.13750148
235	0x3df0c0dc	0.11755535
236	0xbd01065c	-0.031500205
237	0xbdb254d1	-0.08707584
238	0xbe0007f1	-0.1250303
239	0xbd7b3ea0	-0.06133902
240	0xbd96031a	-0.0732481
241	0xbdb5a0e0	-0.08868575
242	0x3db0b1d1	0.08627666
243	0x3dd6b375	0.104834475
244	0xbcd1eb9d	-0.025625044
245	0xbdc60c80	-0.09670353
246	0x3d824f08	0.0636273
247	0x3de55007	0.11196905
248	0xbcc641ae	-0.02420124
249	0x3d5e0ae5	0.05420961
250	0xbd472c42	-0.048626192
251	0xbdc266b6	-0.09492247
252	0x3d399a23	0.04531301
253	0xbd36ba7b	-0.044611435
254	0xbc0bbe8d	-0.008529318
255	0x3c20ef1d	0.009822634

decoder_lstm.lstm.bias_ih_l0 f4 [192]
0	0x3e125484	0.14290053
1	0xbc909b93	-0.017652309
2	0x3e134122	0.14380315
3	0xbd4433d8	-0.047901005
4	0xbda8e9e5	-0.08247737
5	0xbcc96522	-0.024584357
6	0x3a160c3b	0.00057238684
7	0x3dfe9b0b	0.12431916
8	0x3d388b8b	0.045054954
9	0x3e20e080	0.1571064
10	0x3da24b2b	0.079244934
11	0xbccb72b1	-0.024834963
12	0x3db2c09f	0.08728146
13	0xbd4f7b8c	-0.050654933
14	0x3cf09007	0.029365553
15	0x3db848fd	0.089982964
16	0xbc0a9c3f	-0.0084601035
17	0x3d1d9176	0.0384688
18	0x3d966868	0.07344133
19	0xbd3ad227	-0.045610573
20	0xbddaa3d2	-0.106757775
21	0xbdb9503e	-0.09048508
22	0xbd85f6aa	-0.06541188
23	0x3e211cdb	0.15733664
24	0xbde17c94	-0.110100895
25	0xbdc92d62	-0.09823109
26	0x3dc4678b	0.09590062
27	0x3cd878b7	0.026424749
28	0xbd00043f	-0.03125405
29	0xbd967131	-0.07345808
30	0xbdc22769	-0.09480173
31	0xbbcc217a	-0.0062295767
32	0x3d98fa61	0.07469631
33	0xbd5d467f	-0.05402231
34	0xbd408327	-0.047000077
35	0x3df7b70a	0.12095459
36	0xbe14ea66	-0.14542541
37	0x3d8dc8d4	0.069230705
38	0x3dc8dc0d	0.09807596
39	0x3e1a8c95	0.1509269
40	0x3e0c89bf	0.13724421
41	0xbde07d17	-0.10961359
42	0xbddeeba8	-0.108847916
43	0xbdce9d95	-0.1008865
44	0xbdc3a226	-0.09552412
45	0x3da83e3d	0.08214996
46	0x3def344f	0.11679899
47	0x3cd3cd13	0.025854623
48	0x3d1000cc	0.03515701
49	0x3c34eb26	0.011042392
50	0x3dd55af2	0.10417737
51	0xbc931f76	-0.017959338
52	0xbc3f7af3	-0.011687028
53	0x3e0abd46	0.13548765
54	0x3cae774e	0.021297123
55	0xbd51c42c	-0.051212475
56	0x3da78a58	0.08180684
57	0x3dad9cfd	0.08477209
58	0x3d892fd1	0.066985734
59	0x3db19ac6	0.08672099
60	0xbcaa74d9	-0.02080767
61	0x3d30112e	0.042985134
62	0xbd99711f	-0.07492279
63	0x3ba76e8c	0.0051096138
64	0xbdb5f92c	-0.088854164
65	0x3d8b1972	0.06791963
66	0xbd1eee42	-0.03880144
67	0xbd0358d4	-0.032067135
68	0x3cd507c4	0.02600468
69	0x3d94ef3a	0.07272191
70	0xbd83417d	-0.06408975
71	0x3e107c24	0.14109856
72	0xbe17d17c	-0.14826006
73	0x3c80f7f8	0.01574324
74	0x3d530ece	0.05152779
75	0x3b806625	0.0039184266
76	0xbd63c96b	-0.05561201
77	0x3b52e708	0.0032181162
78	0x3dd9d06a	0.10635455
79	0x3de3f8b1	0.111314185
80	0x3d7a75a1	0.061147336
81	0x3c103cf9	0.0088035995
82	0xbdb56be7	-0.08858471
83	0x3d8c46d9	0.068494506
84	0x3e02b280	0.12763405
85	0x3de1cdf9	0.11025614
86	0x3ae8e516	0.0017768468
87	0x3cb308ab	0.02185472
88	0xbdb591c5	-0.08865694
89	0xbd236123	-0.03988756
90	0x3ca3363a	0.019923318
91	0x3e0a0160	0.13477087
92	0x3d89185f	0.066941015
93	0xbd5504bb	-0.052006464
94	0x3d053ea1	0.03253043
95	0x3e1b24cc	0.15150756
96	0x3c761cdc	0.015021529
97	0xbbc76206	-0.0060846834
98	0xbd8e9a42	-0.06963016
99	0x3d32c114	0.043641165
100	0x3d65f44a	0.056141175
101	0x3daf4aa4	0.085591584
102	0x3c593a0e	0.01325847
103	0x3d0b8336	0.03406068
104	0x3d0e967b	0.034811478
105	0x3e1c3939	0.15256204
106	0xbd9fc792	-0.07801737
107	0xbdc6e893	-0.09712329
108	0xbe32a869	-0.17447056
109	0xbe1dd61d	-0.15413709
110	0xbcdb1700	-0.026744366
111	0x3d02fe0f	0.03198057
112	0x3caa597b	0.02079462
113	0xbddfb344	-0.10922864
114	0x3bd76c6f	0.0065742056
115	0xbbcbfa08	-0.0062248744
116	0x3c29177a	0.010320539
117	0xbd88c6b3	-0.06678524
118	0xbc79cf1d	-0.015247134
119	0x3da00dc1	0.07815123
120	0xbd713c33	-0.0588953
121	0xbdc27391	-0.09494699
122	0x3d712756	0.058875404
123	0xbd914a7d	-0.07094286
124	0xbcd53b09	-0.026029127
125	0x3cedeef3	0.029044604
126	0xbddaeca1	-0.10689665
127	0xbdde896e	-0.108660564
128	0xbcd3aaec	-0.025838338
129	0x3cf927e2	0.030414525
130	0x3d617bfd	0.055049885
131	0x3e2f66d8	0.17129076
132	0xbdbf0a61	-0.093281515
133	0x3dfa372f	0.12217557
134	0x3d1eb367	0.03874531
135	0xbda73aed	-0.08165536
136	0x3e1933a1	0.14961101
137	0x3d9790f6	0.07400696
138	0x3dea8f87	0.11453157
139	0x3c9ee340	0.01939547
140	0x3d0f720f	0.035020884
141	0xbd8d7091	-0.06906236
142	0x3a817828	0.0009877728
143	0x3c8acc8d	0.01694324
144	0x3d182e87	0.037153747
145	0xbaccd481	-0.0015627296
146	0xbddb2785	-0.10700897
147	0x3dea8461	0.114510305
148	0x3dfdaffe	0.123870835
149	0x3d7bd157	0.06147894
150	0xbd83cc50	-0.06435454
151	0xbdd451d1	-0.10367168
152	0x3d7d26c1	0.061804537
153	0xbddef687	-0.10886865
154	0xbc49751a	-0.012295986
155	0x3e1b7493	0.15181188
156	0x3db3d147	0.08780151
157	0x3d4f11b4	0.050553992
158	0x3ba28fb0	0.0049609765
159	0xbd27d20a	-0.040971793
160	0xbd52d81f	-0.05147564
161	0xbd584402	-0.052799232
162	0x3dc8815c	0.09790298
163	0xbdac8062	-0.084229246
164	0x3d4a2fc7	0.04936197
165	0x3cc988e0	0.0246014
166	0xbd82fb88	-0.06395632
167	0x3cb3ed76	0.021963816
168	0x3d9d6f58	0.07687253
169	0x3cbe4115	0.023224393
170	0x3d4f9b9d	0.050685514
171	0x3cb3fcb4	0.021971084
172	0x3db14f6a	0.08657725
173	0xbcfad5fa	-0.03061961
174	0x3cd14fa1	0.025550665
175	0xbdb0ed54	-0.08639017
176	0x3df04387	0.1173163
177	0x3dbe7f97	0.093016796
178	0x3da5b8d1	0.080918916
179	0x3dcade02	0.09905626
180	0xbdab119f	-0.0835297
181	0x3e014a48	0.12625992
182	0xbe07b0f4	-0.13251096
183	0x3d7941f6	0.06085392
184	0xbd8edcf2	-0.06975736
185	0x3cf5c362	0.030000392
186	0xbdfecb14	-0.12441078
187	0x3d1b83cd	0.037967492
188	0x3e1ff7c8	0.15621865
189	0xbda91619	-0.08256168
190	0xbbe9e02d	-0.0071373195
191	0xbd35071e	-0.04419624
