notebook/model.pt (torch, 864946 bytes, 76 tensors)

batch_norm_layer.batch_norm_layer.weight f4 [10]
1.0289999 1.051183 0.9880843 0.9408712 0.8602622 0.978548 1.0365344 1.0322407
0.98127794 0.98973095
00000000: 45b6 833f 2a8d 863f 18f3 7c3f efdc 703f
00000010: 253a 5c3f 1f82 7a3f 29ad 843f 7720 843f
00000020: 0835 7b3f 025f 7d3f

batch_norm_layer.batch_norm_layer.bias f4 [10]
0.010292585 -0.023047134 0.04054432 -0.02408982 -0.017716726 -0.033725463 0.009095941 0.025666963
0.006234089 0.0036503733
00000000: 3ba2 283c 58cd bcbc cd11 263d 0458 c5bc
00000010: ab22 91bc b623 0abd 2407 153c 8643 d23c
00000020: 5447 cc3b 1a3b 6f3b

batch_norm_layer.batch_norm_layer.running_mean f4 [10]
0.33333325 32492.223 0.42384428 -0.052222576 -0.081332356 -0.15714066 0.058275163 -0.018995272
0.13768533 0.20041905
00000000: a8aa aa3e 72d8 fd46 1e02 d93e 57e7 55bd
00000010: 9491 a6bd 7be9 20be f0b1 6e3d f99b 9bbc
00000020: 62fd 0c3e a73a 4d3e

batch_norm_layer.batch_norm_layer.running_var f4 [10]
0.09106159 1.948522e+07 0.0021729541 0.07252162 0.11443346 0.010349869 0.12194006 0.030879954
0.023633838 0.31339663
00000000: 807e ba3d 12a9 944b 1f68 0e3b 3786 943d
00000010: 175c ea3d 7f92 293c b6bb f93d f5f7 fc3c
00000020: c09b c13c 8675 a03e

embedd_layer.embedd_layer.weight f4 [3060, 8]
0.4893462 -0.20984495 -0.43808532 -0.2987895 -0.39086074 -0.26114166 -0.0032582711 0.4580645
0.3856958 -0.27139062 -0.17556225 -0.10240398 0.4546775 0.14548765 0.34966755 -0.5729285
0.39676946 0.3249112 0.3689471 -0.06980008 0.11050604 0.058294754 0.06617129 0.71545106
1.5266236 0.52622736 -0.8453133 -1.1619085 -0.75768507 -0.63946265 0.13719878 0.29811552
0.23533407 1.8391482 -0.43580145 0.8764894 1.0348831 0.8249606 -0.28236043 -0.25406754
-0.56566536 -1.2696991 0.58911705 0.6367855 -0.27489707 2.0321739 2.764706 1.1268396
0.25241575 0.5183644 -0.73399657 -0.9012494 -0.23808028 0.4190005 -0.40690196 1.747915
-2.7465403 1.1369289 0.2424635 0.10912447 -0.55928546 1.6277648 0.59331113 -0.17206222
-0.21846268 -1.3756553 -0.27123138 1.1172383 2.649703 -0.0695659 -1.0944859 -0.90780234
0.8530965 1.2463276 1.0343093 0.2229503 -0.22001325 -1.2698733 -0.022282723 1.2357851
1.0375652 0.008546986 -2.3031685 -1.0104485 -0.51850635 -0.07415189 -0.89706665 0.032850023
0.71919465 -1.8993495 0.7918327 0.94693583 -1.4217491 -0.5331913 -0.8950024 2.600065
-0.46916637 0.63264006 0.18644723 -0.8126838 0.35609192 -1.3381928 0.3492874 0.21355277
0.38018286 -0.130029 -1.0806358 -0.98080856 1.1517045 -1.255931 1.1795245 -0.079510756
0.23261125 -0.753495 -0.434616 0.5736147 0.8448525 0.34015355 0.6744439 0.32725054
1.2030016 -2.2689633 -0.039406307 -1.0880406 -0.7725735 -0.20486492 1.3261794 1.6616074
-1.2886349 0.6265962 -0.28626886 -0.086763315 -1.2342409 -1.1475505 0.5159988 0.6455137
-0.02262442 -1.9276227 -0.33950695 -0.5716877 -0.345675 -1.166254 -1.2936409 1.3479248
0.42643628 1.8002288 -1.6060557 0.013608988 0.57255954 0.44053563 -1.1122085 0.67548853
-1.1280878 0.037702635 1.1622218 -1.4894466 -2.2283475 1.4267242 0.65102917 1.1409385
-0.09116595 -1.6923399 -0.95775545 -0.80035377 -2.0509772 0.13436016 -0.29274273 1.0686579
1.3804958 -0.25509813 -0.17080432 -0.45136783 2.711996 1.992921 1.479345 -1.2205853
-1.1970694 -0.32028186 1.1827105 0.6739999 0.29617777 0.7535895 1.1856958 0.4723838
-0.3279744 1.020674 -0.041379206 0.3822471 -1.693274 -0.30030465 0.18691126 -0.5241509
0.6795654 0.7613753 -1.0555794 -0.535033 0.31899887 0.0255808 0.120660774 0.4109906
1.098028 0.16751674 1.2410938 0.7287416 0.7371955 0.033071987 -1.6786804 -1.1380304
-0.34205413 1.5803939 -0.33140704 1.1633122 -1.2151494 -0.8724786 0.44783223 0.6748934
-2.899428 1.0414624 -1.7793708 -0.126462 0.9752255 0.43969122 -1.5518523 0.49561045
-0.41276225 -1.9623646 -0.3005182 -0.46904027 -0.5902867 0.7563772 -0.5726886 0.12245119
-0.18291293 -0.2866917 -0.69084084 0.18863545 0.015425374 -1.0816475 -0.54230714 0.97179294
-0.089885525 0.34917104 -0.7855538 -0.06280504 -0.014287676 1.3751214 0.010304867 -0.523097
1.0435764 0.9163813 -0.2805405 0.9484857 0.20391662 1.0782846 0.6939864 -0.93077534
00000000: 968b fa3e 98e1 56be b84c e0be f0fa 98be
00000010: e61e c8be 5cb4 85be b888 55bb 6e87 ea3e
00000020: eb79 c53e b6f3 8abe 97c6 33be 2eb9 d1bd
00000030: 7dcb e83e b7fa 143e a007 b33e 71ab 12bf
00000040: 5e25 cb3e c35a a63e a2e6 bc3e 58f3 8ebd
00000050: fe50 e23d 7bc6 6e3d d084 873d cd27 373f
00000060: 6768 c33f d6b6 063f 7466 58bf 6bb9 94bf
00000070: a6f7 41bf d3b3 23bf d67d 0c3e 99a2 983e
00000080: 6afb 703e 3569 eb3f 5e21 dfbe 9c61 603f
00000090: 0d77 843f 9e30 533f 8c91 90be 2415 82be
000000a0: 72cf 10bf 8085 a2bf 60d0 163f 6004 233f
000000b0: 4fbf 8cbe 230f 0240 f1f0 3040 483c 903f
000000c0: a33c 813e 88b3 043f 33e7 3bbf 48b8 66bf
000000d0: 51cb 73be 3c87 d63e 7455 d0be aebb df3f
000000e0: 51c7 2fc0 e386 913f 5a48 783e a67c df3d
000000f0: 552d 0fbf 995a d03f 3de3 173f 1431 30be
00000100: aeb4 5fbe 7915 b0bf d7de 8abe aa01 8f3f
00000110: bc94 2940 9178 8ebd 1d18 8cbf bc65 68bf
00000120: 8864 5a3f aa87 9f3f 3f64 843f 154d 643e
00000130: 274b 61be 358b a2bf 428a b6bc 352e 9e3f
00000140: f0ce 843f a808 0c3c 1d67 13c0 6056 81bf
00000150: d5bc 04bf f2dc 97bd 29a6 65bf bf8d 063d
00000160: 241d 383f e21d f3bf 8cb5 4a3f 636a 723f
00000170: e0fb b5bf 3a7f 08bf e11e 65bf 7767 2640
00000180: 9336 f0be b3f4 213f 06ec 3e3e 0c0c 50bf
00000190: ae51 b63e e749 abbf ccd5 b23e 94ad 5a3e
000001a0: 54a7 c23e 5226 05be 4652 8abf 4516 7bbf
000001b0: 0e6b 933f 59c2 a0bf a9fa 963f 89d6 a2bd
000001c0: a531 6e3e 0ce5 40bf fd85 debe 6ad8 123f
000001d0: 4148 583f 9b28 ae3e 5ba8 2c3f 628d a73e
000001e0: f5fb 993f b236 11c0 8268 21bd ea44 8bbf
000001f0: 60c7 45bf 1cc8 51be 3fc0 a93f 8daf d43f
00000200: fdf1 a4bf 9c68 203f d591 92be f7b0 b1bd
00000210: 9bfb 9dbf efe2 92bf 7f18 043f 6340 253f
00000220: d956 b9bc 57bc f6bf dbd3 adbe 205a 12bf
00000230: 50fc b0be d047 95bf 0696 a5bf cd88 ac3f
00000240: db55 da3e e66d e63f 3c93 cdbf 3cf8 5e3c
00000250: 4393 123f e38d e13e d95c 8ebf d1ec 2c3f
00000260: 2e65 90bf 146e 1a3d afc3 943f 30a6 bebf
00000270: 3f9d 0ec0 e69e b63f d9a9 263f 460a 923f
00000280: 37b5 babd 989e d8bf 762f 75bf fce3 4cbf
00000290: 3643 03c0 b695 093e 60e2 95be c8c9 883f
000002a0: 16b4 b03f 399c 82be 54e7 2ebe af19 e7be
000002b0: 5891 2d40 0918 ff3f 2d5b bd3f 243c 9cbf
000002c0: 9239 99bf fcfb a3be 0f63 973f 428b 2c3f
000002d0: 9da4 973e 3eeb 403f e1c4 973f 4adc f13e
000002e0: 43ec a7be 72a5 823f 3e7d 29bd e4b5 c33e
000002f0: 34bd d8bf 88c1 99be aa65 3f3e c12e 06bf
00000300: 00f8 2d3f 7ee9 423f 3a1d 87bf ecf7 08bf
00000310: d253 a33e d38e d13c ff1c f73d 5c6d d23e
00000320: 2e8c 8c3f 8289 2b3e 29dc 9e3f cf8e 3a3f
00000330: d8b8 3c3f 7e76 073d 00df d6bf fbaa 91bf
00000340: b821 afbe 594a ca3f 2fae a9be 6ae7 943f
00000350: 048a 9bbf c25a 5fbf 444a e53e d0c5 2c3f
00000360: 3a90 39c0 a44e 853f 6cc2 e3bf 417f 01be
00000370: 61a8 793f 351f e13e 19a3 c6bf a7c0 fd3e
00000380: 9355 d3be c32e fbbf 86dd 99be 0c26 f0be
00000390: 071d 17bf f0a1 413f b89b 12bf b1c7 fa3d
000003a0: 874d 3bbe 41c9 92be f2da 30bf a729 413e
000003b0: b5ba 7c3c 6d73 8abf a4d4 0abf 6cc7 783f
000003c0: e715 b8bd 8cc6 b23e 0e1a 49bf ee9f 80bd
000003d0: db16 6abc fa03 b03f bfd5 283c afe9 05bf
000003e0: e993 853f f797 6a3f 01a3 8fbe f5cf 723f
000003f0: 85cf 503e 3b05 8a3f 18a9 313f 4b47 6ebf

encoder_lstm.lstm.weight_ih_l0 f4 [192, 10]
-0.10474191 -0.025226302 0.049577765 -0.08253789 -0.15959162 -0.03541515 -0.03361382 -0.1593545
0.098481566 0.060366016 -0.043499924 0.03257296 -0.09663809 0.017743725 0.09266249 -0.04586221
0.025602205 0.00012032196 -0.034442157 -0.06429229 -0.1429432 0.12408925 0.09863213 -0.114412695
0.03321445 0.032804135 0.12675674 0.1580627 0.033663638 0.052385062 0.16150059 -0.10708813
-0.08859826 0.01299867 0.10371045 -0.15467007 -0.13492411 0.032799043 -0.027532408 -0.12734775
-0.051247988 -0.11414872 0.13327816 -0.09552359 0.048563913 0.03010701 -0.13106531 0.11106001
-0.08526379 -0.090509005 0.12051497 0.124254435 0.020768283 -0.100307025 0.085426584 -0.10348626
0.08264641 0.04823863 -0.06407283 0.11075025 -0.105965555 0.12885356 0.090146765 -0.110224366
-0.02680696 -0.07343723 0.12040915 -0.06538214 -0.108682096 -0.07632069 0.02471237 0.13137467
-0.122777 -0.08751894 -0.14507233 0.05222598 0.067197576 -0.15775765 -0.025693992 -0.15097016
0.021415006 -0.08040611 0.14725322 -0.11512885 -0.049004294 0.12324099 0.008933739 0.10038296
0.09762723 -0.0005218112 -0.041106034 0.036782417 0.122204244 -0.12504122 0.0777824 -0.004783949
-0.0025978845 -0.1278454 -0.08473578 0.06588283 -0.03358134 -0.09379749 0.04060115 0.01206997
0.00065187126 0.0031945743 0.08423011 -0.05268154 0.10049297 -0.0918426 -0.017076364 -0.06737022
0.027189752 -0.008813721 0.10738993 0.05328113 0.06281055 -0.05163097 -0.06394396 -0.15775979
0.116550855 0.040500864 0.07974876 0.015250707 0.1278659 -0.07543296 0.016843857 -0.03790976
0.047885 -0.12911084 0.21645565 0.114331864 0.05528675 0.089069866 -0.12355698 -0.051276732
0.01932742 -0.12379369 -0.013957985 -0.0305263 -0.008810788 -0.065819055 0.11137406 -0.005405443
0.013423589 0.087446444 -0.13098449 -0.06718832 0.06302869 0.05877822 0.06591116 0.13292712
0.1643352 -0.0630842 0.062057268 -0.012884896 -0.048593275 -0.052449927 -0.044048704 -0.022390302
-0.056489028 -0.12064401 0.01053669 -0.12071336 0.022978092 -0.0797025 -0.13466962 0.010313673
-0.0018550076 -0.028835746 -0.14376532 -0.03368686 -0.028767081 0.07409827 0.031192439 0.08333752
0.071787514 0.10924166 -0.06160652 0.037113663 -0.12113722 -0.068131074 -0.060304374 0.14697434
-0.06378193 0.014056719 -0.012139957 0.13723269 -0.010702707 0.13087778 0.08041044 -0.055827502
0.118244536 0.006803686 0.108668484 -0.13699746 -0.08559217 0.07592951 0.06994997 0.015507407
0.06966043 0.067718804 0.06442358 -0.014087449 -0.068489715 0.115298435 -0.14176588 0.10722727
0.068489775 -0.10240621 -0.12456149 0.010571593 -0.056585707 -0.16478996 -0.13420081 -0.013895874
-0.025765706 0.017388241 -0.09329058 -0.12771033 -0.098303825 0.030219886 -0.11289851 -0.074975014
0.049632683 -0.045984525 0.025706548 -0.0118961185 0.040812716 -0.06243932 0.09276871 -0.19051592
-0.046780538 -0.011514891 -0.05362364 0.0060438844 0.052277505 -0.07547082 -0.10781918 -0.086969174
0.06789854 0.00014205385 -0.1173286 -0.060454465 -0.119573705 0.0077562397 -0.1110796 0.11611459
0.026510337 0.10814621 -0.11036569 0.068800926 -0.08880427 -0.08289577 0.06845922 -0.16218798
00000000: ed82 d6bd 64a7 cebc 0e12 4b3d a009 a9bd
00000010: fc6b 23be 7a0f 11bd a5ae 09bd d32d 23be
00000020: b4b0 c93d 5b42 773d fa2c 32bd 396b 053d
00000030: 31ea c5bd 4a5b 913c d5c5 bd3d 03da 3bbd
00000040: b7bb d13c 5c55 fc38 3813 0dbd adab 83bd
00000050: b45f 12be 8122 fe3d a4ff c93d 3451 eabd
00000060: e00b 083d a15d 063d 85cc 013e 30db 213e
00000070: e2e2 093d b891 563d 6960 253e 0651 dbbd
00000080: 0173 b5bd 60f8 543c 2566 d43d d561 1ebe
00000090: 8c29 0abe 4a58 063d a58b e1bc 7367 02be
000000a0: 69e9 51bd cec6 e9bd 127a 083e dfa1 c3bd
000000b0: f4ea 463d faa2 f63c fc35 06be 6e73 e33d
000000c0: c89e aebd c95c b9bd 8dd0 f63d 1c79 fe3d
000000d0: 3f22 aa3c c56d cdbd 22f4 ae3d 9bf0 d3bd
000000e0: 8542 a93d df95 453d 9e38 83bd 07d1 e23d
000000f0: 7804 d9bd 30f2 033e de9e b83d 50bd e1bd
00000100: 459a dbbc 4266 96bd 1399 f63d 12e7 85bd
00000110: b894 debd 064e 9cbd 9971 ca3c 1587 063e
00000120: 8272 fbbd 213d b3bd d78d 14be e9ea 553d
00000130: e29e 893d 398b 21be 357c d2bc ec97 1abe
00000140: 866e af3c f5ab a4bd 8cc9 163e adc8 ebbd
00000150: bab8 48bd c665 fc3d d15e 123c 9595 cd3d
00000160: c9f0 c73d 28ca 08ba cd5e 28bd 29a9 163d
00000170: 3846 fa3d ce0a 00be 614c 9f3d acc2 9cbb
00000180: 4541 2abb e8e9 02be f489 adbd 94ed 863d
00000190: 968c 09bd e618 c0bd 644d 263d 20c1 453c
000001a0: 57e2 2a3a 105c 513b d680 ac3d 99c8 57bd
000001b0: 42cf cd3d f917 bcbd bbe3 8bbc 66f9 89bd
000001c0: 0bbd de3c 6d67 10bc 40ef db3d 503d 5a3d
000001d0: d1a2 803d ff7a 53bd 0df5 82bd c88b 21be
000001e0: 37b2 ee3d 3ce4 253d 5153 a33d 1ade 793c
000001f0: 47ef 023e 997c 9abd 21fc 893c 4447 1bbd
00000200: 1023 443d a235 04be 8da6 5d3e d326 ea3d
00000210: 5c74 623d 436a b63d 710b fdbd 8d07 52bd
00000220: 8a54 9e3c 8c87 fdbd 08b0 64bc 4b12 fabc
00000230: 205b 10bc 24cc 86bd 1518 e43d 2420 b1bb
00000240: 9dee 5b3c 1f17 b33d cc20 06be 089a 89bd
00000250: 3015 813d 6ec1 703d 6efc 863d 0c1e 083e
00000260: 7d47 283e 4a32 81bd c32f 7e3d 2c1b 53bc
00000270: be09 47bd bcd5 56bd 6a6c 34bd de6b b7bc
00000280: 0a61 67bd 3514 f7bd 15a2 2c3c 9138 f7bd
00000290: 8d3c bc3c 103b a3bd d5e6 09be aefa 283c
000002a0: ba23 f3ba f138 ecbc 3737 13be 3cfb 09bd
000002b0: f1a8 ebbc d5c0 973d 4987 ff3c ddac aa3d
000002c0: 5505 933d 17ba df3d 1e57 7cbd 7f04 183d
000002d0: ca16 f8bd 4e88 8bbd b801 77bd 7180 163e
000002e0: 1aa0 82bd 274e 663c ace6 46bc ba86 0c3e
000002f0: 685a 2fbc d304 063e 3bae a43d 61ab 64bd
00000300: 312a f23d 74f1 de3b 958d de3d 1049 0cbe
00000310: f34a afbd ee80 9b3d ee41 8f3d c712 7e3c
00000320: 21aa 8e3d 28b0 8a3d 83f0 833d 0bcf 66bc
00000330: 5644 8cbd 9621 ec3d 132b 11be f999 db3d
00000340: 5e44 8c3d 59ba d1bd 181a ffbd 7a34 2d3c
00000350: 6ac6 67bd b3be 28be f06b 09be 85ab 63bc
00000360: 9a12 d3bc c971 8e3c 220f bfbd 7fc6 02be
00000370: 8453 c9bd b28f f73c 5637 e7bd 808c 99bd
00000380: a44b 4b3d 455a 3cbd 8a96 d23c f0e7 42bc
00000390: 3c2b 273d 5fc0 7fbd 85fd bd3d 9b16 43be
000003a0: f39c 3fbd f4a8 3cbc 76a4 5bbd c70b c63b
000003b0: f020 563d 7290 9abd 4dd0 dcbd e51c b2bd
000003c0: 640e 8b3d 4af4 1439 fa49 f0bd 1a9f 77bd
000003d0: 0fe3 f4bd 0e28 fe3b b47d e3bd 7ccd ed3d
000003e0: 352c d93c c37b dd3d 6807 e2bd 80e7 8c3d
000003f0: 03df b5bd 42c5 a9bd 5934 8c3d 9b14 26be

encoder_lstm.lstm.weight_hh_l0 f4 [192, 48]
-0.11084599 -0.012354719 -0.11436174 -0.15626444 -0.035084523 0.015630513 0.13402171 -0.081628636
0.020643556 0.14330354 0.03557721 0.14043084 -0.11027632 -0.09860622 0.0756771 -0.06399183
-0.05621167 -0.014956858 -0.088958554 -0.10879115 0.03758591 -0.1581936 0.11407909 0.0694595
-0.0684685 -0.046063893 -0.07536312 0.13365749 0.06969085 -0.040627636 0.1101335 -0.051813986
-0.10049251 0.038308818 -0.14853421 -0.010403926 0.031956118 0.021528214 -0.0027632357 0.088582225
-0.040370416 -0.07767674 0.075174004 -0.13049735 -0.013735507 -0.024831435 0.032936662 -0.0020885565
0.024687486 0.019509772 -0.08640275 0.05371735 0.15702017 -0.049018048 -0.11049977 -0.1366
-0.113071516 -0.115208924 -0.048309773 -0.12533689 -0.036825135 0.031201629 -0.17069826 -0.11321207
-0.008077607 -0.046371114 -0.035064295 0.031789925 0.012307545 0.098450184 0.082624346 0.015708927
-0.057171028 0.09056671 0.03958338 -0.010214895 0.014233788 0.08183732 -0.12708868 -0.068900965
-0.099713504 -0.059206095 0.12530637 -0.02981123 -0.028155718 -0.109382086 -0.07669917 0.118645124
-0.00049150345 0.09449514 -0.13841681 0.053781103 0.03749444 0.09750613 0.06463624 -0.090462945
0.076663345 0.089182064 -0.13334462 0.03713755 0.028991375 0.027418066 0.10566092 0.16266924
-0.07872327 0.070648536 -0.065164 -0.043866225 -0.10265896 0.093110085 -0.08496134 -0.006565186
-0.03833542 0.087934144 0.0730784 -0.07771279 0.011474152 0.07121216 -0.07844806 0.007597557
0.096601814 -0.13482152 -0.1317316 -0.013228705 -0.11291411 -0.10310692 0.13244358 -0.16244653
0.053143334 -0.16687423 -0.07546291 0.077030286 -0.1713122 -0.08648795 -0.10145898 -0.030846838
0.036970004 -0.09089882 0.1418579 0.036569793 0.0067838538 -0.056412224 -0.16867943 -0.08002025
-0.0304685 0.09422795 -0.12585431 0.0946988 0.03849096 0.117479764 0.054237615 0.04663593
-0.12695865 0.0013420633 0.1334345 -0.116416976 -0.08047274 0.1783834 0.11554652 0.06018634
-0.042962357 0.042692453 0.08049576 0.07163167 -0.073343694 -0.11375317 0.03094085 0.104008675
-0.015558186 0.06103206 -0.008384154 -0.012369706 -0.08213056 -0.116956644 0.045823168 0.07425389
-0.08624099 0.05173292 -0.09344682 0.077132106 0.084371075 -0.074811295 0.13204487 0.054212496
0.06689942 0.095273755 0.08349682 0.10930191 0.18897483 0.003329882 -0.011711783 0.06305099
0.020077338 0.12693815 0.04714897 -0.14198019 -0.11319635 -0.005510035 -0.0019249674 0.051122244
0.048460085 0.03445246 0.052515782 0.103378706 -0.021451527 0.08972568 0.08112415 0.120477855
0.037073918 0.13340527 -0.11832181 0.0746124 -0.11232291 -0.06414648 0.008981135 -0.017124953
-0.0634416 0.08115077 -0.05141264 0.07315924 0.10080573 0.13021502 -0.07133214 0.08053238
-0.0756903 -0.078240894 0.11075957 0.034427132 0.11980266 0.12058978 -0.017929858 0.030552741
0.09054955 -0.09434422 -0.10557825 0.06662816 -0.1470353 -0.14857914 -0.019907996 0.043361153
-0.082574 -0.14099973 0.09234093 0.12248595 -0.09562126 -0.1217342 -0.016091775 -0.093326755
0.0997499 0.09579071 0.14811894 -0.016989987 -0.11414754 -0.14349788 -0.13400322 0.07792473
00000000: 3903 e3bd 736b 4abc 7d36 eabd c903 20be
00000010: cab4 0fbd 900b 803c fd3c 093e ea2c a7bd
00000020: ad1c a93c 2abe 123e 69b9 113d 1acd 0f3e
00000030: 8dd8 e1bd 0ff2 c9bd 98fc 9a3d 260e 83bd
00000040: 353e 66bd 9c0d 75bc e72f b6bd e5cd debd
00000050: aff3 193d 81fd 21be 4ca2 e93d c840 8e3d
00000060: 3739 8cbd 7ead 3cbd fb57 9abd 82dd 083e
00000070: 14ba 8e3d 2a69 26bd ac8d e13d e73a 54bd
00000080: 04cf cdbd b5e9 1c3d 5a19 18be 3a75 2abc
00000090: 6be4 023d f05b b03c 6717 35bb 996a b53d
000000a0: 735b 25bd fc14 9fbd d4f4 993d 19a1 05be
000000b0: e40a 61bc 4b6b cbbc 98e8 063d 2ae0 08bb
000000c0: 693d ca3c f5d2 9f3c edf3 b0bd b906 5c3d
000000d0: e5c9 203e 26c7 48bd b44d e2bd dfe0 0bbe
000000e0: 0a92 e7bd a8f2 ebbd 78e0 45bd 5058 00be
000000f0: f4d5 16bd 8f9a ff3c 86cb 2ebe bbdb e7bd
00000100: f057 04bc a3ef 3dbd 949f 0fbd 2736 023d
00000110: 96a5 493c 40a0 c93d f436 a93d 02b0 803c
00000120: 2b2c 6abd 0a7b b93d 2f22 223d 605c 27bc
00000130: d534 693c 539a a73d 8923 02be f31b 8dbd
00000140: 9836 ccbd 1782 72bd 5050 003e ae36 f4bc
00000150: d2a6 e6bc b703 e0bd 7414 9dbd 37fc f23d
00000160: 3dd8 00ba ab86 c13d 23bd 0dbe 9349 5c3d
00000170: c593 193d 4bb1 c73d 0160 843d a344 b9bd
00000180: ac01 9d3d 16a5 b63d 7e8b 08be 8b1d 183d
00000190: 527f ed3c da9b e03c c164 d83d c492 263e
000001a0: aa39 a1bd 2eb0 903d b474 85bd 12ad 33bd
000001b0: dc3e d2bd 80b0 be3d 3600 aebd c620 d7bb
000001c0: 9a05 1dbd d116 b43d 21aa 953d e227 9fbd
000001d0: 15fe 3b3c aed7 913d 60a9 a0bd edf4 f83b
000001e0: 2cd7 c53d a70e 0abe a6e4 06be 36bd 58bc
000001f0: 833f e7bd b929 d3bd 4a9f 073e 6258 26be
00000200: d3ac 593d 14e1 2abe 4c8c 9abd 0ec2 9d3d
00000210: 776c 2fbe 9820 b1bd bac9 cfbd 82b2 fcbc
00000220: dc6d 173d 2929 babd 3343 113e 35ca 153d
00000230: 174b de3b 8110 67bd 4dba 2cbe a8e1 a3bd
00000240: 1399 f9bc 95fa c03d f4df 00be 72f1 c13d
00000250: b2a8 1d3d 3b99 f03d 4328 5e3d 5105 3f3d
00000260: 7301 02be 2ce8 af3a 0ea3 083e 066c eebd
00000270: e4ce a4bd 23aa 363e a7a3 ec3d f485 763d
00000280: 4cf9 2fbd 48de 2e3d f6da a43d a0b3 923d
00000290: 3835 96bd 6cf7 e8bd aa77 fd3c 8002 d53d
000002a0: c3e7 7ebc c1fc 793d b15d 09bc 4faa 4abc
000002b0: 1134 a8bd f786 efbd 13b1 3b3d 6c12 983d
000002c0: 1e9f b0bd e6e5 533d 0c61 bfbd 70f7 9d3d
000002d0: beca ac3d aa36 99bd c536 073e ec0d 5e3d
000002e0: 9002 893d e31e c33d 6100 ab3d aed9 df3d
000002f0: 9e82 413e 263a 5a3b c7e2 3fbc e120 813d
00000300: 3b79 a43c 13fc 013e 471f 413d 4163 11be
00000310: 7dd3 e7bd 868d b4bb 304f fcba 8f65 513d
00000320: 157e 463d 061e 0d3d ca1a 573d 37b8 d33d
00000330: 1dbb afbc 19c2 b73d 6b24 a63d 18bd f63d
00000340: d2da 173d 649b 083e b552 f2bd 63ce 983d
00000350: 8e09 e6bd 3b5f 83bd 9c25 133c a149 8cbc
00000360: abed 81bd 6032 a63d 0f96 52bd 83d4 953d
00000370: 3c73 ce3d 1657 053e 9616 92bd 29ee a43d
00000380: 8403 9bbd c33c a0bd ead5 e23d 7703 0d3d
00000390: 195b f53d c6f7 f63d a3e1 92bc be49 fa3c
000003a0: 0b72 b93d 8b37 c1bd 6939 d8bd 5874 883d
000003b0: 6c90 16be 2125 18be 1816 a3bc 779b 313d
000003c0: 8f1c a9bd 3c62 10be 3e1d bd3d ead9 fa3d
000003d0: 14d5 c3bd c84f f9bd e6d2 83bc 1922 bfbd
000003e0: ad49 cc3d eb2d c43d 7eac 173e 962e 8bbc
000003f0: 2fc6 e9bd 1cf1 12be 2438 09be 0097 9f3d

encoder_lstm.lstm.bias_ih_l0 f4 [192]
0.055828948 0.032216813 0.017345285 -0.06373404 -0.072631165 -0.0455719 -0.09772465 -0.02487625
-0.013796666 -0.14840423 -0.03369536 -0.04582199 -0.055084914 0.013693847 0.016279912 0.004913958
0.089171536 -0.09160853 0.007166175 0.074101746 -0.06883619 0.09631307 0.0752515 0.13732909
-0.15802376 -0.0034865064 -0.085090876 0.035453103 -0.023601556 -0.14056368 -0.028137159 -0.06589105
0.10261045 -0.047345154 0.004357961 -0.10155976 0.09188588 -0.07958792 -0.09573746 0.001645198
-0.102604024 -0.013263942 0.08334809 0.04650188 -0.042369008 -0.0054516247 -0.04534077 0.025129287
-0.008595539 0.07306481 0.049258888 -0.020626293 -0.12670875 -0.05482188 -0.08514835 0.044454142
0.038779616 0.04113411 -0.06837915 -0.09867465 0.03508071 0.069690645 0.017781219 -0.080553524
0.08054934 0.08761695 0.14861597 -0.15347472 -0.0875105 -0.026910003 0.02767652 -0.018400317
0.08823392 -0.0012890595 0.03902296 0.0696582 0.06381727 -0.019629367 0.15211606 0.02307679
-0.043380022 0.032749444 0.04596511 0.12074592 0.073279314 -0.031217124 0.041897967 -0.05668941
-0.048048113 -0.1193097 0.121683955 -0.0999273 -0.0012730504 0.040320337 -0.0627428 0.11692214
-0.03290371 0.024041034 0.061293412 0.098746344 -0.11581755 0.026297456 -0.10880527 -0.05576921
0.043293208 0.018154625 -0.06317571 -0.004675117 0.12187424 -0.022739135 0.048585854 0.05227547
-0.02006901 -0.08033701 0.09258209 0.10279612 -0.03158169 0.14161165 0.034415312 0.023577174
0.0830071 0.0036923073 0.10138259 -0.025012325 -0.13400732 0.14969133 -0.120553635 0.10918892
0.033175882 0.03346344 -0.12772267 -0.13739386 -0.048721317 -0.02679494 -0.113916844 0.079874575
0.012045126 0.013180561 -0.044847786 0.10853882 0.07029433 0.111856915 0.086189926 0.124539554
-0.1290057 0.12525105 -0.16384141 0.0154101 -0.033472076 -0.008035609 -0.13817346 -0.13428167
0.009527186 -0.104421206 -0.07364718 0.06058513 -0.1709298 0.014386549 -0.08389829 -0.10893755
0.02310317 0.0447727 0.010475081 -0.0068536378 -0.09294236 0.069923036 -0.09712156 -0.11140108
0.094273746 -0.010880957 -0.07868962 0.04801634 -0.06897571 -0.031223461 0.16041929 0.12572652
0.027009463 -0.02181883 -0.056743745 -0.0053173667 -0.048704706 -0.082248956 -0.011420584 0.014341868
-0.026720904 -0.02114541 0.010322463 -0.0115172155 -0.087327495 -0.0429398 -0.0970571 -0.096025795
00000000: e5ac 643d c7f5 033d b317 8e3c fe86 82bd
00000010: a6bf 94bd 9aa9 3abd dc23 c8bd 47c9 cbbc
00000020: 690b 62bc 47f7 17be 2504 0abd d7af 3bbd
00000030: b8a0 61bd 285c 603c 735d 853c 4405 a13b
00000040: 919f b63d 419d bbbd 3cd2 ea3b a8c2 973d
00000050: fdf9 8cbd c93f c53d 751d 9a3d ff9f 0c3e
00000060: fbd0 21be df7d 64bb 2044 aebd 4637 113d
00000070: 0d58 c1bc edef 0fbe e67f e6bc e3f1 86bd
00000080: 6d25 d23d feec 41bd 3acd 8e3b 90fe cfbd
00000090: aa2e bc3d fefe a2bd 0012 c4bd afa3 d73a
000000a0: 0f22 d2bd 0151 59bc 67b2 aa3d c178 3e3d
000000b0: 208b 2dbd 8ba3 b2bb 3eb7 39bd efdb cd3c
000000c0: 4ed4 0cbc 01a3 953d b0c3 493d 79f8 a8bc
000000d0: f0bf 01be e88c 60bd 4262 aebd 8c15 363d
000000e0: 60d7 1e3d 3e7c 283d 5e0a 8cbd ef15 cabd
000000f0: cab0 0f3d f8b9 8e3d eba9 913c 3ff9 a4bd
00000100: 0df7 a43d 8470 b33d c92e 183e 7a28 1dbe
00000110: b438 b3bd 5e72 dcbc dfb9 e23c 43bc 96bc
00000120: fcb3 b43d a9f5 a8ba 8ad6 1f3d f5a8 8e3d
00000130: a1b2 823d c4cd a0bc 50c4 1b3e 890b bd3c
00000140: 40af 31bd 4824 063d e945 3c3d a349 f73d
00000150: 7713 963d 0ebb ffbc 349d 2b3d 2833 68bd
00000160: 19ce 44bd a558 f4bd 7035 f93d afa6 ccbd
00000170: 7cdc a6ba f026 253d 4c7f 80bd e074 ef3d
00000180: 0ac6 06bd b4f1 c43c cd0e 7b3d 863b ca3d
00000190: c031 edbd c36d d73c 4cd5 debd 416e 64bd
000001a0: 3854 313d 02b9 943c 4462 81bd b931 99bb
000001b0: 3499 f93d 6c47 babc f601 473d ce1e 563d
000001c0: c467 a4bc bb87 a4bd ae9b bd3d c686 d23d
000001d0: cd5b 01bd a502 113e 12f7 0c3d eb24 c13c
000001e0: a0ff a93d a3fa 713b ada1 cf3d a6e6 ccbc
000001f0: 3739 09be af48 193e d3e4 f6bd 719e df3d
00000200: 6fe3 073d f610 093d bbc9 02be fab0 0cbe
00000210: 0190 47bd 1081 dbbc 3c4d e9bd 4895 a33d
00000220: ec58 453c 48f3 573c 50b2 37bd 9a49 de3d
00000230: 79f6 8f3d 3d15 e53d 5884 b03d 980e ff3d
00000240: 121a 04be d041 003e 0bc6 27be a57a 7c3c
00000250: 041a 09bd c9a7 03bc 587d 0dbe 2281 09be
00000260: ea17 1c3c c9da d5bd 55d4 96bd 1d28 783d
00000270: 3908 2fbe 8fb5 6b3c ded2 abbd a61a dfbd
00000280: dc42 bd3c 9463 373d ad9f 2b3c 7b94 e0bb
00000290: 9058 bebd cf33 8f3d abe7 c6bd 4026 e4bd
000002a0: 9812 c13d 0b46 32bc 0628 a1bd c8ac 443d
000002b0: 2343 8dbd 58c8 ffbc f444 243e 74be 003e
000002c0: f342 dd3c 67bd b2bc 216c 68bd 4e3d aebb
000002d0: 967e 47bd 2472 a8bd 671d 3bbc 28fa 6a3c
000002e0: cce5 dabc 2439 adbc 8c1f 293c b4b2 3cbc
000002f0: c2d8 b2bd a5e1 2fbd dfc5 c6bd 2ca9 c4bd

encoder_lstm.lstm.bias_hh_l0 f4 [192]
0.051289804 -0.018568281 0.02671167 -0.09678265 0.15150763 0.108414635 -0.08616446 -0.17800257
0.07541902 0.0087158 -0.100070596 0.006206384 0.084096864 0.084649526 -0.006481891 -0.113650836
0.14044707 -0.123019874 -0.04756169 -0.085073225 0.108232975 0.11882481 -0.11236157 -0.06358879
-0.06234854 0.0453998 -0.061858416 -0.06635122 -0.047094863 0.038836136 -0.05763723 0.077034615
0.087980956 -0.09970064 0.03329284 0.17315763 0.10736836 -0.12299512 0.10756253 0.14581454
0.031458117 0.06354557 0.055199526 -0.13338351 0.09311131 -0.13412926 0.039363448 0.019221034
0.02328096 -0.14039347 -0.07346955 0.09007722 0.053966574 0.12419065 -0.082370095 -0.066776335
-0.028623266 0.10215684 0.0077592493 0.05820319 -0.09356966 0.14199455 0.09121975 0.12537529
0.0015036362 0.05772521 0.021527499 -0.08025357 -0.12594983 0.05875083 -0.038482115 -0.1150389
0.055305947 -0.13059875 0.09418841 0.035934515 -0.070682965 0.01644286 -0.00042990324 0.07177376
-0.14435634 0.07990786 0.037105944 0.039591618 -0.015710624 -0.07857812 0.12150681 0.17730567
-0.023107104 0.07962203 0.067109436 -0.14615457 0.03594871 0.1250959 0.035700236 0.029594459
0.008651494 -0.0643936 0.14704646 -0.052179385 0.09215463 0.09442806 -0.041353177 0.001287119
0.012814051 0.002425561 -0.11946138 -0.07418083 -0.10860584 -0.074659616 0.089130625 0.060728963
-0.101696625 -0.037610043 -0.12322717 0.0176978 -0.13508046 -0.13808356 -0.09232889 0.124237604
-0.04677404 0.120273374 -0.051172335 -0.10027745 0.02262429 0.09473164 0.08138663 -0.055640116
-0.1321968 -0.01405933 0.095475435 0.14568618 0.114272185 -0.06480203 -0.1260453 -0.066563584
-0.08868038 0.09352527 0.14912666 0.025845135 -0.10190117 0.036660492 0.06375196 -0.10340744
-0.092950076 0.08644551 0.008405777 0.03750562 0.03933549 -0.052558925 0.1100494 0.07356398
0.016690008 -0.10541643 -0.067641065 -0.1206382 -0.033008095 -0.032423645 0.083443835 0.091090605
0.029816182 -0.060002163 -0.09744706 -0.17054908 -0.086761005 -0.0768036 -0.04327121 0.09225229
-0.096919306 -0.15552223 -0.1527967 0.025220593 -0.070510395 0.11281239 0.076892346 0.04305617
-0.0768254 0.024668496 -0.022436649 -0.047581207 0.107432425 0.04588876 -0.15902802 -0.09832251
-0.07590171 -0.024160175 -0.028422698 -0.12381287 -0.047019847 0.06454347 -0.018501485 0.12389538
00000000: 4215 523d 821c 98bc 6fd2 da3c fb35 c6bd
00000010: d124 1b3e 7e08 de3d fe76 b0bd 4e46 36be
00000020: 4a75 9a3d b7cc 0e3c d0f1 ccbd ec5e cb3b
00000030: fa3a ac3d bb5c ad3d 0b66 d4bb c5c1 e8bd
00000040: 5bd1 0f3e d8f1 fbbd 0cd0 42bd df3a aebd
00000050: 40a9 dd3d 6c5a f33d d31d e6bd d73a 82bd
00000060: 2f61 7fbd 24f5 393d 405f 7dbd 26e3 87bd
00000070: 8be6 40bd a412 1f3d 0415 6cbd 53c4 9d3d
00000080: 5c2f b43d d92f ccbd 135e 083d 3c50 313e
00000090: f1e3 db3d dee4 fbbd be49 dc3d 6850 153e
000000a0: 3ada 003d 2e24 823d e618 623d b095 08be
000000b0: 24b1 be3d 2e59 09be 913b 213d 6e75 9d3c
000000c0: b6b7 be3c 4ec3 0fbe 3477 96bd 687a b83d
000000d0: 0e0c 5d3d ab57 fe3d a7b1 a8bd 08c2 88bd
000000e0: 577b eabc 9b37 d13d 4d41 fe3b 7866 6e3d
000000f0: 73a1 bfbd 0567 113e 6cd1 ba3d 6162 003e
00000100: a915 c53a 4571 6c3d 705a b03c fc5b a4bd
00000110: fef8 00be b6a4 703d 6c9f 1dbd 8499 ebbd
00000120: 7d88 623d aebb 05be dae5 c03d 1230 133d
00000130: 3bc2 90bd 2db3 863c a364 e1b9 1ffe 923d
00000140: 26d2 13be bba6 a33d 67fc 173d d22a 223d
00000150: 91b3 80bc 91ed a0bd 90d8 f83d 9e8f 353e
00000160: 1c4b bdbc e010 a33d ac70 893d 8ba9 15be
00000170: f43e 133d 2419 003e 693a 123d 1470 f23c
00000180: ffbe 0d3c cbe0 83bd 5993 163e 0dba 55bd
00000190: 91bb bc3d 8063 c13d f361 29bd 8cb4 a83a
000001a0: 06f2 513c 29f6 1e3b 2ba8 f4bd 1eec 97bd
000001b0: bd6c debd 24e7 98bd 1e8a b63d efbe 783d
000001c0: 5246 d0bd fd0c 1abd 875e fcbd fafa 903c
000001d0: 8852 0abe c765 0dbe ee16 bdbd 4970 fe3d
000001e0: 2396 3fbd e351 f63d 159a 51bd 445e cdbd
000001f0: 9356 b93c a902 c23d 09ae a63d e4e6 63bd
00000200: 995e 07be 1b59 66bc a088 c33d c22e 153e
00000210: 8907 ea3d edb6 84bd 0512 01be 7d52 88bd
00000220: 0f9e b5bd 2d8a bf3d a9b4 183e 2db9 d33c
00000230: 90b1 d0bd 5029 163d 6390 823d 48c7 d3bd
00000240: 9c5c bebd 580a b13d 62b8 093c 7e9f 193d
00000250: 401e 213d 0748 57bd 9461 e13d b6a8 963d
00000260: 7cb9 883c 92e4 d7bd 6687 8abd 2911 f7bd
00000270: 7f33 07bd a8ce 04bd 9ae4 aa3d b68d ba3d
00000280: 1141 f43c d4c4 75bd 5392 c7bd 6ba4 2ebe
00000290: c1af b1bd 354b 9dbd 273d 31bd c5ee bc3d
000002a0: a17d c6bd 3841 1fbe bd76 1cbe 6b9b ce3c
000002b0: c167 90bd 2f0a e73d bc79 9d3d ab5b 303d
000002c0: a356 9dbd 9615 ca3c 10cd b7bc 83e4 42bd
000002d0: 8805 dc3d daf5 3b3d 3ed8 22be 505d c9bd
000002e0: 5b72 9bbd 8feb c5bc b8d6 e8bc 9a91 fdbd
000002f0: e297 40bd 5e2f 843d 6d90 97bc dcbc fd3d

decoder_lstm.lstm.weight_ih_l0 f4 [192, 10]
0.12702563 0.14325371 -0.15020798 -0.07592406 0.091903955 -0.02408615 0.00892071 0.15133233
0.0032610043 0.02188919 0.014106277 -0.02053018 0.02233204 0.12929165 -0.124543004 0.05357251
-0.08189296 0.103706725 0.11767991 0.026558759 0.0047237077 -0.03502795 0.14508405 0.108339444
-0.043029256 -0.01797766 0.07126223 0.0023603472 -0.039168607 0.04202306 -0.08391492 -0.06802019
0.0690147 0.117157325 -0.066353 0.00218197 0.0592481 0.08811571 0.090050116 -0.11389799
0.0681714 0.015167945 -0.12992854 0.13121697 0.0048721367 -0.09626413 0.0033207058 -0.026550272
0.05643848 -0.030384183 0.14414993 -0.096219294 -0.13194962 -0.08533398 -0.11640825 0.106231645
0.004420612 -0.014964422 0.119193174 -0.12058934 0.04691757 0.037364975 0.18539897 -0.0045567784
-0.11389003 -0.12837678 0.050373167 0.0017046755 0.05568193 -0.04350232 -0.08485448 -0.10456421
-0.06667664 0.1624078 0.106557414 0.072814174 0.050641805 0.044693545 0.010872065 0.13381927
-0.121177554 0.11072475 -0.066786006 0.036856905 -0.09306991 -0.013832563 -0.020376064 0.08701054
-0.06864234 0.13890381 0.076385625 0.0433213 -0.030237505 -0.10689792 0.0985624 0.030643826
0.02625019 -0.0694304 -0.094095275 -0.029687505 -0.06403173 -0.07105237 -0.12918207 -0.030663712
0.11888057 0.007875448 0.03454184 -0.08223577 -0.13365155 -0.09342027 -0.12482455 -0.053119276
0.09595774 -0.04083096 0.02143693 -0.04152869 0.05437981 -0.13365425 -0.1183471 -0.028707346
0.11299434 0.14718442 -0.08925895 -0.07310986 0.028942121 0.13173674 0.07127876 -0.04257705
0.098692276 0.08741857 0.0026092553 -0.027586717 0.013786102 0.027656093 -0.062457934 -0.019986365
0.09880625 -0.05697868 -0.04769727 -0.04244554 -0.017443806 0.12799506 -0.009398904 -0.026240394
0.041180823 -0.101583436 0.03864603 0.04396829 -0.08706591 -0.049545653 0.13103566 -0.0020397322
0.046178855 -0.028509313 -0.16995732 0.105644435 0.07666146 0.10434697 -0.021957628 0.04129551
0.004607157 -0.1015674 0.022954172 -0.025498275 0.1440565 0.031927582 -0.0875388 -0.044161573
0.12815297 -0.13048366 -0.15432319 -0.073932886 0.007435075 -0.14774555 -0.027318725 0.14363053
-0.07296677 -0.006640907 0.12703833 -0.17192937 0.14644791 0.07014619 -0.12485138 0.026114756
-0.13318841 0.0803561 -0.049674947 -0.020398445 0.11157955 -0.028363368 -0.04642804 0.027924689
-0.117553845 -0.087660134 0.14952748 -0.10397977 -0.03249401 0.060292456 0.03673372 0.15653762
-0.08870464 -0.007882592 -0.11447807 -0.070353076 -0.08677482 -0.065117605 -0.040644936 -0.0374795
-0.10334957 0.059123196 -0.036045287 -0.15917833 -0.13101241 0.043603014 0.0450268 0.03969445
-0.029039737 -0.11183789 0.001592904 -0.0091352295 0.034633093 0.08345197 0.037926584 -0.16753449
0.06589245 -0.093829535 0.042996302 0.092103586 0.043207657 0.11371521 0.022510929 -0.15017661
-0.002818936 0.077955596 -0.0029045974 0.05976309 0.028855387 -0.03810707 0.13002989 -0.025244785
0.124409385 -0.0125988405 0.07589218 -0.21381898 0.018231826 -0.06961473 0.09158622 -0.115347184
-0.056897826 -0.08361372 0.07705114 -0.030794358 -0.06824273 -0.21665603 0.024535812 -0.1619983
00000000: 0213 023e 1ab1 123e 1fd0 19be 137e 9bbd
00000010: 2438 bc3d 5150 c5bc 2b28 123c ddf6 1a3e
00000020: 93b6 553b f550 b33c 041e 673c e82e a8bc
00000030: aff1 b63c 0865 043e 6710 ffbd d96e 5b3d
00000040: 7fb7 a7bd 3164 d43d 2a02 f13d c191 d93c
00000050: 55c9 9a3b 7879 0fbd ea90 143e 12e1 dd3d
00000060: 723f 30bd e345 93bc eff1 913d 0eb0 1a3b
00000070: 436f 20bd 5f20 2c3d 96db abbd 2b4e 8bbd
00000080: 9457 8d3d 2ef0 ef3d 15e4 87bd 62ff 0e3b
00000090: 23ae 723d 0276 b43d 326c b83d 5943 e9bd
000000a0: 729d 8b3d f982 783c fd0b 05be be5d 063e
000000b0: 72a6 9f3b 2126 c5bd 33a0 593b f57f d9bc
000000c0: 092c 673d 40e8 f8bc 0a9c 133e 9f0e c5bd
000000d0: cd1d 07be 95c3 aebd 7367 eebd fa8f d93d
000000e0: c8da 903b 562d 75bc 8d1b f43d 8bf7 f6bd
000000f0: a32c 403d 040c 193d 3ad9 3d3e 0751 95bb
00000100: 2d3f e9bd 3475 03be 1854 4e3d 6b6f df3a
00000110: bc12 643d 7d2f 32bd 30c8 adbd c325 d6bd
00000120: c38d 88bd 3b4e 263e c63a da3d 991f 953d
00000130: c86d 4f3d 9410 373d bf20 323c eb07 093e
00000140: f02b f8bd a8c3 e23d 1ac7 88bd 44f7 163d
00000150: 709b bebd f9a1 62bc b4eb a6bc 9532 b23d
00000160: 5b94 8cbd cd3c 0e3e 1170 9c3d ad71 313d
00000170: a5b4 f7bc 4ced dabd 15db c93d c308 fb3c
00000180: a30a d73c 8731 8ebd 06b5 c0bd 3633 f3bc
00000190: 1123 83bd e883 91bd 4e48 04be 7732 fbbc
000001a0: a877 f33d 0608 013c bf7b 0d3d 3a6b a8bd
000001b0: f4db 08be 2053 bfbd 03a4 ffbd 9993 59bd
000001c0: 7e85 c43d 5d3e 27bd 809c af3c fd19 2abd
000001d0: 5dbd 5e3d a9dc 08be f75f f2bd ab2b ebbc
000001e0: 9469 e73d 83b7 163e 65cd b6bd 9fba 95bd
000001f0: 0718 ed3c ffe5 063e 99fa 913d 4665 2ebd
00000200: 2d1f ca3d 8208 b33d 0a00 2b3b 8afd e1bc
00000210: 1adf 613c 088f e23c e4d3 7fbd 72ba a3bc
00000220: ee5a ca3d 7a62 69bd 365e 43bd 60db 2dbd
00000230: 50e6 8ebc 2311 033e dcfd 19bc 18f6 d6bc
00000240: 39ad 283d fa0a d0bd 4d4b 1e3d 1818 343d
00000250: 9d4f b2bd 62f0 4abd 362e 063e 07ad 05bb
00000260: 0a26 3d3d 5d8c e9bc 4b09 2ebe 1c5c d83d
00000270: af00 9d3d ddb3 d53d 7ce0 b3bc 7b25 293d
00000280: a2f7 963b 9202 d0bd 630a bc3c c2e1 d0bc
00000290: 8c83 133e 7fc6 023d 8b47 b3bd c4e2 34bd
000002a0: 883a 033e 829d 05be e606 1ebe 206a 97bd
000002b0: eea1 f33b 9c4a 17be 85cb dfbc e213 133e
000002c0: 9a6f 95bd f79b d9bb 5616 023e 410e 30be
000002d0: 71f6 153e cea8 8f3d 15b2 ffbd 9dee d53c
000002e0: 8b62 08be bd91 a43d f577 4bbd a41a a7bc
000002f0: d283 e43d 4b5a e8bc 542b 3ebd 51c2 e43c
00000300: 12c0 f0bd 2887 b3bd bb1d 193e 58f3 d4bd
00000310: 7018 05bd 39f5 763d 1976 163d 664b 203e
00000320: c7aa b5bd fd25 01bc 7a73 eabd 4615 90bd
00000330: ffb6 b1bd 615c 85bd 4e7b 26bd 1b84 19bd
00000340: f0a8 d3bd 2a2b 723d 39a4 13bd a5ff 22be
00000350: 1e28 06be 1399 323d 066e 383d a696 223d
00000360: bee4 edbc 440b e5bd fdc8 d03a eeab 15bc
00000370: 6edb 0d3d dee8 aa3d e858 1b3d 298e 2bbe
00000380: 9ff2 863d b329 c0bd e41c 303d cea0 bc3d
00000390: 83fa 303d 85e3 e83d d768 b83c e6c7 19be
000003a0: e6bd 38bb 2fa7 9f3d 0f5b 3ebb 24ca 743d
000003b0: 2262 ec3c 2916 1cbd 8e26 053e 27ce cebc
000003c0: 59ca fe3d 5e6b 4ebc 5c6d 9b3d 5df3 5abe
000003d0: e95a 953c 2b92 8ebd 8e91 bb3d 253b ecbd
000003e0: b20d 69bd ac3d abbd fdcc 9d3d 7344 fcbc
000003f0: d8c2 8bbd 14db 5dbe 54ff c83c e2e2 25be

decoder_lstm.lstm.weight_hh_l0 f4 [192, 48]
0.10470246 0.07933151 0.14248951 -0.12090007 -0.16901113 -0.09466761 -0.047811434 -0.09288198
-0.06522131 0.085940845 -0.15335286 -0.10229241 0.08216466 0.09899472 0.03402524 -0.115753576
0.003262471 0.023840318 -0.022426026 -0.063524164 0.059786532 0.058985785 0.11883386 -0.05249852
-0.034998365 0.11480434 -0.094053395 0.16405176 -0.09800821 0.10291223 0.08011329 0.068575144
-0.014494032 0.07054852 0.114719905 0.10233666 -0.030523121 -0.024696933 -0.00884624 -0.087220535
0.009788801 -0.12794456 0.12399432 0.09884449 -0.11937612 -0.09181339 -0.041161045 -0.062159635
-0.045969144 0.09500895 -0.04309989 -0.0003146213 0.11498063 -0.15812261 0.0009597232 0.08707281
0.038571656 0.046321902 0.0034148414 0.13271807 -0.03725945 0.13203469 -0.13475236 -0.07029005
0.09301546 0.03701369 -0.09491976 -0.047610857 0.1574349 -0.10563243 -0.13013312 -0.15080395
0.029915709 0.13755715 0.035717886 -0.11215173 0.09355322 0.035789892 -0.08294939 0.08382799
0.008274923 -0.12877405 -0.100975215 -0.028469028 -0.13683398 0.11342602 0.1441565 0.075077474
-0.114746474 0.034717616 -0.049545065 0.12444992 -0.048614092 0.03183423 -0.14405596 -0.10794858
-0.076675765 -0.06651744 0.00650428 0.04265282 0.13289933 -0.061791457 0.115808986 0.027501442
0.05843638 -0.115939565 -0.06954132 0.13781485 0.14611545 0.08292982 0.092233524 0.12802298
0.15134309 0.024457818 -0.06466996 -0.14341642 -0.13296913 -0.0011575905 -0.17228514 -0.058648534
-0.0063806744 0.065069556 0.018998867 -0.07917296 -0.11641928 -0.03795885 -0.010329571 0.14331098
-0.07482857 0.12637706 0.00068503234 0.053563263 0.17281392 -0.14295436 0.048256647 -0.09757974
-0.008688289 -0.0072705303 -0.0027170994 -0.018521534 0.04028111 0.10522994 -0.070166804 0.09505038
-0.15789178 -0.021913053 0.09390379 -0.033807274 -0.11856745 -0.08368715 -0.013728231 0.047822513
-0.11277403 0.111198485 -0.11068933 -0.15769367 0.13247944 0.01671366 0.09126892 0.030920358
-0.097251326 -0.0023805974 -0.10914964 0.021031888 0.09148039 0.060113568 0.18562435 0.15031384
-0.12319673 0.10573297 0.0090047 -0.14581831 0.066074245 -0.11281309 0.0897373 0.049957197
-0.059725776 -0.010273366 0.078331724 0.065958366 0.10532525 0.09595662 0.086331114 0.07017755
-0.13562854 0.13161792 -0.11013187 -0.06047567 -0.11916133 0.11565326 -0.08500316 -0.015599803
0.04540622 0.12735102 -0.018372301 -0.0631024 0.003854658 -0.13582231 -0.046940953 0.03833173
0.060746748 -0.066205285 0.030411072 0.11181532 -0.041638188 0.130621 0.10504219 0.113768086
-0.029015701 0.15683097 -0.057838522 -0.027022656 0.11710897 -0.09707867 0.10269411 0.060479358
0.100526154 -0.12362738 0.09105475 -0.077684894 0.05252447 0.0216357 0.08075624 0.102217615
-0.123894654 -0.013830856 0.00856617 0.028109485 -0.105369955 0.08662084 0.0752668 -0.1181809
-0.017673565 0.00631093 0.04382153 -0.07390162 -0.055484492 -0.05379024 -0.15391438 0.13207296
0.003817591 -0.13239115 -0.07330616 0.012325063 -0.04227889 0.031688306 -0.10222519 0.03709425
-0.12780479 0.094612174 0.122662164 0.09463652 0.17398393 0.1418657 0.13990436 -0.098114125
00000000: 3e6e d63d 8f78 a23d c5e8 113e 759a f7bd
00000010: 4111 2dbe 18e1 c1bd ecd5 43bd e838 bebd
00000020: c092 85bd c101 b03d 8808 1dbe af7e d1bd
00000030: f245 a83d bebd ca3d 0d5e 0b3d 3610 edbd
00000040: 2ecf 553b c54c c33c c9b6 b7bc f518 82bd
00000050: b9e2 743d 149b 713d 2b5f f33d b008 57bd
00000060: 725a 0fbd 8a1e eb3d 119f c0bd 2ffd 273e
00000070: 87b8 c8bd a6c3 d23d 7012 a43d 2071 8c3d
00000080: 6078 6dbc be7b 903d 45f2 ea3d e295 d13d
00000090: a00b fabc 3951 cabc d2ef 10bc aea0 b2bd
000000a0: 3561 203c e603 03be bcf0 fd3d fb6e ca3d
000000b0: 787b f4bd a908 bcbd 7c98 28bd 1a9b 7ebd
000000c0: 244a 3cbd 0d94 c23d 8389 30bd c2f3 a4b9
000000d0: f77a eb3d e5ea 21be ef95 7b3a 3b53 b23d
000000e0: 50fd 1d3d 09bc 3d3d 88cb 5f3b 3fe7 073e
000000f0: 5d9d 18bd 1a34 073e 86fc 09be 3bf4 8fbd
00000100: e47e be3d ab9b 173d 4b65 c2bd 9a03 43bd
00000110: 9d36 213e d155 d8bd 9e41 05be 5a6c 1abe
00000120: ca11 f53c c8db 0c3e eb4c 123d ceaf e5bd
00000130: d598 bf3d 6c98 123d 5fe1 a9bd 02ae ab3d
00000140: 8b93 073c 58dd 03be 18cc cebd e137 e9bc
00000150: 351e 0cbe e74b e83d c39d 133e 38c2 993d
00000160: 3300 ebbd 0f34 0e3d c4ef 4abd 9adf fe3d
00000170: 921f 47bd 9c64 023d 6883 13be 2514 ddbd
00000180: 2f08 9dbd 4c3a 88bd db21 d53b b9b4 2e3d
00000190: c316 083e 0a19 7dbd 432d ed3d b44a e13c
000001a0: fc5a 6f3d b971 edbd ae6b 8ebd 561f 0d3e
000001b0: 4a9f 153e 1cd7 a93d eee4 bc3d 7518 033e
000001c0: aff9 1a3e c35b c83c af71 84bd c1db 12be
000001d0: 0f29 08be 4bba 97ba 846b 30be 7239 70bd
000001e0: fa14 d1bb 3043 853d 83a3 9b3c 6f25 a2bd
000001f0: 3b6d eebd bd7a 1bbd 5c3d 29bc 1dc0 123e
00000200: b93f 99bd fd68 013e be93 333a 2765 5b3d
00000210: 22f6 303e a162 12be c3a8 453d e3d7 c7bd
00000220: 5359 0ebc a13d eebb 5d11 32bb 79ba 97bc
00000230: cefd 243d cb82 d73d 9db3 8fbd c6a9 c23d
00000240: 62ae 21be 0183 b3bc a150 c03d 7f79 0abd
00000250: 7ed3 f2bd 2b64 abbd 60ec 60bc 8ae1 433d
00000260: 12f6 e6bd 08bc e33d 16b1 e2bd 737a 21be
00000270: b1a8 073e 16eb 883c 33eb ba3d b14c fd3c
00000280: b42b c7bd cc03 1cbb d989 dfbd 114b ac3c
00000290: 125a bb3d a539 763d 4f14 3e3e dfeb 193e
000002a0: 914e fcbd 878a d83d 7388 133c 6551 15be
000002b0: ef51 873d 8d0a e7bd 31c8 b73d eb9f 4c3d
000002c0: 04a3 74bd 9f51 28bc 626c a03d 2e15 873d
000002d0: c4b4 d73d e884 c43d 5ece b03d 3fb9 8f3d
000002e0: 35e2 0abe d9c6 063e d18c e1bd 56b5 77bd
000002f0: db0a f4bd 9edb ec3d 2316 aebd 5196 7fbc
00000300: dffb 393d 4e68 023e 8281 96bc d53b 81bd
00000310: 6e9e 7c3b 0115 0bbe 2845 40bd bb01 1d3d
00000320: 95d1 783d a396 87bd a420 f93c 6eff e43d
00000330: ce8c 2abd 83c1 053e 5c20 d73d 3eff e83d
00000340: 56b2 edbc 4c98 203e 16e8 6cbd 9e5e ddbc
00000350: d4d6 ef3d 2fd1 c6bd 4a51 d23d 34b9 773d
00000360: a8e0 cd3d 5a30 fdbd ea7a ba3d 4219 9fbd
00000370: e623 573d 5a3d b13c 8763 a53d 7857 d13d
00000380: 7bbc fdbd d19a 62bc 1f59 0c3c dd45 e63c
00000390: 34cc d7bd 4466 b13d 7b25 9a3d d408 f2bd
000003a0: 27c8 90bc ebcb ce3b 347e 333d bc59 97bd
000003b0: b543 63bd 2853 5cbd bb9b 1dbe 223e 073e
000003c0: 8c30 7a3b 8c91 07be 8a21 96bd 10ef 493c
000003d0: a12c 2dbd 99cb 013d 715b d1bd 24f0 173d
000003e0: 42df 02be 07c4 c13d 4d36 fb3d cbd0 c13d
000003f0: d828 323e 3e45 113e 1743 0f3e 0ff0 c8bd

decoder_lstm.lstm.bias_ih_l0 f4 [192]
0.0074801077 0.03074093 0.08370311 0.074023455 0.021102307 -0.0848139 -0.07652771 -0.11247269
0.033114087 -0.07645184 -0.025329074 0.06440249 -0.058881138 0.15860032 0.004593235 -0.07280171
0.026914714 0.015095838 -0.13263589 0.0029633765 -0.082753986 -0.08924595 6.5116365e-05 -0.04313494
0.012816583 0.05220486 0.19061267 0.13170876 -0.14923076 0.07178292 0.054508638 0.14548695
0.11243486 -0.012534049 -0.08855031 0.0008415393 -0.031786505 -0.07405501 0.16973244 0.17551492
0.12641348 -0.061579116 -0.081222765 0.08653858 0.07804849 0.02356756 -0.11064417 -0.113022365
-0.03428046 0.05194184 0.13291332 -0.0016049279 0.030310785 -0.0020162312 -0.048314046 -0.09929216
-0.04823455 0.15980111 -0.08932576 0.17020306 0.018389579 0.026805393 0.06891986 0.17917554
0.012240358 -0.053892586 0.103333764 -0.07554519 0.023573468 0.1290749 0.066718094 0.17056642
-0.008856772 0.08465907 0.008992028 0.08577099 -0.135999 -0.065297894 -0.10199645 -0.06742142
0.012753855 -0.065425724 -0.023329321 -0.038761243 -0.049012322 -0.0045731384 0.15102161 0.0188699
0.09957973 0.0034454002 0.077884726 0.061543334 0.019776966 -0.041130763 0.17263186 -0.023114596
0.07079377 -0.074245535 0.15373136 0.035053447 -0.07802659 0.17474833 0.0010105873 0.024805762
-0.09774901 -0.056006163 -0.18336508 0.02154834 0.0011664103 0.14639428 0.051338725 -0.09277517
0.02065318 0.13698205 -0.038536623 -0.008931327 -0.11023585 0.085993476 0.00035379862 -0.06455462
0.027378866 0.023605969 -0.07431249 -0.002591396 0.055259585 0.09805788 0.05814297 -0.005784198
-0.037518874 -0.017932745 -0.03817207 0.122179896 0.038947847 0.027347535 -0.052791063 0.1338785
0.10171305 -0.11844528 0.07289575 -0.06127045 -0.020375751 0.012354173 0.08493163 0.11458861
-0.056282956 -0.16142014 -0.1010613 -0.1352645 -0.09530526 0.07697484 0.017059831 -0.09892654
-0.054129593 0.04183603 -0.15895136 0.08551458 -0.023547573 0.1544579 -0.040933408 -0.06754102
0.14372587 -0.11084103 0.032316886 -0.1439323 0.14153926 0.090327784 -0.037358448 -0.092521064
-0.08916199 -0.09398717 -0.05846329 0.05913931 -0.1742078 0.009841205 -0.11921645 -0.06565923
0.069093175 -0.039527025 -0.12442172 0.013698935 -0.12783568 -0.0747245 0.11509165 -0.078908786
0.08417199 0.05063211 0.042695697 -0.06806074 -0.029485136 0.12409426 0.13904797 -0.02405722
00000000: b11b f53b 67d4 fb3c 896c ab3d 9c99 973d
00000010: bfde ac3c e9b2 adbd 8fba 9cbd 1558 e6bd
00000020: a3a2 073d c892 9cbd eb7e cfbc 74e5 833d
00000030: 592d 71bd 1f68 223e d982 963b 1019 95bd
00000040: 3f7c dc3c 8954 773c b4d1 07be 3535 423b
00000050: ec7a a9bd 95c6 b6bd 158f 8838 43ae 30bd
00000060: a5fc 513c c3d4 553d f82f 433e a9de 063e
00000070: f3cf 18be ec02 933d 7344 5f3d 88fa 143e
00000080: 3f44 e63d 9d5b 4dbc dd59 b5bd bf9a 5c3a
00000090: 9132 02bd 27aa 97bd 57ce 2d3e 2fba 333e
000000a0: 8972 013e 623a 7cbd 1f58 a6bd 243b b13d
000000b0: e3d7 9f3d c110 c13c 6999 e2bd 4578 e7bd
000000c0: ab69 0cbd f8c0 543d 6e1a 083e 725c d2ba
000000d0: 534e f83c bf22 04bb f3e4 45bd b059 cbbd
000000e0: 9791 45bd e7a2 233e 6df0 b6bd b649 2e3e
000000f0: bea5 963c fc96 db3c db25 8d3d cb79 373e
00000100: c88b 483c 79be 5cbd a7a0 d33d 70b7 9abd
00000110: 251d c13c 362c 043e 7fa3 883d f7a8 2e3e
00000120: ff1b 11bc bc61 ad3d 4d53 133c b3a8 af3d
00000130: 5243 0bbe e7ba 85bd 84e3 d0bd 3e14 8abd
00000140: 8cf5 503c ecfd 85bd 221d bfbc 1cc4 1ebd
00000150: 25c1 48bd 44da 95bb 69a5 1a3e 0c95 9a3c
00000160: 75f0 cb3d 39cc 613b 0782 9f3d dd14 7c3d
00000170: 4e03 a23c bb78 28bd 68c6 303e d25a bdbc
00000180: 53fc 903d 0b0e 98bd c16b 1d3e 3494 0f3d
00000190: 68cc 9fbd 3af1 323e af75 843a 7435 cb3c
000001a0: a230 c8bd b866 65bd 0ec4 3bbe 2586 b03c
000001b0: 3ce2 983a 62e8 153e 8e48 523d e900 bebd
000001c0: dc30 a93c 0645 0c3e 94d8 1dbd b354 12bc
000001d0: 55c3 e1bd 591d b03d 0c7e b939 3635 84bd
000001e0: a549 e03c 4e61 c13c 2631 98bd 69d4 29bb
000001f0: e057 623d 92d2 c83d 5327 6e3d 5f89 bdbb
00000200: 64ad 19bd b1e7 92bc 515a 1cbd 7439 fa3d
00000210: c787 1f3d f007 e03c 713b 58bd 7217 093e
00000220: ee4e d03d 7093 f2bd 5e4a 953d b9f6 7abd
00000230: 0ceb a6bc 2869 4a3c a2f0 ad3d 6fad ea3d
00000240: f588 66bd 524b 25be 3af9 cebd c782 0abe
00000250: 672f c3bd fca4 9d3d 0fc1 8b3c ff99 cabd
00000260: feb6 5dbd 425c 2b3d 25c4 22be 4522 af3d
00000270: d7e6 c0bc 362a 1e3e caa9 27bd f252 8abd
00000280: e02c 133e 9f00 e3bd b65e 043d fd62 13be
00000290: abef 103e c6fd b83d 2c05 19bd af7b bdbd
000002a0: 909a b6bd 587c c0bd 3477 6fbd 103c 723d
000002b0: 8863 32be 013d 213c c127 f4bd 5978 86bd
000002c0: b980 8d3d 17e7 21bd d1d0 febd 7f71 603c
000002d0: 5be7 02be 2909 99bd 2cb5 eb3d ee9a a1bd
000002e0: 5d62 ac3d 9e63 4f3d afe1 2e3d 6e63 8bbd
000002f0: d08a f1bc 2225 fe3d 9762 0e3e a613 c5bc
