notebook/model_artifacts/10Iteration__LR0.000079__Clipp__ReluMHA__Epsilon1e-07__Threshold_1e-08_.pt (torch, 289096 bytes, 28 tensors)

batch_norm_layer.batch_norm_layer.weight f4 [10]
0	0x3f810f3f	1.0082778
1	0x3f79ddc8	0.97604036
2	0x3f809e74	1.0048356
3	0x3f7ec80c	0.99524
4	0x3f80250b	1.0011305
5	0x3f810f65	1.0082823
6	0x3f80d383	1.0064548
7	0x3f7fb19d	0.9988039
8	0x3f7dc1e8	0.99124
9	0x3f7fa531	0.9986144

batch_norm_layer.batch_norm_layer.bias f4 [10]
0	0xba98802d	-0.0011634879
1	0xbcd12ab3	-0.025533056
2	0x3c7d320b	0.015453826
3	0x3c029841	0.0079708705
4	0x3c3fe4c5	0.011712258
5	0xbbb5c555	-0.0055472055
6	0xbb5b4edb	-0.003346375
7	0x3ccad01c	0.024757437
8	0x3c28d900	0.010305643
9	0x3c8b8ccc	0.01703491

batch_norm_layer.batch_norm_layer.running_mean f4 [10]
0	0x3eaaaaa8	0.33333325
1	0x4723f62f	41974.184
2	0x3da01ad5	0.07817618
3	0x3ca64a7a	0.020299185
4	0x3e2d29db	0.16910498
5	0x3d76d6f3	0.060263585
6	0xbe98e080	-0.2985878
7	0x3d1fa283	0.038973343
8	0x3cf342f7	0.029695017
9	0xbd861f4e	-0.0654894

batch_norm_layer.batch_norm_layer.running_var f4 [10]
0	0x3d7a6665	0.061132807
1	0x4c3fb249	5.0252068e+07
2	0x3dec491c	0.11537382
3	0x3c8af7a2	0.016963784
4	0x3d7a2e5a	0.06107936
5	0x3d0d5b8d	0.034511138
6	0x3d31f9e8	0.04345122
7	0x3da15875	0.078782
8	0x3eb0a825	0.34503284
9	0x3e25e919	0.16202201

embedd_layer.embedd_layer.weight f4 [3060, 8]
0	0x3f01b3cb	0.5066497
1	0x3c89f427	0.016840054
2	0x3e76ac9a	0.2408928
3	0x3e9da0d8	0.30786777
4	0xbe311a8f	-0.17295288
5	0x3e9be3b3	0.30447158
6	0x3f1efe8c	0.6210716
7	0x3e90d7fb	0.2828978
8	0xbea3197f	-0.3185539
9	0x3e38de18	0.18053472
10	0xbe25181f	-0.16122483
11	0xbe0ac7ea	-0.13552824
12	0xbf173b78	-0.5907512
13	0x3e22d4cd	0.1590149
14	0x3e6eb09f	0.23309563
15	0xbf2036d4	-0.6258366
16	0x3d3e010e	0.046387725
17	0xbe0bd142	-0.13654044
18	0x3edaeaf9	0.42757395
19	0x3c0bcd7a	0.008532876
20	0xbe07519c	-0.13214725
21	0xbeb16d4b	-0.34653696
22	0xbf43dd09	-0.7650915
23	0x3e15fa51	0.1464627
24	0xbe6c830a	-0.23096862
25	0xbf38296a	-0.7193819
26	0x3fe4387e	1.782974
27	0x3ecc18e2	0.39862734
28	0x3cc388fd	0.023869032
29	0xbebca744	-0.36846364
30	0xbf2d7398	-0.6775451
31	0xbd3a4c0a	-0.045482673
32	0xbeb90695	-0.36137834
33	0x3f273b89	0.6532522
34	0x3f3b3e96	0.73142374
35	0x3f1718bf	0.59022135
36	0x3f4038b4	0.7508652
37	0x3ea1b101	0.31580356
38	0xbe86057e	-0.26176065
39	0x3ede1b32	0.43380123
40	0xbf8b5a47	-1.0886925
41	0x4000a9dd	2.0103676
42	0xbfdff1fb	-1.7495722
43	0x3f45fcad	0.7733868
44	0xbf0e2144	-0.5551951
45	0x3ff134f6	1.8844287
46	0x3f545b0d	0.8295143
47	0xbf30f4a4	-0.6912329
48	0xbf358438	-0.70904875
49	0x3f218371	0.6309119
50	0xbf15563e	-0.5833472
51	0xbe6e05a6	-0.23244342
52	0xbfcee381	-1.6163179
53	0x3a92526d	0.0011163481
54	0xbfcd73e5	-1.6050993
55	0xbe4e301c	-0.2013554
56	0xbd6eacb9	-0.05827019
57	0xbcd5d51f	-0.0261026
58	0xbf933d4e	-1.1503084
59	0x3f65e9c0	0.898098
60	0x3f150774	0.582145
61	0xbfd11d80	-1.6337128
62	0x3fab68ef	1.3391398
63	0xbf9ecab2	-1.2405608
64	0xbe58a34e	-0.21156046
65	0xbfe8ad02	-1.8177798
66	0x3e7ffb80	0.24998283
67	0xbf6455a3	-0.8919317
68	0x3eeecfa9	0.46642807
69	0xbec14628	-0.37748837
70	0x3daa1b1e	0.083059534
71	0x3e0f8683	0.14016156
72	0xc0133321	-2.2999957
73	0xbe864510	-0.26224566
74	0x3e980a5e	0.2969541
75	0x3f8250eb	1.0180944
76	0xbf1ae34f	-0.60503095
77	0xbf9f4e09	-1.244569
78	0x3f343f45	0.7040904
79	0xbeaddd6d	-0.33957997
80	0x3fec2f81	1.8451997
81	0xbfc313e8	-1.524045
82	0x3fd85307	1.6900338
83	0x3fd2fd0c	1.6483474
84	0xbdbc345a	-0.09189673
85	0x3c9790dd	0.018501693
86	0x3e8c63c3	0.27419862
87	0x3cc7fa54	0.024411358
88	0x3fa1e8ff	1.264923
89	0x3f357757	0.70885223
90	0xbfe2db8a	-1.7723248
91	0x3edfef9f	0.43737504
92	0x3e639af1	0.22227074
93	0x3f4a7655	0.7908681
94	0xbfb5090e	-1.4143388
95	0xbe89095a	-0.26764947
96	0xbf29f291	-0.6638575
97	0x3eccbbc0	0.39986992
98	0xbf562d6d	-0.83663064
99	0x402a322b	2.659312
100	0x3e87cfa7	0.26525614
101	0x3f9fdb0e	1.2488725
102	0xbf3f5e9d	-0.74753743
103	0x3f6e67c6	0.93127096
104	0x3f14f436	0.58185136
105	0xbd6354f8	-0.055500954
106	0x3f1bca66	0.6085571
107	0x3eff42e6	0.49855727
108	0x3e8a8d0c	0.27060735
109	0xbf9b32a6	-1.2124832
110	0xbf43d8e6	-0.76502836
111	0xbdae47a5	-0.08509759
112	0xbe8f4719	-0.2798393
113	0xbc527b3d	-0.012846765
114	0x3dd59be1	0.10430122
115	0xbfc8b4aa	-1.5680134
116	0xbf771aa0	-0.96525
117	0x3eac8f49	0.33703068
118	0xbec4119d	-0.38294688
119	0xbeb785b8	-0.35844207
120	0xbf9971b4	-1.1987824
121	0x3f3a6507	0.72810405
122	0x3d3ec3f5	0.046573598
123	0x3f22bf3f	0.6357307
124	0xc0028e4a	-2.0399346
125	0x3eb4a92e	0.35285324
126	0x3f0133e6	0.50469816
127	0x3fa4d164	1.2876401
128	0x3ffcb773	1.9743484
129	0xbf34b4c1	-0.7058831
130	0xbf8f5346	-1.1197288
131	0xbf708bca	-0.939633
132	0x3ed3d6be	0.41374773
133	0xbfaa91cc	-1.3325744
134	0xbf27388a	-0.65320647
135	0xbf51a22c	-0.8188808
136	0xbe4bd3f7	-0.19905077
137	0xbf00bb3c	-0.50285697
138	0xbf8624b8	-1.0479956
139	0x405ab250	3.4171333
140	0x3f4c91d0	0.7990999
141	0x4007c94f	2.121662
142	0x400241a8	2.0352573
143	0xbf443661	-0.76645476
144	0x3f8e0d43	1.1097797
145	0x3f6f515b	0.93483514
146	0x3ef5d4c6	0.48013896
147	0xbf3fc064	-0.7490294
148	0xbc030474	-0.007996667
149	0xbe2b3128	-0.1671797
150	0x400e464f	2.2230413
151	0x3f1c9382	0.6116258
152	0x3f25f36e	0.6482457
153	0xbf1ed0f9	-0.62037617
154	0x3f2897f1	0.65856844
155	0x3ff652b4	1.9243989
156	0xbe88599c	-0.26630867
157	0xbe4dbfc9	-0.20092691
158	0xbf055691	-0.52085215
159	0x3f6fe15d	0.9370325
160	0xbe9a4895	-0.301335
161	0x3ead834b	0.3388923
162	0x3f754b3c	0.95817924
163	0x3f2fb9d8	0.6864295
164	0xc001dc64	-2.0290766
165	0xbf32e51d	-0.6988085
166	0xbf4eb739	-0.80748326
167	0xc0060785	-2.094209
168	0x3f8f94ae	1.1217248
169	0x3f790520	0.97273445
170	0xbfe54fa5	-1.791493
171	0x3d0ea627	0.034826424
172	0xbf3332e9	-0.6999956
173	0x3ef16ddb	0.47154126
174	0xbecd01d6	-0.40040463
175	0x3f3a62dd	0.72807103
176	0x3f4e05c9	0.8047758
177	0xbec8ae08	-0.39195275
178	0x3fd53a68	1.6658449
179	0x3fecd231	1.8501645
180	0xbfc9faac	-1.5779624
181	0x40215897	2.521032
182	0xbf0bce69	-0.5461183
183	0xbf7b4f7d	-0.98168164
184	0xbee03268	-0.43788457
185	0xbebcf8d7	-0.369086
186	0xbf804b61	-1.0023004
187	0xbfab592e	-1.338659
188	0x3f6d3786	0.9266285
189	0x3cd22acd	0.025655175
190	0x3f44bb9e	0.7684878
191	0xbfc25687	-1.5182656
192	0x3e60ada5	0.2194124
193	0xc02fc1cd	-2.7462037
194	0x3eb779a3	0.3583499
195	0xbfa4fbc0	-1.2889328
196	0x3ebcef71	0.3690143
197	0xbef9a2aa	-0.48756915
198	0x3fc56a25	1.5423018
199	0xbf0d84b5	-0.5528062
200	0x3fa06954	1.2532144
201	0x3f26b583	0.65120715
202	0xbfb07b12	-1.3787558
203	0x3eeea30c	0.4660877
204	0x3db872dd	0.090062834
205	0x3fed4f3e	1.8539808
206	0xbec2ade0	-0.3802328
207	0x3f8789a0	1.0588875
208	0x3ff76c50	1.9329929
209	0xc005cf29	-2.090769
210	0xbe1eb95e	-0.155004
211	0x3d953589	0.07285602
212	0xbff31fd9	-1.8994094
213	0xbf762f13	-0.9616558
214	0x40121750	2.282673
215	0x3f4ac351	0.7920428
216	0x3ea7a872	0.327457
217	0xbe894dab	-0.26817068
218	0x3fae0f6f	1.359846
219	0xbf30bd26	-0.6903862
220	0xbe5dacae	-0.21647903
221	0xbfccb046	-1.5991294
222	0x3fcb285b	1.587169
223	0x3f580d9f	0.84395784
224	0xbe479c93	-0.19493322
225	0xbca95aba	-0.020673145
226	0xbeaca981	-0.3372307
227	0x3ed7e8a5	0.4216968
228	0x3e09df9d	0.13464208
229	0x40277f67	2.617151
230	0x3ea50042	0.3222676
231	0xbed7ed8d	-0.42173424
232	0x3f34f909	0.706925
233	0xbfa441c8	-1.2832575
234	0x3f94a4cf	1.1612796
235	0x3f116ebc	0.5680959
236	0xbf1d6d5f	-0.6149501
237	0x3cc17eeb	0.02362009
238	0x3e4fa1ef	0.20276617
239	0x3f0e0193	0.5547115
240	0x3e3268b3	0.17422752
241	0x3f66f881	0.90222937
242	0xbe418ea4	-0.1890207
243	0x3f310e18	0.6916213
244	0xbe63082f	-0.2217109
245	0x3e8c90ac	0.27454126
246	0x3e9a1bf1	0.30099443
247	0x3eeeff67	0.46679232
248	0xbd5eee21	-0.054426316
249	0xbf0bc3d2	-0.54595673
250	0x3e32f7e8	0.17477381
251	0x3e97fcab	0.29684958
252	0xbfbbb87b	-1.4665674
253	0xbfd0caf2	-1.6311934
254	0xbff8d1a1	-1.9438974
255	0xbfb53390	-1.4156361

encoder_lstm.lstm.weight_ih_l0 f4 [192, 10]
0	0xbcb79d3b	-0.02241384
1	0x3d919bbb	0.07109781
2	0x3c98ef87	0.018668903
3	0x3d3dec03	0.046367656
4	0xbdd5a0e1	-0.10431076
5	0x3d8b388c	0.06797895
6	0x3d9ce264	0.07660368
7	0x3e100b54	0.14066821
8	0xbc3f5f0e	-0.011680378
9	0xbd809139	-0.06277699
10	0x3cae04b8	0.021242484
11	0xbd81b808	-0.06333929
12	0x3de19e04	0.11016467
13	0xbdc3cb29	-0.09560234
14	0x3db0d273	0.0863389
15	0xbdbec2ce	-0.093145
16	0x3d2231d0	0.039598286
17	0x3d3f4756	0.04669889
18	0xbd8fb3e2	-0.07016732
19	0x3dd43be6	0.10362987
20	0xbdb16ca3	-0.08663299
21	0xbdd7e436	-0.10541575
22	0xbdcf9862	-0.101364866
23	0xbdbca0ef	-0.09210383
24	0xbdd80992	-0.105487004
25	0x3e0093f4	0.1255644
26	0x3cc99acc	0.024609946
27	0xbe23639f	-0.15955971
28	0xbd3350b1	-0.043778125
29	0x3e0b151e	0.13582274
30	0x3d7d8bfa	0.06190107
31	0xbcf8e88f	-0.03038433
32	0xbe124c96	-0.14287028
33	0x3d95d9e7	0.07316952
34	0x3d857b95	0.06517712
35	0xbd717851	-0.058952633
36	0xbde301f8	-0.1108436
37	0xbcc7b2f3	-0.024377322
38	0xbe03dfb5	-0.12878306
39	0x3da4ddb5	0.080501
40	0x3d6d460c	0.05792813
41	0xbcd04457	-0.025423212
42	0x3da99944	0.08281186
43	0xbe1a976a	-0.15096822
44	0xbcc1c724	-0.023654528
45	0xbc92c4c1	-0.017916085
46	0x3d0f53f2	0.034992166
47	0xbd113755	-0.03545316
48	0x3d93ae3b	0.07210966
49	0x3d379af7	0.04482552
50	0x3beb4aef	0.0071805636
51	0x3d0e62a7	0.03476205
52	0x3ddd3c43	0.1080251
53	0x3d941b7d	0.072318055
54	0x3d9249f9	0.071430154
55	0xbd3028c6	-0.043007635
56	0x3d16e1a2	0.036836274
57	0xbce764c3	-0.02824629
58	0x3babf9b3	0.0052482723
59	0xbd0efa0c	-0.034906432
60	0xbdd59fd3	-0.10430875
61	0x3de66cad	0.11251197
62	0xbde21bb2	-0.11040439
63	0x3d33608c	0.043793246
64	0xbd2afdd2	-0.04174597
65	0xbde16454	-0.11005464
66	0xbd249b9e	-0.04018747
67	0xbd63e97c	-0.05564259
68	0x3b44bd21	0.0030019956
69	0x3c62e4e7	0.01384852
70	0x3d288819	0.041145418
71	0xbcc4ebcb	-0.024038216
72	0x3def9348	0.116980135
73	0x3d425e9a	0.0474535
74	0x3dfc8ddc	0.12331745
75	0xbd15cc6b	-0.0365719
76	0x3d3405a4	0.04395069
77	0xbdbf6fb8	-0.093474805
78	0x3e13204b	0.14367788
79	0x3e1d383a	0.1535348
80	0xbdec1f2b	-0.11529382
81	0xbd4450f6	-0.047928773
82	0x3cb8a513	0.022539651
83	0x3ce2caee	0.027684655
84	0xbe1838fc	-0.14865488
85	0xbe1617d6	-0.1465753
86	0xbd8ccecc	-0.06875381
87	0xbd4bf597	-0.04979476
88	0x3bca7e67	0.006179619
89	0x3da3628f	0.07977783
90	0xbd266837	-0.04062673
91	0x3dcb20b1	0.09918345
92	0xbd3f3393	-0.046680044
93	0xbdbdbe44	-0.09264806
94	0x3dc39dd8	0.09551591
95	0x3e0cfbed	0.13767977
96	0x3d3af79b	0.04564629
97	0xbe0443b0	-0.12916446
98	0x3cc66b60	0.024221122
99	0x3da83d03	0.08214762
100	0x3dc01140	0.0937829
101	0xbd078228	-0.03308311
102	0xbd426a03	-0.047464382
103	0xbda3d88d	-0.08000288
104	0x3dd5bc40	0.104362965
105	0xbca70505	-0.020388136
106	0xbce2d639	-0.02769004
107	0x3d1cf88b	0.038322967
108	0x3d0cfe19	0.034422014
109	0x3cbd7f83	0.023132091
110	0xbd224c04	-0.039623275
111	0x3d3f1d96	0.046659075
112	0xbdb4d0b5	-0.0882887
113	0xbd927136	-0.071504995
114	0x3e0ec639	0.13942803
115	0x3e0ce331	0.13758542
116	0xbd2efcbd	-0.0427215
117	0x3d88f994	0.06688228
118	0x3ce35cbc	0.02775418
119	0x3e0b513c	0.13605207
120	0xbd88084c	-0.066422075
121	0x3d687326	0.05675044
122	0xbcaeb24b	-0.021325251
123	0xbdcdeff7	-0.10055535
124	0xbdbbf1a5	-0.091769494
125	0xbdc3aa29	-0.0955394
126	0xbd13b099	-0.03605709
127	0x3b5c05d2	0.0033572805
128	0x3bd24dac	0.0064179506
129	0xbd3ab684	-0.045584217
130	0x3e038205	0.12842567
131	0x3df24135	0.118288435
132	0x3cadce45	0.021216521
133	0xbcc3e16c	-0.0239112
134	0x3c813c3f	0.015775798
135	0xbc4ed43e	-0.012623845
136	0xbd656f96	-0.05601462
137	0xbacc884c	-0.0015604584
138	0xbd6053de	-0.054767482
139	0x3de20393	0.11035838
140	0xbcacafa8	-0.021079853
141	0xbd8a2e74	-0.067471415
142	0xbce16c77	-0.02751754
143	0xbdcbfd6e	-0.09960447
144	0xbdc0fa66	-0.0942276
145	0xbde1fc8e	-0.11034499
146	0xbd9dee7d	-0.07711504
147	0x3db0f485	0.086403884
148	0xbd47dee0	-0.048796535
149	0xbd9be611	-0.07612241
150	0x3d9b298f	0.07576286
151	0xbd765c3b	-0.06014655
152	0xbd98a04d	-0.0745245
153	0xbda6bff1	-0.08142079
154	0x3e07a708	0.13247311
155	0xbdaff12b	-0.08590921
156	0xbdf1e7bc	-0.11811778
157	0x3e0a26b4	0.13491327
158	0xbdf03b82	-0.117301
159	0xbc2c46b2	-0.010514902
160	0xbda97b6f	-0.08275496
161	0x3d4317dd	0.04763018
162	0xbdbff296	-0.093724415
163	0x3d1e6bec	0.03867714
164	0x3d3645d3	0.044500183
165	0x3de602d3	0.112310074
166	0x3c16c403	0.009202006
167	0x3de0244c	0.10944423
168	0xbd97e87e	-0.07417391
169	0x3dc9a614	0.0984613
170	0x3d801eaa	0.06255849
171	0x3c90ca76	0.017674666
172	0x3db9d020	0.090729
173	0x3ce11c2e	0.027479257
174	0xbd8917d8	-0.06694001
175	0x3a8af35e	0.0010601094
176	0xbd8551d3	-0.06509747
177	0xbdf5279b	-0.11970445
178	0xbddb1761	-0.106978185
179	0xbc8caf2b	-0.01717337
180	0x3e17abc8	0.14811623
181	0x3d2d613f	0.04232907
182	0x3e125e6c	0.14293832
183	0x3d73474d	0.05939417
184	0x3e0e9acd	0.1392624
185	0x392e6ac6	0.0001663371
186	0x3ccbf582	0.02489734
187	0xbde31450	-0.11087859
188	0x3b2bbdd4	0.0026205676
189	0x3d443489	0.047901664
190	0xbd4de700	-0.050269127
191	0x3dd20a6b	0.10255893
192	0x3dd29011	0.10281385
193	0xbb9a52bc	-0.0047095697
194	0xbd81e17f	-0.06341838
195	0x3d7380a2	0.059448846
196	0x3dc52e2a	0.09627946
197	0x3db0c789	0.08631808
198	0x3d61fe18	0.055173963
199	0x3d5f00a4	0.05444397
200	0xbdc3c40e	-0.09558879
201	0x3d91532c	0.07095942
202	0x3e0e86ad	0.13918562
203	0xbda8d2e5	-0.0824335
204	0x3d757dc0	0.059934378
205	0x3d67affa	0.05656431
206	0xbdfea6fd	-0.12434194
207	0x3dcdffc7	0.10058551
208	0xbe08798d	-0.13327618
209	0xbd5b5674	-0.053549245
210	0xbdb95fb0	-0.09051454
211	0x3d526d52	0.051373787
212	0xbc117e58	-0.00888022
213	0xbdd28205	-0.102787055
214	0xbddc9069	-0.107697316
215	0x3dedd6ad	0.11613212
216	0xbdffed97	-0.124964885
217	0x3c75e2f3	0.015007722
218	0x3cff2579	0.031145798
219	0x3c83bb78	0.016080603
220	0x3d90020e	0.07031642
221	0xbdaa2d24	-0.08309391
222	0xbc92a9fa	-0.017903317
223	0xbd398c8d	-0.045300055
224	0xbdd2fc5d	-0.10302041
225	0xbd3b6a75	-0.045755822
226	0x3d6e8d89	0.058240447
227	0xbd194b07	-0.037425067
228	0xbe077763	-0.13229136
229	0xbdb47d66	-0.0881298
230	0x3cc5afd1	0.024131687
231	0x3c885b34	0.016645052
232	0x3afb48ee	0.0019171515
233	0xbe055a85	-0.13022812
234	0xbcb73f0a	-0.022368927
235	0xbc74d2ac	-0.014942806
236	0xbe064af2	-0.13114527
237	0x3db7b06e	0.08969198
238	0x3d7fcf90	0.062453806
239	0x3cc45f34	0.023971178
240	0xbc739d99	-0.014869117
241	0xbdcf7808	-0.10130316
242	0x3e05c178	0.13062084
243	0x3d56d064	0.05244483
244	0xbdb762f2	-0.08954419
245	0x3dbdcf42	0.09268047
246	0xbcf8c999	-0.030369567
247	0x3d9b7850	0.07591307
248	0x3d2cf3c4	0.04222466
249	0x3d988624	0.0744746
250	0x3ddfdcb9	0.109307714
251	0xbd98409a	-0.07434197
252	0x3dadec19	0.08492298
253	0x3cbf7aba	0.02337395
254	0x3d8c3876	0.068467066
255	0x3ccbd933	0.024883842

encoder_lstm.lstm.weight_hh_l0 f4 [192, 48]
0	0x3ccf1d77	0.025282605
1	0x3e0abbbc	0.13548177
2	0x3d3045af	0.043035205
3	0xbd9a1510	-0.075235486
4	0x3e0ddb6d	0.13853236
5	0xbe09a2fc	-0.1344108
6	0x3dfb661d	0.12275336
7	0x3d36fe46	0.044676088
8	0xbdaaad87	-0.08333879
9	0xbe006e09	-0.12541975
10	0x3dab63d4	0.0836865
11	0x3bc8785c	0.0061178636
12	0x3dbfd7a1	0.093673
13	0x3c9b11fb	0.018929472
14	0xbca48ed6	-0.02008764
15	0x3da51161	0.080599554
16	0x3d00ddba	0.031461455
17	0x3d2c2395	0.04202612
18	0x3afeef31	0.0019449947
19	0xbdb3d9eb	-0.08781799
20	0xbde97a64	-0.11400297
21	0xbd034233	-0.032045554
22	0x3dab4f50	0.08364737
23	0xbde868f9	-0.11348147
24	0x3e023fbe	0.12719628
25	0x3dda5415	0.106605686
26	0x3d373642	0.04472948
27	0x3dc4fefb	0.09618946
28	0x3d4971c8	0.049180776
29	0x3cd300ed	0.025757277
30	0x3da7c1e8	0.081912816
31	0x3d9877ad	0.07444701
32	0x3e1470f9	0.1449622
33	0x3de334b9	0.110940404
34	0xbda2966d	-0.07938848
35	0x3d40fe50	0.04711753
36	0xbcadc59b	-0.02121239
37	0xbb47ecc1	-0.0030506107
38	0xbda3f205	-0.08005146
39	0x3dae0d63	0.08498647
40	0xbdc723a0	-0.09723592
41	0xbe035b98	-0.12827909
42	0xbdd9b4cc	-0.106301874
43	0xbd06c8b6	-0.032906257
44	0xbd17fb46	-0.037104867
45	0xbd869aa3	-0.06572463
46	0xbd44f63d	-0.048086394
47	0xbd0231cb	-0.031785768
48	0x3cfe6158	0.031052276
49	0x3d92bbf5	0.07164756
50	0xbe121024	-0.1426397
51	0x3d85dd6e	0.06536375
52	0xbd878520	-0.066171885
53	0xbcac38e9	-0.02102323
54	0x3e00b1d4	0.12567836
55	0xbcf99013	-0.030464208
56	0x3dafdb9f	0.08586811
57	0xbd3e6f7c	-0.04649304
58	0xbd8d7daa	-0.06908734
59	0xbe2191b4	-0.15778238
60	0xbda81241	-0.08206607
61	0x3d54451d	0.051823724
62	0x3de1a503	0.110178016
63	0x3dbfd8b8	0.09367508
64	0xbe1c85ca	-0.15285411
65	0xbc8522e0	-0.016251981
66	0x3d5308f5	0.051522214
67	0x3debb4e8	0.115091145
68	0xbcb1f32b	-0.021722397
69	0xbd97484d	-0.07386837
70	0xbde4e5c4	-0.11176637
71	0x3a16eddc	0.00057574897
72	0x3da93b7d	0.082632996
73	0x3de9217c	0.1138334
74	0xbe05e588	-0.1307584
75	0xbd816d06	-0.06319623
76	0xbdf13abf	-0.11778783
77	0x3d6e0cca	0.058117665
78	0xbda019f5	-0.07817451
79	0xbd63bfd1	-0.055602852
80	0xbc3deed1	-0.011592583
81	0x3d458966	0.048226736
82	0x3d4ac0b5	0.049500186
83	0x3d17b69a	0.037039377
84	0x3be86f28	0.007093329
85	0x3d296ab0	0.04136151
86	0x3dd96173	0.1061429
87	0xbc71423c	-0.014725264
88	0xbe02e316	-0.12781939
89	0xbda27f1b	-0.079344
90	0xbd00fbb8	-0.031490058
91	0x3dcc07a2	0.09962393
92	0xbc102020	-0.008796722
93	0x3d4bce10	0.049757063
94	0x3dce4944	0.10072568
95	0x3e18ecc5	0.1493407
96	0x3bf78bbc	0.0075544994
97	0x3df17070	0.11789024
98	0xbdb56249	-0.08856637
99	0xbd5b8244	-0.053591028
100	0x3d9ee669	0.07758791
101	0xbde5e96d	-0.11226163
102	0xbd81fb56	-0.06346767
103	0x3e093712	0.13399914
104	0xbb08833c	-0.0020830175
105	0x3d506823	0.050880563
106	0xbe0da539	-0.13832559
107	0x3de7b7fe	0.113143906
108	0x3cd59fc9	0.026077168
109	0x3c81903e	0.01581585
110	0xbd20f00f	-0.039291438
111	0xbddc908d	-0.107697584
112	0xbc7798e4	-0.015112136
113	0xbd300d89	-0.042981658
114	0x3da68a25	0.08131818
115	0xbda65eb7	-0.08123534
116	0xbdf077f8	-0.11741632
117	0xbce35401	-0.027750017
118	0x3e03355a	0.12813321
119	0xbe0f520e	-0.13996145
120	0xbe1f3a26	-0.15549526
121	0x3d42b036	0.04753133
122	0x3d9aa605	0.07551197
123	0x3afab863	0.0019128438
124	0xbdd0ebba	-0.10201211
125	0xbd390f1b	-0.04518042
126	0x3d9ad385	0.075598754
127	0x3daa15d3	0.08304944
128	0xbd8d8d2c	-0.06911692
129	0xbdd56b15	-0.10420815
130	0x3db59aee	0.08867441
131	0x3e1eb5ec	0.15499085
132	0xbdd4f1bf	-0.10397672
133	0x3c19ab42	0.00937921
134	0xbda8ae4a	-0.08236368
135	0x3cdf00eb	0.027222117
136	0x3e059efc	0.13048929
137	0xbe09ee23	-0.13469748
138	0xbddee859	-0.108841605
139	0xbe126d33	-0.14299469
140	0xbdec2fb1	-0.11532534
141	0x3cc26f1f	0.023734627
142	0x3e096967	0.13419114
143	0x3c95a22c	0.018265806
144	0xbd51eb5c	-0.051249847
145	0x3cf42f1a	0.029807616
146	0xbdf53b69	-0.11974222
147	0x3d667677	0.05626532
148	0x3ab1fb66	0.0013578951
149	0x3db3d28b	0.08780392
150	0x3dd95ff7	0.10614007
151	0xbc995b8c	-0.01872041
152	0x3d5bdf18	0.053679556
153	0xbd9ec826	-0.07753019
154	0x3d4b538e	0.04964023
155	0xbe012452	-0.12611511
156	0xbdf99658	-0.12186879
157	0x3dc507aa	0.096206024
158	0xbdf38adb	-0.11891719
159	0xbda76cc5	-0.08175043
160	0xbcafb54c	-0.021448754
161	0xbc93c01d	-0.018035943
162	0x3d88e6ef	0.06684672
163	0xbd40653f	-0.046971556
164	0x3db7a61a	0.08967228
165	0x3e107c51	0.14109923
166	0x3dbc8010	0.092041135
167	0x3d95a6c4	0.07307199
168	0xbd9e1760	-0.07719302
169	0xbd212c7b	-0.03934906
170	0x3c8d4565	0.017245004
171	0x3cb6235e	0.022233661
172	0x3c55f3a2	0.013058575
173	0xbe105ad2	-0.14097145
174	0x3d13c47f	0.036076065
175	0x3c94ab1e	0.018148001
176	0xbdc9ad66	-0.09847526
177	0x3deb0015	0.11474625
178	0x3d9130a8	0.070893586
179	0x3da68727	0.08131247
180	0xbdc1176d	-0.09428296
181	0xbe145f2a	-0.14489427
182	0xbc1de2b1	-0.009636567
183	0xbd2a6ac5	-0.04160573
184	0xbde1a88f	-0.11018478
185	0xbd82beed	-0.063840725
186	0xbd0340e6	-0.032044314
187	0x3da025dc	0.07819721
188	0xbde7a4ed	-0.11310754
189	0x3db585e3	0.088634275
190	0xbd84038c	-0.06445989
191	0xbdd8fcf2	-0.105951205
192	0xbd16a61f	-0.03677952
193	0x3df34b04	0.118795425
194	0x3e07716a	0.13226858
195	0x3db649ef	0.089008205
196	0xbafd3df4	-0.0019320832
197	0xbdac2db0	-0.08407152
198	0x3d903044	0.07040456
199	0xbe057c8e	-0.13035795
200	0x3d9e429a	0.07727547
201	0xbd437015	-0.04771431
202	0x3d910d06	0.07082562
203	0x3d4f7576	0.05064913
204	0x3de30c5a	0.1108634
205	0xbc9f68c1	-0.01945913
206	0x3dd4038a	0.103522375
207	0x3c15da78	0.009146325
208	0xbe112868	-0.1417557
209	0xbdef30f0	-0.11679256
210	0x3ddc6ffc	0.10763547
211	0xbd9589b7	-0.07301658
212	0xbd0154b2	-0.031574912
213	0x3da25153	0.079256676
214	0x3da7e732	0.08198394
215	0x3db797a4	0.0896447
216	0x3d5e11ac	0.054216072
217	0xbda56d8e	-0.080775365
218	0xbcba9703	-0.022777086
219	0xbd978f9c	-0.07400438
220	0xbd8d29ef	-0.06892764
221	0x3c64d38e	0.013966454
222	0xbc04074e	-0.008058382
223	0x3d2cc23b	0.04217742
224	0x3de30e80	0.1108675
225	0xbd8ec359	-0.06970853
226	0xbdb104ed	-0.08643518
227	0xbba4f271	-0.005033784
228	0xbd623631	-0.055227462
229	0x3c3319d9	0.0109314555
230	0xbd8661fd	-0.065616585
231	0xbde0c8f9	-0.109758325
232	0x3e110418	0.14161718
233	0x3ca930c1	0.02065313
234	0x3d70427e	0.058657162
235	0x3da41882	0.08012487
236	0xbcb59471	-0.022165509
237	0xbe08ec57	-0.13371406
238	0xbdde6eca	-0.10860975
239	0xbc895402	-0.01676369
240	0x3cbebe6a	0.023284156
241	0x3dbe2328	0.09284049
242	0x3e022e56	0.12712988
243	0x3ccdc6fa	0.025119293
244	0xbe0b3ca8	-0.13597357
245	0x3d4fa575	0.0506949
246	0xbdfff4ca	-0.12497862
247	0x3d435ca1	0.04769576
248	0xbc82e398	-0.015977666
249	0xbd02b894	-0.03191431
250	0x3d8ceb0e	0.068807706
251	0x3cca0928	0.02466257
252	0x3d8dada8	0.06917888
253	0xbd9d50d1	-0.0768143
254	0x3d47f8b6	0.048821174
255	0x3cb4a7d8	0.02205269

encoder_lstm.lstm.bias_ih_l0 f4 [192]
0	0x3e06fec5	0.13183124
1	0x3cd6d55b	0.026224783
2	0x3df9366e	0.12168585
3	0xbdcfa0b7	-0.10138076
4	0xbe047564	-0.12935406
5	0x3c270bbb	0.010195668
6	0xbd0edfcc	-0.034881398
7	0xbd9104f8	-0.07081026
8	0x3dfc229b	0.12311288
9	0xbc9994cf	-0.018747715
10	0xbadff3f8	-0.0017086258
11	0xbca81a1c	-0.020520262
12	0xbdca5199	-0.09878845
13	0x3dacbf52	0.08434929
14	0xbdd33aa8	-0.10313922
15	0x3d787e55	0.060667355
16	0xbd89e12e	-0.06732403
17	0xbe05981d	-0.13046308
18	0xbda2433f	-0.079229824
19	0xbcb64956	-0.022251766
20	0x3d9476e3	0.07249238
21	0x3e0340f6	0.1281775
22	0x3c5e686c	0.013574701
23	0xbd29e40f	-0.04147726
24	0xbd4e8bef	-0.05042642
25	0x3dd37fdc	0.103271216
26	0x3b891660	0.0041835755
27	0xbda8e7f4	-0.082473665
28	0x3d8331d1	0.06405986
29	0x3d4a36d0	0.04936868
30	0x3caf61ab	0.021408876
31	0xbe021519	-0.1270336
32	0xbdd2a6b8	-0.10285705
33	0x3daee244	0.085392505
34	0xbdc94111	-0.098268636
35	0x3db2ee39	0.087368436
36	0x3d83b8a6	0.06431703
37	0x3df53806	0.11973576
38	0xbe042e70	-0.1290834
39	0x3dcb090a	0.099138334
40	0x3e081083	0.13287549
41	0xbdd5e8c6	-0.10444789
42	0xbdbd22de	-0.09235166
43	0x3d829fc8	0.06378132
44	0xbd0cc049	-0.034363065
45	0x3d338614	0.04382904
46	0x3dcd8bdc	0.10036442
47	0xbd381c9a	-0.04494915
48	0x3d21007f	0.039307114
49	0xbd318abf	-0.04334521
50	0xbde5607b	-0.11200043
51	0xbb3edb28	-0.0029122327
52	0xbdec7b92	-0.11547007
53	0x3c6bb6c6	0.014386838
54	0x3dc76516	0.097360775
55	0x3db7a4f2	0.08967008
56	0x3d0eb33e	0.034838907
57	0xbdcae4e8	-0.09906942
58	0x3e093007	0.13397227
59	0xbdf27fbe	-0.11840771
60	0x3e04175a	0.12899533
61	0x3df7ffcb	0.121093355
62	0x3df018b1	0.117234595
63	0x3cbef67f	0.023310898
64	0x3db4da94	0.08830753
65	0x3c4f7fe6	0.012664771
66	0x3d58ffbe	0.05297827
67	0x3cf53367	0.029931737
68	0xbd36f0d7	-0.044663277
69	0x3cd31665	0.025767514
70	0xbdb746ff	-0.08949088
71	0xbd85a2bb	-0.06525179
72	0x3da678f1	0.081285365
73	0x3d65f4ec	0.05614178
74	0x3d98c5af	0.0745958
75	0x3c8f85e0	0.017519891
76	0x3d39970d	0.04531007
77	0xbd80b652	-0.06284775
78	0xbd9cdcf7	-0.07659333
79	0x3d899474	0.06717768
80	0x3c93f017	0.01805882
81	0x3c804c57	0.015661402
82	0xbd35935f	-0.044329997
83	0xbd93a22b	-0.072086655
84	0xbd5b923b	-0.053606253
85	0x3e05b5c3	0.13057618
86	0x3e0af6da	0.13570729
87	0xbdae6efe	-0.08517264
88	0xbd5c6ca1	-0.053814534
89	0x3df552f0	0.1197871
90	0xbdbc9e2f	-0.092098586
91	0xbcd21613	-0.025645291
92	0xbdb4a2bb	-0.08820101
93	0xbd7b36ce	-0.061331563
94	0xbcb32490	-0.02186802
95	0xbca961ef	-0.020676581
96	0xbde47410	-0.1115495
97	0x3d7a6db3	0.061139774
98	0xbcd13243	-0.025536662
99	0xbcaf74a9	-0.021417933
100	0xbc0bdead	-0.008536977
101	0xbdd9557f	-0.1061201
102	0xbd938f76	-0.072050974
103	0x3e189352	0.14899948
104	0x3d94d998	0.07268065
105	0xbe1e73ab	-0.15473811
106	0x3d98f054	0.07467714
107	0xbd3a3f15	-0.045470316
108	0x3d8bf13e	0.06833123
109	0xbd13245d	-0.03592335
110	0xbddb1b54	-0.10698572
111	0x3d8deed0	0.069303155
112	0x3de669e8	0.11250669
113	0x3d0a92b3	0.03383131
114	0xbdecc460	-0.11560893
115	0xbd541c5d	-0.05178486
116	0xbe082c88	-0.13298237
117	0xbe102a8a	-0.14078727
118	0xbcb0b0f0	-0.021568745
119	0x3de9d438	0.11417431
120	0xbe030fd0	-0.12799
121	0x3dccc57e	0.09998606
122	0xbd9f52bc	-0.07779452
123	0xbdf269df	-0.118365996
124	0xbddd27b4	-0.107985884
125	0x3d7c3d31	0.061581794
126	0x3e09aa79	0.13443936
127	0xbdac24d4	-0.08405462
128	0x3cc6904f	0.024238734
129	0x3ab50937	0.001381195
130	0x3e122abc	0.14274114
131	0x3df37de9	0.1188925
132	0xbd74c518	-0.059758276
133	0xbde06fe1	-0.10958839
134	0x3d5dbefa	0.054137208
135	0x3ddd687c	0.108109444
136	0x3d9e8f28	0.07742149
137	0x3e0c3a12	0.13694027
138	0xbd9bcbeb	-0.07607254
139	0x3db949de	0.09047292
140	0xbd19b8b0	-0.037529647
141	0xbd9813d2	-0.074256554
142	0xbd2eff3a	-0.04272387
143	0xbd574f7d	-0.05256604
144	0xbe0b05de	-0.13576457
145	0x3c4a9346	0.012364214
146	0xbb241aad	-0.0025040314
147	0x3d767a3e	0.060175173
148	0xbe05c080	-0.13061714
149	0xbd597e3b	-0.0530989
150	0x3df08749	0.117445536
151	0x3dbd24f0	0.09235561
152	0xbda546e5	-0.08070163
153	0xbcac95df	-0.021067558
154	0x3ddb052a	0.10694344
155	0xbdb44f2a	-0.08804162
156	0xbd3d5eb8	-0.04623291
157	0x3dbe012a	0.09277566
158	0xbdd80e5b	-0.10549613
159	0x3d888c5f	0.06667399
160	0x3e0a5e71	0.13512589
161	0x3ddf9ceb	0.109186016
162	0x3c92893d	0.017887706
163	0xbc148bff	-0.009066581
164	0xbda77526	-0.08176641
165	0xbc30d0b7	-0.010791949
166	0xbe037563	-0.12837748
167	0x3d4bea40	0.049783945
168	0x3c093456	0.008374294
169	0x3dae076e	0.08497511
170	0xbda9ac89	-0.082848616
171	0xbd0b0c6c	-0.033947393
172	0x3dc6c6d7	0.097058944
173	0x3d1f744e	0.038929276
174	0xbdb074e5	-0.08616046
175	0x3df44a7e	0.11928271
176	0x3ddb59b6	0.107104704
177	0xbd997d2c	-0.07494578
178	0x3bba86a6	0.005692321
179	0x3c088386	0.008332139
180	0xbd958957	-0.07301586
181	0xbe06c2ae	-0.13160202
182	0xbb807920	-0.003920689
183	0xbd4ee55d	-0.050511707
184	0xbde82337	-0.11334842
185	0xbc9377ec	-0.01800152
186	0x3d23f1a8	0.040025383
187	0x3df78b02	0.120870605
188	0x3cd029a4	0.02541048
189	0xbd8be40c	-0.06830606
190	0x3cba0ae8	0.022710279
191	0xbd0b0b10	-0.033946097

encoder_lstm.lstm.bias_hh_l0 f4 [192]
0	0xbdb85abd	-0.09001682
1	0xbe0c9f71	-0.13732697
2	0x3d21be09	0.039487872
3	0xbdff955b	-0.12479659
4	0x3e05b5be	0.1305761
5	0x3c1e9b97	0.00968065
6	0xbb57f1ef	-0.00329506
7	0x3e1f1647	0.15535842
8	0xbda60c47	-0.081078105
9	0xbd08e827	-0.033424523
10	0xbd706289	-0.05868772
11	0x3c5bacdf	0.013407915
12	0xbd06a7c2	-0.03287483
13	0xbdbe04ac	-0.09278235
14	0x3dc5a1fa	0.09650035
15	0xbdb9a8a6	-0.0906537
16	0x3d959490	0.07303727
17	0x3dc7132b	0.09720453
18	0x3d316df6	0.043317758
19	0xbdc87a5e	-0.09788965
20	0x3d1146b8	0.035467833
21	0xbd1dc697	-0.03851947
22	0xbd8d7dc8	-0.069087565
23	0x3dcd24ed	0.10016809
24	0x3c1220b5	0.008918931
25	0xbd92db56	-0.07170741
26	0x3d08c547	0.033391263
27	0xbdb74b22	-0.08949877
28	0x3d7b1982	0.061303623
29	0xbcb34bb1	-0.021886678
30	0xbd67064d	-0.056402493
31	0xbd94cf5a	-0.07266112
32	0x3d87d1e6	0.06631832
33	0xbd5b6123	-0.053559434
34	0x3c1bfff5	0.009521474
35	0x3e04f08b	0.12982385
36	0xbd6cf888	-0.057854205
37	0x3d6b4437	0.0574381
38	0x3d348fda	0.0440825
39	0xbc0553bd	-0.008137641
40	0xbc8f1dca	-0.01747026
41	0xbe034f65	-0.12823255
42	0xbd831068	-0.063996136
43	0x3bf75f84	0.007549228
44	0x3d640107	0.055665042
45	0xbd0b78cb	-0.034050744
46	0xbde74ea7	-0.112942986
47	0xbdd07a25	-0.10179547
48	0xbd6aad18	-0.05729398
49	0xbabf2f3a	-0.0014586218
50	0xbdc06e68	-0.09396058
51	0x3d01f031	0.031723205
52	0x3d133300	0.03593731
53	0xbd80ca74	-0.06288615
54	0x3dead8d8	0.11467141
55	0x3e0740ca	0.13208309
56	0x3e0c23e7	0.1368557
57	0x3d396b5b	0.045268398
58	0x3de8b136	0.11361925
59	0xbdbc13be	-0.09183453
60	0xbdba6434	-0.091011435
61	0xbdbe3c98	-0.09288901
62	0xbd12f684	-0.035879627
63	0x3dac99a9	0.08427746
64	0x3bd5d510	0.006525643
65	0x3de4de91	0.11175264
66	0x3d07a0a8	0.033112198
67	0xbe0ab2b1	-0.13544728
68	0x3da2354d	0.079203226
69	0x3da4f8a4	0.08055237
70	0xbd4ce9a9	-0.050027523
71	0xbb5e45e2	-0.0033916165
72	0xbd5eb9f5	-0.05437656
73	0x3e166979	0.14688672
74	0xbd723bef	-0.05913919
75	0x3dcef37b	0.10105034
76	0x3d88f1a0	0.06686711
77	0x3ddb16be	0.10697697
78	0x3e1e5210	0.15460992
79	0x3cb6eccd	0.022329712
80	0x3dfc7b4d	0.12328205
81	0xbd511198	-0.05104217
82	0xbddae24d	-0.10687695
83	0xbdaf27ca	-0.08552511
84	0xbe0b5c14	-0.13609344
85	0xbba5f49c	-0.00506456
86	0xbda883c2	-0.08228256
87	0xbdf3177e	-0.11869715
88	0x3e07ca48	0.13260758
89	0xbcd8376d	-0.026393617
90	0x3c5567ed	0.013025266
91	0x3d07b079	0.03312728
92	0x3de55838	0.11198467
93	0xbcead1fc	-0.028664581
94	0x3e05e0c7	0.13074027
95	0x3df13076	0.11776821
96	0x3e0eccc5	0.13945301
97	0xbd7442b6	-0.059633933
98	0xbda8f232	-0.0824932
99	0x3c067cd2	0.00820847
100	0x3dc573a5	0.09641198
101	0xbd14d3b9	-0.036334727
102	0x3c82d758	0.015971825
103	0x3e0c1364	0.13679272
104	0xbe0187fd	-0.12649532
105	0x3cefb19f	0.029259501
106	0xbdb14ea4	-0.08657578
107	0x3d15a2e5	0.0365323
108	0xbc6b7fc3	-0.0143737225
109	0xbd3cc10a	-0.046082534
110	0xbd76b9c0	-0.06023574
111	0x3cda4254	0.026642956
112	0x3d863289	0.065526076
113	0x3d99521d	0.07486365
114	0x3d7b1d3f	0.061307188
115	0xbd79616d	-0.060883928
116	0xbe1bb1b1	-0.15204503
117	0xbdfe0577	-0.12403386
118	0x3e02b480	0.12764168
119	0x3d9c47ef	0.07630908
120	0xbd6f2a12	-0.05838973
121	0xbccb873b	-0.024844756
122	0xbc6b7a44	-0.014372412
123	0x3d9b90b8	0.07595962
124	0x3c59dd60	0.013297409
125	0x3df61458	0.12015599
126	0x3e095797	0.13412319
127	0x3cbc2b77	0.022969944
128	0x3de4c19b	0.1116974
129	0x3e1271d2	0.14301232
130	0xbdd94419	-0.10608692
131	0xbda602ce	-0.08106004
132	0xbdf82e69	-0.12118227
133	0x3db09392	0.08621897
134	0x3df47d56	0.119379684
135	0x3db3b9bb	0.0877566
136	0x3e0fb26a	0.14032903
137	0x3ded1a5a	0.11577292
138	0x3dcd2415	0.10016648
139	0x3dc4c8a4	0.09608582
140	0xbd71f642	-0.05907274
141	0x3d1b166f	0.03786319
142	0xbe265e5e	-0.16246936
143	0x3d085918	0.03328809
144	0x3d4f08c2	0.05054546
145	0xbd11e831	-0.035621826
146	0xbd9742dd	-0.073858
147	0xbe0b6f4a	-0.13616672
148	0xbd8e8400	-0.06958771
149	0x3d86084a	0.0654455
150	0xbdfd6781	-0.123732574
151	0xbd9084e5	-0.070565976
152	0xbdba04af	-0.090829246
153	0xbdf1de2b	-0.11809953
154	0xbde53240	-0.11191225
155	0x3cbdb514	0.023157634
156	0xbd11ec8a	-0.03562597
157	0xbd902143	-0.07037594
158	0x3df46d45	0.11934904
159	0xbdd6f7e6	-0.104965016
160	0x3b782e41	0.0037869366
161	0x3dcc9a41	0.09990359
162	0xbd7afc01	-0.061275486
163	0xbd1cc3d5	-0.038272697
164	0xbdb6e8cf	-0.089311235
165	0xbde9a3f3	-0.11408224
166	0xbdaeeadf	-0.08540892
167	0x3dbde61e	0.09272407
168	0xbd06a130	-0.032868564
169	0x3ca1ff33	0.019775009
170	0x3de9e185	0.114199676
171	0xbd823fe5	-0.06359843
172	0xbd544f37	-0.051833358
173	0x3e05a59d	0.13051458
174	0x3dfbdd45	0.12298063
175	0x3d9d7f5d	0.07690308
176	0x3d2e6839	0.042579863
177	0xbd9d66e6	-0.07685642
178	0x3d925f4a	0.07147081
179	0x3bd5ebf9	0.0065283743
180	0xbdc39aab	-0.09550985
181	0x3d3724b5	0.04471274
182	0xbbef05e4	-0.0072944034
183	0x3d870a77	0.06593793
184	0xbdc1baff	-0.09459495
185	0xbd4d164a	-0.050070085
186	0x3d7db1df	0.06193721
187	0xbd9928a0	-0.07478452
188	0xbe19c64b	-0.15017049
189	0x3d5b5396	0.05354651
190	0xbd42d99a	-0.047570802
191	0x3d9be710	0.07612431

decoder_lstm.lstm.weight_ih_l0 f4 [192, 10]
0	0x3dc72071	0.097229846
1	0x3d8bf2ae	0.06833397
2	0xbdff9433	-0.12479439
3	0xbd650355	-0.05591138
4	0xbceebdbd	-0.029143209
5	0x3d10c963	0.035348307
6	0xbd8472e9	-0.0646723
7	0xbda691d1	-0.08133281
8	0xbca5ab6d	-0.020223344
9	0x3da5f405	0.08103184
10	0xbbfc351b	-0.0076967604
11	0x3e182a3e	0.14859864
12	0x3bdae1b5	0.0066797384
13	0xbda6687a	-0.08125396
14	0xbd06e1d8	-0.032930225
15	0x3deafa92	0.11473574
16	0x3b7e43d2	0.0038797748
17	0x3a9e1c0f	0.0012062805
18	0xbe019f03	-0.12658314
19	0x3ce504d9	0.027956413
20	0xbd93efe3	-0.07223489
21	0x3e1a5aa3	0.15073638
22	0x3c48cc03	0.012255671
23	0x3db1c8c1	0.08680869
24	0xbc8e76be	-0.017390605
25	0x3d206951	0.039162938
26	0xbd82dd2f	-0.06389844
27	0xbdd7f36c	-0.10544476
28	0xbdaea178	-0.085268915
29	0xbdd6b261	-0.10483242
30	0x3d5a424b	0.05328588
31	0xbdc884e5	-0.097909726
32	0x3d974519	0.07386226
33	0xbd77ff5b	-0.06054626
34	0x3d6e9db3	0.058255862
35	0x3e042fcd	0.1290886
36	0x3da225b1	0.07917345
37	0xbdcd455e	-0.10022996
38	0xbd286e0c	-0.041120574
39	0x3dfc788d	0.12327681
40	0x3dc46602	0.09589769
41	0x3d08bde7	0.03338423
42	0x3d296654	0.041357353
43	0x3d9d21e7	0.07672482
44	0x3ddb99b1	0.10722674
45	0xbdc9fdc0	-0.09862852
46	0x3c834295	0.01602296
47	0x3bca0753	0.006165424
48	0xbdc9a331	-0.098455794
49	0xbd8f44f8	-0.069955766
50	0xbc48fd1d	-0.012267378
51	0x3d918c8b	0.071068846
52	0xbd00869d	-0.031378377
53	0xbdc42c1a	-0.09578724
54	0xbcc19b1f	-0.023633538
55	0x3df328a9	0.1187299
56	0x3c61adb1	0.013774321
57	0x3d31736b	0.04332296
58	0xbdcfb6d9	-0.10142297
59	0xbdec1f4a	-0.115294054
60	0xbdc5889a	-0.09645195
61	0xbe045401	-0.1292267
62	0xbdc56d27	-0.0963996
63	0x3db1ae78	0.086758554
64	0xbc85a62e	-0.016314592
65	0xbdbf7021	-0.09347559
66	0x3dbd4ddb	0.092433654
67	0xbdc81de9	-0.0977133
68	0x3e13b0d8	0.1442293
69	0x3cbf0374	0.023317076
70	0xbb98e4af	-0.004665933
71	0x3e1f5a0b	0.15561692
72	0xbdffda40	-0.124928
73	0x3ddf7872	0.10911645
74	0x3d8ba338	0.06818241
75	0x3d5d687c	0.054054722
76	0x3df8242b	0.121162735
77	0x3c83103d	0.015998954
78	0xbc8583a9	-0.016298132
79	0x3d600e56	0.05470117
80	0xbdb6c8e0	-0.089250326
81	0xbdf01074	-0.11721888
82	0xbd39b880	-0.04534197
83	0xbb73bfcb	-0.0037193175
84	0x3cc7ad85	0.024374733
85	0xbdfea19d	-0.12433169
86	0xbdf97c7a	-0.12181945
87	0x3d28ee64	0.041242972
88	0xbd939003	-0.072052024
89	0xbdc69bbd	-0.096976735
90	0xbdf6bcdb	-0.1204774
91	0x3cdcd320	0.026956141
92	0xbe11c684	-0.14235884
93	0x3d24cac1	0.040232424
94	0xbcee5322	-0.029092375
95	0x3d407abe	0.046992056
96	0x3d069764	0.03285922
97	0xbd110fd4	-0.035415486
98	0xbe09853c	-0.13429731
99	0x3b58a602	0.0033057933
100	0x3da286a1	0.07935835
101	0xbdfcbb29	-0.123403855
102	0x3da5a972	0.0808896
103	0xbb2e1c7a	-0.0026567266
104	0x3dbf279c	0.09333727
105	0xbdccad11	-0.09993947
106	0x3e0d9270	0.13825393
107	0x3b7157ec	0.0036826087
108	0xbdc09485	-0.09403328
109	0xbca13e9b	-0.019683173
110	0xbcefd543	-0.029276496
111	0xbc754de2	-0.014972182
112	0xbe1be246	-0.15223035
113	0x3dda6666	0.10664062
114	0x3d8a707b	0.06759735
115	0xbdcf29a5	-0.10115365
116	0xbd9cafb0	-0.07650697
117	0xbd4b265e	-0.049597137
118	0xbba111a5	-0.0049154335
119	0x3d4f98fc	0.050683007
120	0xbe1ab209	-0.15106978
121	0xbd7d0761	-0.061774615
122	0xbe13db96	-0.14439234
123	0x3dca57db	0.09880038
124	0xbdc25cb2	-0.094903365
125	0x3d38464e	0.044988923
126	0x3db1ad48	0.08675629
127	0x3d65d7d5	0.056114037
128	0xbc97ec6f	-0.018545358
129	0x3d5d460d	0.054021884
130	0x3c173d1f	0.009230881
131	0x3dda0993	0.106463574
132	0x3ad9d919	0.0016620486
133	0xbd840de8	-0.06447965
134	0x3c94d131	0.018166156
135	0xbdcc6a4c	-0.09981212
136	0x3d9818d5	0.07426611
137	0xbafc9f91	-0.0019273629
138	0xbd5aaebf	-0.053389307
139	0x3d15a549	0.03653458
140	0xbd384f41	-0.044997457
141	0x3d15561a	0.036459066
142	0x3b697bc6	0.0035626753
143	0x3c8ee81c	0.017444663
144	0x3d66e3d7	0.05636963
145	0xbcfe1361	-0.0310151
146	0x3d1b3c97	0.03789958
147	0x3dfdf668	0.12400514
148	0xbd8059e6	-0.06267147
149	0x3cd431c1	0.02590263
150	0x3d12aff8	0.035812348
151	0x3e0900af	0.13379167
152	0xbdb9e3fd	-0.090766884
153	0xbc637398	-0.01388254
154	0xbe029643	-0.12752633
155	0x3baa629c	0.0051997434
156	0xbdcc747a	-0.09983154
157	0x3df72076	0.12066738
158	0x3e069644	0.1314326
159	0x3da7989e	0.08183406
160	0x3e0934be	0.13399026
161	0xbd9e2983	-0.077227615
162	0x3dd45a78	0.10368818
163	0xbd3120ec	-0.043244287
164	0x3d86b8f3	0.06578245
165	0x3e149054	0.14508182
166	0xbd564b62	-0.052317984
167	0xbdd4c01b	-0.10388204
168	0xbdd54399	-0.10413284
169	0x3d9919bc	0.074756116
170	0xbcec289a	-0.028827954
171	0xbd97db41	-0.07414866
172	0x3e0bc62d	0.13649817
173	0x3bf7d667	0.0075634005
174	0xbbc589fb	-0.0060284114
175	0xbde17e63	-0.110104345
176	0x3d803f75	0.062621035
177	0xbdb083d5	-0.08618895
178	0xbe0a9da5	-0.13536699
179	0x3de92adf	0.1138513
180	0xbdc86a15	-0.097858585
181	0xbdc37768	-0.09544259
182	0xbd971549	-0.07377107
183	0x3dc567a2	0.09638907
184	0x3df518c5	0.11967615
185	0xbdde8649	-0.108654566
186	0x3d739dfb	0.059476834
187	0xbdb25921	-0.08708406
188	0xbdd1720e	-0.10226832
189	0xbdd4e265	-0.10394744
190	0xbdb8dfa3	-0.0902703
191	0x3bee358a	0.007269566
192	0x3d42c24b	0.047548573
193	0x3ce2d573	0.027689671
194	0xbd80cbae	-0.06288849
195	0x3dbaa3c9	0.09113271
196	0xbc970a8b	-0.018437644
197	0x3df32eb2	0.11874141
198	0x3d37dc0c	0.044887587
199	0xbd9e6480	-0.077340126
200	0xbdeafa7f	-0.114735596
201	0x3c7ef5f9	0.015561574
202	0x3b8696ef	0.004107348
203	0x3c99bdd2	0.018767271
204	0xbd5310ae	-0.05152958
205	0x3d2dced9	0.042433593
206	0x3db0ed70	0.086390376
207	0xbce28059	-0.027649092
208	0x3d866b0b	0.065633856
209	0x3dd40228	0.10351974
210	0x3ca7d338	0.02048646
211	0xbdc12a1e	-0.09431861
212	0xbc6e5455	-0.0145464735
213	0xbd45591e	-0.048180692
214	0xbddd246b	-0.10797962
215	0xbdad3b08	-0.08458525
216	0xbddce79e	-0.10786365
217	0x3cef947e	0.029245611
218	0x3dfcd440	0.12345171
219	0xbcbe0dad	-0.02319988
220	0x3e10f8b8	0.14157379
221	0xbdfb1275	-0.1225938
222	0xbdb3e555	-0.08783976
223	0x3da9e001	0.082946785
224	0xbe063bfa	-0.13108817
225	0x3dff6fc3	0.12472489
226	0x3d94e3f9	0.07270045
227	0xbdf185cc	-0.11793098
228	0xba38c82c	-0.0007048871
229	0x3bd8e12f	0.006618641
230	0xbde1a368	-0.110174954
231	0xbc1e71ea	-0.009670714
232	0x3da5cfef	0.08096301
233	0x3ce8aab2	0.028401706
234	0x3d8a45d6	0.067516014
235	0x3ccd9223	0.025094097
236	0x3df75da3	0.12078407
237	0xbdb52b13	-0.088461064
238	0xbd2bc132	-0.041932292
239	0xbe0b7ca1	-0.13621761
240	0xbd6bdd45	-0.057584066
241	0x3de65f89	0.11248691
242	0xbe0134ff	-0.12617873
243	0xbd9c2a89	-0.076253004
244	0xbdf5ae78	-0.11996168
245	0x3e118c40	0.14213657
246	0xbcb694a7	-0.02228768
247	0x3d98b13f	0.07455682
248	0xbd68c46a	-0.05682794
249	0xbdcb935c	-0.09940216
250	0x3c4de1a8	0.012566008
251	0xbdb092e6	-0.08621769
252	0xbd03a611	-0.032140795
253	0x3d422f73	0.047408532
254	0x3d5d147f	0.053974625
255	0x3dca59fa	0.09880443

decoder_lstm.lstm.weight_hh_l0 f4 [192, 48]
0	0xbd0b3435	-0.033985335
1	0x3d027391	0.031848494
2	0x3de142ee	0.10999094
3	0x3dc65068	0.09683305
4	0xbd1b30b7	-0.037888255
5	0xbdff6636	-0.12470667
6	0x3db137b3	0.08653202
7	0x3d24602d	0.040130783
8	0x3ceb1231	0.028695198
9	0x3dcab665	0.0989807
10	0x3d6626d9	0.05618939
11	0xbcd67d9a	-0.026182938
12	0x3d78b6df	0.060721274
13	0xbdc62786	-0.09675507
14	0xbde2d2d4	-0.110753685
15	0xbc84671d	-0.01616245
16	0x3deb38cd	0.11485443
17	0xbdfcb517	-0.12339228
18	0xbd819202	-0.06326677
19	0xbdbe1a02	-0.09282304
20	0xbd1c01b8	-0.038087577
21	0x3d1e757b	0.038686257
22	0x3db3c424	0.08777645
23	0xbd4e1095	-0.050308783
24	0xbd2d16e8	-0.042258173
25	0x3c789741	0.0151727805
26	0xbdc086d2	-0.09400715
27	0x3d848a9b	0.064717494
28	0x3d4e5d15	0.05038174
29	0x3d307c0a	0.043087043
30	0xbdb9d4b4	-0.09073773
31	0x3db9cdaf	0.09072434
32	0x3d9926a9	0.07478077
33	0xbda740fd	-0.081666924
34	0x3d86bcae	0.065789565
35	0xbdf35c61	-0.11882854
36	0x3dfcb4d8	0.12339181
37	0xbd897bfb	-0.067131005
38	0x3dcd4b8b	0.10024174
39	0xbdab421a	-0.08362217
40	0xbc9dd02d	-0.019264305
41	0xbc0ee703	-0.00872207
42	0xbdda2c22	-0.10652949
43	0x3e16e5ac	0.1473605
44	0xbcc6ed0b	-0.024282953
45	0xbdeae163	-0.1146877
46	0x3d209ea8	0.039213806
47	0x3dea7869	0.11448748
48	0xbbc63ffc	-0.006050108
49	0xbddc2c3e	-0.10750626
50	0x3dccc2b7	0.099980764
51	0x3d178e6c	0.03700106
52	0xbdd7b2df	-0.10532164
53	0x3e0e996f	0.13925718
54	0xbe01559c	-0.12630314
55	0xbb86370a	-0.0040959166
56	0x3e043ea6	0.12914523
57	0x3c4b30f8	0.012401812
58	0xbc8f5685	-0.01749731
59	0x3d3de2aa	0.04635874
60	0xbd2aee78	-0.041731328
61	0xbbc85e65	-0.0061147683
62	0x3cc144f0	0.023592442
63	0x3bdcff4e	0.006744302
64	0x3dc052c9	0.0939079
65	0xbd03334b	-0.03203134
66	0xbe0914c9	-0.13386835
67	0xbda3037f	-0.07959651
68	0xbddbda98	-0.10735053
69	0x3dab1795	0.08354107
70	0x3dd8ff75	0.105955996
71	0xbd683ac7	-0.05669668
72	0xbdae7605	-0.08518604
73	0xbdd94ec4	-0.106107265
74	0xbce439e7	-0.027859641
75	0xbdcf5b6a	-0.10124858
76	0xbdd8fdca	-0.105952814
77	0x3ddeac26	0.108726785
78	0xbd0387c1	-0.032111887
79	0xbda37561	-0.079813726
80	0xbe03858b	-0.12843911
81	0x3e0d5f7d	0.13805957
82	0xbdcfc0a0	-0.10144162
83	0xbddd121c	-0.1079447
84	0xbcd55c47	-0.026044978
85	0x3e01b478	0.126665
86	0xbd9f25fb	-0.07770916
87	0x3d9f30f4	0.07773009
88	0x3cbd4491	0.023103984
89	0x3db69610	0.08915341
90	0x3b60ef0b	0.0034322168
91	0xbdbf39d6	-0.09337203
92	0x3d67a2ef	0.05655187
93	0xbd8e3a13	-0.069446705
94	0xbdfbd97e	-0.12297343
95	0x3d43d8a1	0.047814015
96	0xbdda9843	-0.10673573
97	0x3cdeedca	0.027212996
98	0xbdfdb288	-0.12387568
99	0xbde12f85	-0.10995392
100	0xbdfcc94a	-0.1234308
101	0xbc738b4a	-0.014864752
102	0x3e0cd5da	0.13753453
103	0x3cad3589	0.021143692
104	0xbdc8fd5b	-0.09813949
105	0x3def5db9	0.11687798
106	0x3df2bacd	0.11852036
107	0x3d586125	0.05282702
108	0x3e0746a5	0.13210543
109	0xbdc96a97	-0.098347835
110	0xbe286ff1	-0.16448952
111	0x3c6ac823	0.014329943
112	0xbd0ac9d5	-0.03388389
113	0x3d41b201	0.0472889
114	0x3e18fed3	0.14940958
115	0xbc003710	-0.007825628
116	0xbcc596f3	-0.02411983
117	0x3d718433	0.058963966
118	0xbdfa0b22	-0.12209155
119	0x3d5ab50d	0.05339532
120	0xbc3c575b	-0.011495437
121	0x3dfc177d	0.123091675
122	0x3d996120	0.07489228
123	0x3d9aa770	0.075514674
124	0xbdb82ee2	-0.08993317
125	0x3e364669	0.17800297
126	0x3cb04d01	0.021521093
127	0xbdb8789e	-0.09007381
128	0xbd8238fd	-0.06358526
129	0x3df71fc9	0.120666094
130	0xbda1fc1e	-0.07909416
131	0x3c9685bb	0.018374315
132	0xbc2d1a5a	-0.010565365
133	0x3da18a6b	0.07887729
134	0x3e0dcc88	0.13847554
135	0x3d80caea	0.06288703
136	0x3d35b9b9	0.044366572
137	0xbd8b559a	-0.068034366
138	0xbba0c096	-0.0049057705
139	0xbdcdfdf9	-0.10058207
140	0x3b53271b	0.0032219354
141	0x3c6183ae	0.013764305
142	0xbce40545	-0.027834544
143	0xbe179195	-0.14801629
144	0xbd9cda1f	-0.07658791
145	0xbd39495f	-0.045235988
146	0x3e053f6c	0.13012475
147	0xbda80756	-0.08204524
148	0xbdcbc466	-0.099495694
149	0xbdd00288	-0.10156733
150	0xbdcf1c09	-0.10112769
151	0x3e0f65bc	0.14003652
152	0x3c6c664a	0.0144286845
153	0xbe005a54	-0.12534457
154	0x3cd6c1f2	0.026215527
155	0x3d748c3e	0.059704058
156	0xbc925313	-0.017861878
157	0xbdd9dfb1	-0.10638369
158	0x3d1f5f4b	0.038909238
159	0xbba4b194	-0.005026052
160	0xbe0c1a14	-0.13681823
161	0xba99b4ad	-0.0011726819
162	0xbc36f191	-0.011165992
163	0xbc233b7b	-0.009962912
164	0x3d64f315	0.055895884
165	0xbcab705d	-0.020927602
166	0xbc69edae	-0.014277859
167	0x3d16e5d4	0.036840275
168	0x3e06b4d2	0.13154915
169	0xbdd88436	-0.10572092
170	0x3de8319c	0.11337587
171	0x3e04d65c	0.12972397
172	0xbd365ba7	-0.044521
173	0xbd8d75ce	-0.06907235
174	0x3dbd6c9e	0.09249233
175	0x3de70c87	0.11281686
176	0x3d84838e	0.064704046
177	0x3d6b319a	0.05742035
178	0x3dab193d	0.08354423
179	0x3d39184c	0.045189187
180	0x3d8cf05d	0.06881783
181	0xbd86de5b	-0.0658538
182	0xbda3bf9c	-0.07995531
183	0xbde8822a	-0.11352952
184	0x3dd2ceb1	0.102933295
185	0x3d731c6f	0.05935329
186	0x3e11c11c	0.14233822
187	0xbdfe0f84	-0.12405303
188	0x3cf56fcb	0.029960534
189	0xbdba2b1c	-0.09090254
190	0xbd95fb4e	-0.07323323
191	0x3d343e30	0.04400462
192	0x3dbd8b1e	0.0925505
193	0x3caa4c19	0.02078824
194	0x3d899008	0.06716925
195	0x3d6b39a3	0.057428014
196	0x3c1ee4f8	0.009698145
197	0x3ccc1ee8	0.024917081
198	0xbd61043d	-0.054935683
199	0xbdcae487	-0.099068694
200	0x3e03815f	0.1284232
201	0x3dcf4460	0.10120463
202	0xbddae31c	-0.10687849
203	0xbda3cde5	-0.07998256
204	0xbd02b27d	-0.0319085
205	0x3d4bb4bc	0.04973291
206	0xbd0d24c2	-0.034458883
207	0xbd5342a8	-0.05157724
208	0xbdd5fc13	-0.1044847
209	0x3cd66294	0.026170053
210	0xbd6c67f8	-0.05771634
211	0xbd9794a9	-0.074014015
212	0xbbffc354	-0.0078052673
213	0x3a3ee1b6	0.00072815584
214	0x3dc8c0d3	0.09802403
215	0xbd167ae2	-0.036738284
216	0x3db92c78	0.09041685
217	0xb9e7eb82	-0.0004423522
218	0x3d1ab37d	0.03776883
219	0xbdfddfbc	-0.123961896
220	0x3e13ef36	0.1444672
221	0x3dab1e76	0.08355419
222	0x3db72275	0.08942119
223	0x3be11495	0.0068689086
224	0xbd02b8ba	-0.03191445
225	0x3e0c6019	0.13708533
226	0x3df6d80f	0.12052929
227	0x3d005888	0.03133443
228	0x3d354864	0.04425849
229	0xbda1e201	-0.07904435
230	0x3af10c01	0.0018390418
231	0xbe1c042c	-0.15235966
232	0x3cc67391	0.024225028
233	0x3d935c8f	0.071953885
234	0x3d19c586	0.03754189
235	0x3e1095ab	0.14119594
236	0xbbd50a1d	-0.0065014497
237	0x3dfc6e14	0.12325683
238	0x3de4aac8	0.111653864
239	0x3bf4a1bc	0.0074655693
240	0xbe11ed53	-0.14250688
241	0xbc83a3d5	-0.016069332
242	0x3db6c7a3	0.089247964
243	0x3d1bb7e3	0.038017165
244	0x3d8f9ec0	0.07012701
245	0xbc9e14d8	-0.019297048
246	0x3d5adadf	0.053431388
247	0xbdde9d0b	-0.10869797
248	0xbc8ec714	-0.017428912
249	0x3d9cceec	0.07656655
250	0x3e0458e1	0.1292453
251	0xbcea308e	-0.028587606
252	0xbdee5252	-0.11636795
253	0xbcc69fe3	-0.024246162
254	0xbe04658c	-0.12929362
255	0xbdbb62eb	-0.091497265

decoder_lstm.lstm.bias_ih_l0 f4 [192]
0	0x3d3ce99d	0.04612123
1	0xbe03d6fa	-0.12874976
2	0x3d653acd	0.05596428
3	0xbdea6ed6	-0.114469215
4	0x3dc8841f	0.09790825
5	0xbda0da9c	-0.078541964
6	0x3e0aa34c	0.13538855
7	0xbbd1cb1d	-0.006402387
8	0xbb62860a	-0.0034564757
9	0x3dafed90	0.08590233
10	0xbd90b6cd	-0.070661165
11	0x3e0b397b	0.13596146
12	0x3ddaa490	0.10675919
13	0xbdba0e05	-0.09084705
14	0xbda987b3	-0.08277836
15	0x3d4b6e9c	0.049666032
16	0xbce6e201	-0.028183939
17	0x3ddf60df	0.109071486
18	0x3d0671b0	0.032823265
19	0x3c7f4d1b	0.015582348
20	0x3db85e01	0.09002305
21	0x3dc65f74	0.09686175
22	0xbdf6457e	-0.12024973
23	0xbddbe4ec	-0.10737023
24	0x3e02074f	0.126981
25	0x3e1efb4e	0.15525553
26	0x3dbe6cc4	0.09298089
27	0x3e0989fd	0.13431545
28	0xbda56830	-0.08076513
29	0xbd3d4868	-0.04621163
30	0xbdd30f92	-0.10305704
31	0x3e04ff82	0.12988093
32	0x3d1ce51b	0.03830443
33	0x3ddfd2dc	0.1092889
34	0xbe00246a	-0.12513891
35	0x3c7c1a13	0.015387076
36	0x3bf79284	0.007555308
37	0x3e2662f5	0.16248687
38	0xbd1a74a7	-0.037708905
39	0xbcab7f35	-0.02093468
40	0x3d80d6eb	0.06290992
41	0xbd9776e3	-0.07395723
42	0xbe0efc5a	-0.13963452
43	0x3d5b4e0a	0.05354122
44	0xbd25cefc	-0.0404806
45	0x3d962433	0.07331123
46	0x3e0e4eec	0.13897294
47	0x3e020eee	0.12701008
48	0x3d6ea118	0.0582591
49	0x3e10ca62	0.14139703
50	0x3df461d0	0.11932719
51	0xbd33ba91	-0.043879095
52	0xbdbe34f2	-0.09287442
53	0xbdb98d02	-0.09060098
54	0x3e13ed71	0.14446045
55	0xbc4c456e	-0.012467725
56	0x3e282ebf	0.16424082
57	0x3c9e2137	0.019302947
58	0x3c8e60e1	0.01738018
59	0xbddbcc65	-0.107323445
60	0x3cc337eb	0.023830375
61	0xbe02e78e	-0.12783644
62	0x3dfa4d71	0.12221802
63	0xbddf38ac	-0.10899481
64	0x3e1b14b4	0.15144616
65	0xbddd4b85	-0.1080542
66	0x3bdd5001	0.006753922
67	0xbde6df1c	-0.112730235
68	0x3d62e532	0.05539436
69	0xbd757eed	-0.0599355
70	0x3ce77603	0.028254515
71	0x3bcf707c	0.006330548
72	0x3e06bbff	0.13157652
73	0x3e2df578	0.1698817
74	0xbb87a680	-0.0041397214
75	0x3c01e9c0	0.0079292655
76	0xbde6c996	-0.11268918
77	0x3e17ff11	0.14843394
78	0xbd32072c	-0.04346387
79	0xbcb62eae	-0.022239055
80	0x3c8647c2	0.016391639
81	0x3e0fa302	0.14027026
82	0x3d8dacc9	0.06917722
83	0xbda387dd	-0.07984898
84	0x3e12d24d	0.14338036
85	0x3c4c7c4c	0.012480807
86	0x3daf1224	0.08548382
87	0x3d694643	0.056951772
88	0x3dbed467	0.09317856
89	0x3d729bd8	0.059230655
90	0x3d3f3393	0.046680044
91	0x3e109e5c	0.1412291
92	0x3cf4d5d9	0.029887127
93	0xbd23f2cd	-0.040026475
94	0x3ded694f	0.11592352
95	0xbd1d52df	-0.03840911
96	0x3db1dc02	0.08684541
97	0xbd8532f9	-0.06503863
98	0x3ddcb3d8	0.1077649
99	0x3bdc496e	0.0067226207
100	0xbcc20abf	-0.023686765
101	0x3e1429d0	0.14469075
102	0xbe055e89	-0.13024344
103	0x3df39d6e	0.11895262
104	0x3d978256	0.073979065
105	0x3ca3c812	0.019992862
106	0xbc1e966a	-0.009679416
107	0xbcc1f6ca	-0.023677249
108	0x3d100ecb	0.035170358
109	0xbdc9a9b0	-0.098468184
110	0x3e1485d2	0.14504173
111	0x3bb4138d	0.0054954947
112	0xbe1f99e5	-0.1558605
113	0xbcb6e594	-0.022326268
114	0x3dcd9aea	0.10039313
115	0x3df9bedd	0.121946074
116	0x3d7661d1	0.06015188
117	0xbcc72053	-0.024307406
118	0xbe190820	-0.14944506
119	0xbdd67366	-0.10471229
120	0xbbf4d696	-0.0074718697
121	0x3d9bab70	0.076010585
122	0x3d912822	0.07087733
123	0x3d25138d	0.04030185
124	0x3df5ea99	0.120076366
125	0x3df7c921	0.12098909
126	0xbda7f54a	-0.08201082
127	0xbd541d95	-0.051786024
128	0x3c6b854a	0.01437504
129	0x3cdc18b0	0.02686724
130	0x3d84a641	0.06477023
131	0xbdfd4cdc	-0.123681754
132	0xbc866fc8	-0.016410723
133	0xbdfd1684	-0.1235781
134	0xbd9c3366	-0.07626991
135	0x3cb31579	0.021860825
136	0xbe115e71	-0.14196183
137	0xbe04522c	-0.12921971
138	0x3daeaaf2	0.08528699
139	0xbdb27b21	-0.08714891
140	0xbdfa0159	-0.12207288
141	0xbde8b895	-0.11363331
142	0xbc65d21f	-0.014027148
143	0xbd750f28	-0.059828907
144	0xbd7a648b	-0.06113104
145	0xbdfda46d	-0.12384877
146	0x3d66a5d6	0.056310497
147	0x3bc10dc9	0.005891536
148	0x3dd812d0	0.10550463
149	0xbdf6afd7	-0.120452575
150	0xbca89403	-0.02057839
151	0x3df7ac4c	0.1209341
152	0xbd49acd5	-0.04923709
153	0xbd8ac178	-0.067751825
154	0xbc636d4e	-0.013881041
155	0x3d6ca2be	0.05777239
156	0x3da958e8	0.08268911
157	0x3d044043	0.032287847
158	0xbd84ddf4	-0.06487647
159	0x3d98e16e	0.07464872
160	0x3dec176e	0.11527906
161	0xbe03bd23	-0.12865119
162	0xbd934bbe	-0.07192181
163	0xbd4c7511	-0.04991633
164	0x3dc4c042	0.09606983
165	0x3d7e5bd6	0.0620993
166	0x3ca7f962	0.020504657
167	0x3d0ebad9	0.03484616
168	0x3cad81e3	0.021180099
169	0x3e005cfe	0.12535474
170	0xbe08a0f1	-0.13342644
171	0xbdcbb895	-0.099473156
172	0xbd9622f4	-0.073308855
173	0xbd6331f4	-0.05546756
174	0x3e11a10b	0.1422159
175	0x3e12512f	0.14288782
176	0x3e18104c	0.14849967
177	0xbdebd424	-0.11515072
178	0xbdf7a622	-0.12092234
179	0x3d96b433	0.07358589
180	0x3ddf2ac6	0.1089683
181	0x3dc95622	0.09830882
182	0x3de492e1	0.111608274
183	0x3dac1477	0.08402341
184	0x3dd35982	0.10319807
185	0x3d40bd54	0.047055557
186	0x3d0cabc7	0.034343507
187	0x3df4efe8	0.11959821
188	0x3e01db4a	0.12681308
189	0x3d63c03c	0.05560325
190	0xbc9fd567	-0.019510938
191	0xbe116db6	-0.14202008
