notebook/model_artifacts/10Iteration__LR0.00079__NonClipp__LeakyReluMHA__Epsilon1e-07__Threshold_13-08__ComplexLossisTRUE.pt (torch, 289096 bytes, 28 tensors)

batch_norm_layer.batch_norm_layer.weight f4 [10]
1.1315662 1.2106327 0.87812895 0.87340295 0.88107896 0.7953799 0.82883966 0.89931166
0.6962147 0.69878155
00000000: 29d7 903f 03f6 9a3f 0fcd 603f 5697 5f3f
00000010: 648e 613f 049e 4b3f d62e 543f 4a39 663f
00000020: 203b 323f 59e3 323f

batch_norm_layer.batch_norm_layer.bias f4 [10]
0.045094065 0.0034722756 0.024571579 -0.03536438 -0.019841518 -0.02480334 0.04680943 0.061850622
0.012071775 0.04952988
00000000: 8eb4 383d 1e8f 633b 564a c93c 3dda 10bd
00000010: ae8a a2bc 6030 cbbc 3fbb 3f3d 1457 7d3d
00000020: b2c8 453c d8df 4a3d

batch_norm_layer.batch_norm_layer.running_mean f4 [10]
0.33333325 41974.06 -0.28243443 0.20010519 -0.33036736 0.0037545764 0.04721953 -0.025352847
0.036424104 -0.08795298
00000000: a8aa aa3e 0ff6 2347 3f9b 90be 60e8 4c3e
00000010: e925 a9be 570f 763b 4469 413d c6b0 cfbc
00000020: 7131 153d b120 b4bd

batch_norm_layer.batch_norm_layer.running_var f4 [10]
0.061133213 5.0257064e+07 0.088668205 0.24803552 0.036367893 0.057445817 0.028608652 0.10111155
0.028238744 0.11659025
00000000: d266 7a3d 2ab7 3f4c ad97 b53d 06fd 7d3e
00000010: 80f6 143d 4e4c 6b3d b15c ea3c 9313 cf3d
00000020: f054 e73c dec6 ee3d

embedd_layer.embedd_layer.weight f4 [3060, 8]
0.13113475 0.40190375 -0.55873847 0.31843603 0.27193397 -0.12701821 0.20235495 -0.50538117
-0.547411 0.679757 -0.0946603 -0.25795397 -0.13248625 -0.35138217 0.09928237 -0.08467637
-0.43054798 -0.48155475 -0.33793676 -0.049128182 0.0023035267 0.4026567 -0.19196703 0.32596567
-0.86568564 -0.78153974 1.0460755 -0.33441827 2.6583683 1.9669969 -0.5867667 0.24703361
-1.342925 -0.5218827 -1.2029406 0.6043453 -0.57522684 0.02450597 -1.5661014 -1.1360753
0.87514865 0.5079904 -0.021728685 -1.1374806 1.6888938 -0.84531635 -1.5598499 0.8333074
-0.104536794 -0.5759425 -0.5212842 0.58072686 -1.1007658 -0.19024508 0.25441095 -1.3880364
0.94313043 -1.2800238 -1.8131703 -1.0359687 -1.2789414 0.40112564 -0.36399484 1.2139021
0.23481505 -0.91838694 0.8256562 -1.2529049 0.1854768 -0.43353477 -1.206915 0.41134343
1.298904 -0.5289579 1.5533844 -0.29630494 -0.7421741 -1.0564761 0.23684427 -0.09756377
-1.8276098 -0.6828469 -1.4355937 0.2474359 -0.54567987 1.016222 0.696651 1.390862
-0.6487064 1.4487287 0.48306718 0.7277365 0.016006218 0.67791253 -0.25838763 0.3359408
0.35131124 -0.7547279 -1.2302786 1.3511322 0.38920334 -1.2456923 -1.2437388 0.8226964
0.19284464 -1.1552755 -0.5003151 -0.043201182 -0.33875707 -0.21162982 0.45758405 0.39194807
0.7778362 0.086916864 1.2501497 0.1216429 0.14032155 -2.096691 -0.037745826 0.43839243
-0.2560624 -1.2656976 -0.5409194 -2.0597842 -0.011304986 -0.47529095 1.8488967 0.08202085
-2.0405161 -1.1844579 -1.3265538 -1.0747612 1.1794068 -1.4213731 0.22348553 1.2879263
-0.07940101 0.10242664 0.3333369 -0.08634326 0.30371273 -0.18037982 -0.057480033 0.50906765
0.14973001 -1.2391942 0.38748193 -0.09052041 0.32618824 -0.65140307 -1.6667486 -0.9703446
-1.0517447 0.89715666 0.5300078 0.85525197 -0.18717551 -2.001966 -0.29295462 0.5554043
1.4501956 -0.599494 0.1663333 2.2809622 0.19998643 0.925628 -0.4759855 1.0018584
1.5437683 -0.87040615 -2.541251 1.125882 -2.2808573 -1.985869 -0.28890547 0.5929825
-0.24307 0.07807484 1.3819826 0.055156045 1.1305962 0.075044274 1.8178083 0.76953566
0.27097628 0.6633538 1.6899601 -0.48011124 -1.4509819 1.036907 -1.5996953 -0.9656079
-1.1529218 -0.22972675 1.4793416 0.5322441 -0.04290577 0.7250095 0.32625517 -1.9628794
-1.5603901 0.22342342 -0.74192166 -0.8046848 1.0345534 0.7605773 0.50101185 0.78211236
0.2970122 -0.17700912 1.7480656 0.40478253 0.8029349 -1.0086234 0.33184323 -1.5294126
0.36098897 0.7970071 1.4893847 0.13435644 -0.8701782 -0.097005576 -0.21714339 -0.65128785
-0.01786039 0.8366809 -0.24124429 -0.13155629 -0.80076647 -0.71544737 -0.75185394 -0.78785187
-0.9789022 -0.5945612 0.3512929 0.22108272 -0.28139982 -0.5764343 -0.5277215 -0.7562562
0.08995638 0.5479143 -0.69756323 -1.3366345 0.07542784 -0.7601366 -0.9289302 -0.5970121
-0.38823795 -0.7339361 -0.82563406 0.7455879 -1.4290736 -0.59483314 0.5607875 0.28423828
00000000: 3048 063e 54c6 cd3e 7c09 0fbf 0c0a a33e
00000010: ee3a 8b3e 1011 02be 2336 4f3e a960 01bf
00000020: 2123 0cbf 8e04 2e3f 42dd c1bd 8b12 84be
00000030: 7aaa 07be 5de8 b3be 8e54 cb3d ce6a adbd
00000040: c970 dcbe 588e f6be 0c06 adbe a23a 49bd
00000050: c4f6 163b 0529 ce3e 0193 44be f9e4 a63e
00000060: 939d 5dbf fd12 48bf cde5 853f df38 abbe
00000070: b522 2a40 8ec6 fb3f 5836 16bf 61f6 7c3e
00000080: f7e4 abbf 1b9a 05bf f5f9 99bf 60b6 1a3f
00000090: 1142 13bf bec0 c83c 0376 c8bf ea6a 91bf
000000a0: be09 603f a90b 023f 5b00 b2bc f798 91bf
000000b0: ac2d d83f a766 58bf 29a9 c7bf a253 553f
000000c0: 6317 d6bd f870 13bf e272 05bf 84aa 143f
000000d0: e5e5 8cbf 9bcf 42be 2742 823e 2dab b1bf
000000e0: ff70 713f d2d7 a3bf f715 e8bf 9f9a 84bf
000000f0: 5ab4 a3bf 5760 cd3e 885d babe 2561 9b3f
00000100: 5b73 703e 681b 6bbf 345e 533f 305f a0bf
00000110: a1ed 3d3e 45f8 ddbe 317c 9abf 9b9b d23e
00000120: 7c42 a63f c969 07bf 4dd5 c63f 48b5 97be
00000130: 1fff 3dbf 9c3a 87bf 4e87 723e 84cf c7bd
00000140: 1eef e9bf 0ecf 2ebf 89c1 b7bf d65f 7d3e
00000150: adb1 0bbf 9013 823f b857 323f c407 b23f
00000160: 9f11 26bf f16f b93f 9554 f73e f04c 3a3f
00000170: 791f 833c ad8b 2d3f 624b 84be 6f00 ac3e
00000180: 11df b33e d935 41bf c579 9dbf e6f1 ac3f
00000190: a945 c73e d872 9fbf d532 9fbf 3b9c 523f
000001a0: 1179 453e 11e0 93bf a714 00bf b9f3 30bd
000001b0: 9171 adbe 7db5 58be 7548 ea3e 6bad c83e
000001c0: 4620 473f 7801 b23d e804 a03f ea1f f93d
000001d0: 74b0 0f3e 2f30 06c0 5e9b 1abd f974 e03e
000001e0: 9c1a 83be 6102 a2bf b279 0abf 81d3 03c0
000001f0: 8c38 39bc 5659 f3be a6a8 ec3f 8cfa a73d
00000200: d197 02c0 519c 97bf 84cc a9bf c691 89bf
00000210: cdf6 963f 8eef b5bf 64d9 643e c5da a43f
00000220: ff9c a2bd 0fc5 d13d 22ab aa3e bcd4 b0bd
00000230: 3c80 9b3e 7db5 38be 2f70 6bbd 4252 023f
00000240: d352 193e ea9d 9ebf 0864 c63e c462 b9bd
00000250: 2502 a73e 5ac2 26bf 0558 d5bf 8168 78bf
00000260: 929f 86bf 0fac 653f 97ae 073f cbf1 5a3f
00000270: f0aa 3fbe 3620 00c0 26fe 95be fa2e 0e3f
00000280: 02a0 b93f 7078 19bf 4753 2a3e 49fb 1140
00000290: 3ec9 4c3e f5f5 6c3f 5fb4 f3be e53c 803f
000002a0: 339a c53f f0d2 5ebf dba3 22c0 e71c 903f
000002b0: 91f9 11c0 f530 febf 6beb 93be b3cd 173f
000002c0: 58e7 78be b4e5 9f3d cee4 b03f 4eeb 613d
000002d0: 60b7 903f d0b0 993d f1ad e83f 4a00 453f
000002e0: 67bd 8a3e 8ed1 293f 9d50 d83f 24d1 f5be
000002f0: c6b9 b9bf 5eb9 843f d1c2 ccbf 1432 77bf
00000300: f192 93bf 7d3d 6bbe 115b bd3f 2641 083f
00000310: f6bd 2fbd 399a 393f eb0a a73e a23f fbbf
00000320: ddba c7bf 1cc9 643e 94ee 3dbf d3ff 4dbf
00000330: 3f6c 843f 32b5 423f 5042 003f 8438 483f
00000340: fc11 983e e141 35be 9dc0 df3f a83f cf3e
00000350: 248d 4d3f 921a 81bf 5be7 a93e cbc3 c3bf
00000360: 8cd3 b83e a808 4c3f 28a4 be3f bc94 093e
00000370: 00c4 5ebf dcaa c6bd d65a 5ebe cdba 26bf
00000380: f44f 92bc b830 563f be08 77be b1b6 06be
00000390: 08ff 4cbf 8f27 37bf 8079 40bf a9b0 49bf
000003a0: 5699 7abf 2a35 18bf aadc b33e 8263 623e
000003b0: a313 90be 3391 13bf c218 07bf 029a 41bf
000003c0: 0d3b b83d 1d44 0c3f 8193 32bf d716 abbf
000003d0: e979 9a3d 5098 42bf 5fce 6dbf c9d5 18bf
000003e0: 20c7 c6be 3ce3 3bbf c15c 53bf d9de 3e3f
000003f0: e2eb b6bf fc46 18bf c58f 0f3f ae87 913e

encoder_lstm.lstm.weight_ih_l0 f4 [192, 10]
-0.12013669 -0.099219695 0.13762467 0.13932762 -0.10866142 0.03477682 0.018151658 0.059369665
0.08038979 0.012880825 0.11718477 -0.10058338 -0.031061245 -0.08133111 0.08759412 -0.05600318
-0.109249555 -0.1594616 0.00021085085 -0.028284071 -0.069484435 0.10676879 0.12123959 -0.06709554
0.048086043 -0.03447059 -0.109757714 0.036609862 0.06345568 0.10883186 0.050736863 -0.21720058
-0.11704323 -0.08561678 0.08771868 0.02797384 0.1530318 0.08922751 0.104785606 -0.060626995
0.12776408 -0.0434557 0.02587032 0.0062820935 -0.043668676 0.12068541 -0.019022329 -0.14088571
0.13625982 -0.14411272 -0.08444688 0.21001652 0.10269729 0.046906564 -0.14026672 -0.14064999
-0.11924864 0.12930754 -0.11248945 0.1573573 0.102851816 0.08267282 -0.053888146 0.08457092
0.08563661 -0.09186968 -0.13185851 -0.115997165 0.21716876 -0.05530816 -0.066797875 0.092080705
-0.0633899 0.09269128 -0.11029974 -0.0014159724 -0.120419145 -0.060355965 0.039663337 0.048058964
-0.047444664 0.05053698 0.13527538 0.1319221 0.070045836 0.03262465 0.0112567 -0.12989001
0.013079241 -0.028639592 0.16599119 -0.3007533 0.03730566 0.015321802 -0.057518918 -0.061490014
-0.07719385 -0.094753265 -0.10158645 0.052375954 -0.16983698 0.18546815 -0.18953258 -0.116092995
-0.03661388 0.01810817 0.0008549964 0.103574246 -0.1687293 0.13420522 -0.08427538 0.0067003146
-0.12831923 -0.07054262 -0.018065164 -0.014886306 -0.19755076 0.0052077593 -0.0013169805 0.08647291
0.11291873 -0.037318196 0.049023885 -0.04947026 0.08844904 0.10142028 0.120848946 0.09684085
0.035676695 0.10017372 -0.09449666 -0.22818801 0.09238427 -0.08680255 -0.053745035 0.09841167
-0.09823076 -0.010135473 -0.09725893 0.108154535 -0.26662973 -0.12116601 -0.10828358 -0.13857387
0.21194935 -0.058534272 -0.23677881 -0.053127978 -0.0044487678 0.022928862 0.1900229 -0.18344033
-0.014371807 -0.12690018 -0.0287352 -0.027800173 -0.020702235 0.078138284 0.07268326 -0.056044787
0.094986945 0.3086247 0.090821505 0.013358536 0.0102822725 0.12670372 0.07811737 0.06158031
0.1387269 -0.065587185 0.119013205 0.08115585 0.07019 0.29452142 -0.061724517 -0.05474929
-0.07231384 -0.19422413 0.27540568 -0.08129511 0.07126932 0.03187077 0.024388399 0.03239729
-0.010473493 -0.02836174 -0.14607197 -0.089845136 0.054192763 -0.18253507 -0.10858473 0.0055238
0.14227311 0.09409911 0.03444734 0.023748243 0.11310664 0.08182719 0.04296699 -0.04046597
0.060024794 -0.2213558 -0.12217188 0.050956234 -0.0697469 -0.10801462 0.05786552 -0.09705514
-0.13156684 -0.0752399 0.011348469 -0.005411395 -0.095265076 0.015637513 0.08756292 0.092011146
-0.10508154 -0.13151163 0.051869933 -0.00413521 0.04229059 0.002489042 0.06105743 -0.08310934
-0.05656538 0.052930918 0.11891535 0.069346495 -0.024464702 0.10105831 0.089489646 -0.14490463
0.0736835 -0.09385673 -0.12616672 0.07789904 -0.004766166 -0.164288 0.18274997 -0.15713729
0.10706722 0.15471412 0.15683304 -0.10410766 -0.0072506936 -0.029494474 -0.017957028 -0.057940967
0.08019938 -0.1192938 -0.13084982 0.094471894 -0.009840543 0.12337063 0.03530804 -0.12866788
00000000: 3a0a f6bd b233 cbbd 7bed 0c3e e6ab 0e3e
00000010: e189 debd 2472 0e3d c9b2 943c 9b2d 733d
00000020: 67a3 a43d 190a 533c 92fe ef3d a9fe cdbd
00000030: 2774 febc ed90 a6bd 8c64 b33d 9763 65bd
00000040: 3bbe dfbd e749 23be d817 5d39 ffb3 e7bc
00000050: db4d 8ebd 98a9 da3d 764c f83d 6369 89bd
00000060: dff5 443d 0931 0dbd a7c8 e0bd 39f4 153d
00000070: 0df5 813d 3de3 de3d 75d1 4f3d d469 5ebe
00000080: 5cb4 efbd da57 afbd daa5 b33d 6529 e53c
00000090: 5eb4 1c3e eabc b63d d699 d63d 0354 78bd
000000a0: 96d4 023e 9bfe 31bd feed d33c 05da cd3b
000000b0: eddd 32bd ea29 f73d b7d4 9bbc 5844 10be
000000c0: b287 0b3e 4992 13be 7cf2 acbd 920e 573e
000000d0: f552 d23d 1921 403d 14a2 0fbe 8d06 10be
000000e0: a238 f4bd 3269 043e de60 e6bd 4622 213e
000000f0: f9a3 d23d 5e50 a93d d1b9 5cbd 8533 ad3d
00000100: 3f62 af3d 2c26 bcbd eb05 07be ec8f edbd
00000110: 7d61 5e3e cf8a 62bd 53cd 88bd cf94 bc3d
00000120: 90d2 81bd edd4 bd3d d5e4 e1bd 2698 b9ba
00000130: 509e f6bd d137 77bd 0676 223d 7ad9 443d
00000140: 5655 42bd ddff 4e3d a185 0a3e 9616 073e
00000150: 3174 8f3d 6da1 053d 066e 383c e301 05be
00000160: 504a 563c 949d eabc 98f9 293e 56fc 99be
00000170: d2cd 183d 4c08 7b3c f598 6bbd f4dc 7bbd
00000180: cf17 9ebd 000e c2bd 8f0c d0bd 2b88 563d
00000190: bfe9 2dbe 5deb 3d3e d414 42be 2ac2 edbd
000001a0: 70f8 15bd 9657 943c d621 603a bc1e d43d
000001b0: 60c7 2cbe 186d 093e 9298 acbd 508e db3b
000001c0: 1e66 03be a678 90bd 65fd 93bc b1e5 73bc
000001d0: bf4a 4abe daa5 aa3b 889e acba b618 b13d
000001e0: ef41 e73d f7da 18bd 45cd 483d 54a1 4abd
000001f0: c524 b53d 70b5 cf3d a77f f73d 7f54 c63d
00000200: ba21 123d e127 cd3d 7787 c1bd 1eaa 69be
00000210: f733 bd3d 89c5 b1bd c123 5cbd 0f8c c93d
00000220: 352d c9bd 410f 26bc b12f c7bd 2080 dd3d
00000230: b183 88be e325 f8bd c8c3 ddbd 4fe6 0dbe
00000240: 4009 593e a2c1 6fbd 2576 72be b99c 59bd
00000250: f8c6 91bb 4fd5 bb3c 5d95 423e c8d7 3bbe
00000260: ba77 6bbc 1ff2 01be 1566 ebbc 30bd e3bc
00000270: bc97 a9bc f706 a03d f6da 943d 388f 65bd
00000280: 8488 c23d 0f04 9e3e a000 ba3d c3dd 5a3c
00000290: fa76 283c 9fbe 013e 00fc 9f3d a33b 7c3d
000002a0: 6d0e 0e3e 9352 86bd 32bd f33d 0a35 a63d
000002b0: c6bf 8f3d 83cb 963e d9d2 7cbd cb40 60bd
000002c0: 4719 94bd b1e2 46be f901 8d3e 0d7e a6bd
000002d0: a6f5 913d ed8a 023d 2eca c73c 05b3 043d
000002e0: 0399 2bbc e156 e8bc e493 15be ba00 b8bd
000002f0: 3bf9 5d3d 79ea 3abe ac61 debd fe00 b53b
00000300: 0bb0 113e 09b7 c03d a718 0d3d ad8b c23c
00000310: 74a4 e73d 0495 a73d 28fe 2f3d a5bf 25bd
00000320: 8fdc 753d 18ab 62be 4035 fabd 7cb7 503d
00000330: 76d7 8ebd c536 ddbd 6504 6d3d d8c4 c6bd
00000340: 75b9 06be 6017 9abd eeee 393c 1252 b1bb
00000350: 561a c3bd 3e1a 803c 3054 b33d 5770 bc3d
00000360: fe34 d7bd fcaa 06be 9175 543d a880 87bb
00000370: e638 2d3d 321f 233b 5b17 7a3d 3b35 aabd
00000380: 1ab1 67bd 17ce 583d e489 f33d 8905 8e3d
00000390: 336a c8bc a9f7 ce3d 5946 b73d e161 14be
000003a0: 60e7 963d f537 c0bd d931 01be 8889 9f3d
000003b0: 802d 9cbb 1d3b 28be cf22 3b3e 99e8 20be
000003c0: 0f46 db3d 616d 1e3e d798 203e 6636 d5bd
000003d0: 3a97 edbb 659e f1bc 9e1a 93bc 8253 6dbd
000003e0: 933f a43d 4f50 f4bd 7ffd 05be 7b7a c13d
000003f0: 3b3a 21bc bea9 fc3d 2a9f 103d 83c1 03be

encoder_lstm.lstm.weight_hh_l0 f4 [192, 48]
0.08400242 0.13769037 0.058619253 -0.07473368 0.076229356 -0.09932939 0.047982343 0.0979652
-0.07173418 -0.06502707 0.10642128 -0.15340798 0.10373455 0.21080545 -0.020759407 0.01988239
-0.24324268 -0.16972442 -0.023841865 -0.049507793 -0.08637829 -0.10897706 0.022535859 -0.14586872
0.075354405 0.19858366 0.015895195 0.092209175 -0.10231365 0.0059544886 0.10331042 0.0012714141
-0.05551274 -0.051732548 0.07779098 0.045535617 -0.06888576 0.008614928 0.04734125 -0.18218817
-0.006846604 0.010182376 0.13098554 -0.22353645 -0.06740538 0.15536283 -0.03625136 0.0011131343
0.0016304246 0.0005791545 -0.041714262 -0.02034697 0.08812387 -0.020382855 -0.07401784 0.052674994
0.15547931 -0.050758637 -0.22595648 -0.02596038 0.019656856 0.029902695 -0.0029687718 -0.2638851
-0.22977968 0.100534044 -0.12688838 -0.03828487 -0.067511745 0.047025207 0.05729534 -0.07623555
-0.07348731 -0.103258885 -0.15272312 -0.08295814 0.11456779 0.010380808 -0.018377459 -0.13882077
0.15687704 -0.085361846 -0.050343074 -0.07313823 -0.094650835 -0.013209049 0.019609822 -0.11215767
0.0841352 0.076651916 -0.07058322 -0.031108607 -0.050736845 0.012592954 0.20858444 0.08252875
0.09636359 -0.015515135 -0.050293073 -0.014316901 0.06563889 -0.14453886 0.06873949 0.09102169
-0.09981429 -0.20114675 0.10914212 -0.12835702 0.13498937 0.024577565 0.032969162 -0.08849501
0.04276964 0.0015924976 -0.0024710826 0.1500587 -0.036505975 -0.17617218 0.04269847 0.015229845
-0.0066629853 -0.018060083 -0.07610726 -0.092071004 -0.053084414 -0.025696559 -0.048826132 -0.073468216
0.12405072 -0.025795503 -0.11189811 0.12098276 -0.089267775 0.08460705 -0.1008207 0.015414803
0.05152714 0.17358273 -0.12615134 0.04435277 -0.12664632 0.048474368 -0.0121355895 -0.1590488
0.09432231 0.02109757 0.09053936 -0.048702646 0.036549374 0.110822156 0.012855021 -0.06199884
0.019670162 -0.072396286 0.036796212 -0.06591002 0.03546452 0.0699638 -0.11763404 -0.19982986
-0.17697453 0.079098806 0.14670682 0.05865669 0.08184945 0.02465983 0.08329822 -0.2100842
-0.017870296 0.13013195 0.14051324 0.08710166 0.04149117 -0.13847831 -0.0524119 0.06724898
-0.032722738 0.14105703 0.14790888 -0.023805862 -0.010000952 -0.0428996 -0.04973364 -0.021874422
0.09716279 -0.067542344 -0.0008306721 -0.11797133 -0.024465771 -0.023903392 0.11557932 0.02029881
0.040810205 0.08934523 -0.036854975 0.08740657 0.03877212 -0.010858819 -0.085503735 0.038523395
0.09995885 0.026302325 -0.09918434 -0.16029444 0.15187892 0.14731722 -0.023304982 0.06698786
-0.059387773 -0.11430763 0.048774723 0.036541775 -0.0240274 -0.014339248 0.06173007 -0.06684116
0.008832035 -0.11908621 -0.017728204 -0.1205148 -0.1872528 0.08934594 0.106619194 -0.2023471
0.16362622 0.008810257 0.11007031 0.081160545 -0.122548774 -0.026219869 0.20643023 -0.06043648
0.025108732 0.12553988 0.1265738 -0.04446269 0.11872932 0.17764018 0.0016155095 -0.062187355
-0.11471687 0.040013198 -0.046953686 0.080114916 -0.07082992 -0.13986173 -0.15439795 0.079996444
0.120440245 -0.04412999 -0.2115104 -0.04774805 -0.09109739 -0.010721499 0.039177816 -0.20046367
00000000: 7609 ac3d b4fe 0c3e be1a 703d f90d 99bd
00000010: 231e 9c3d 356d cbbd 2289 443d fba1 c83d
00000020: 5fe9 92bd ea2c 85bd 66f3 d93d fb16 1dbe
00000030: c872 d43d 62dd 573e a20f aabc 65e0 a23c
00000040: 9c14 79be 3dcc 2dbe 0450 c3bc afc8 4abd
00000050: 1ae7 b0bd 5d2f dfbd 1f9d b83c 9c5e 15be
00000060: 6953 9a3d 8459 4b3e a436 823c 2ad8 bc3d
00000070: d289 d1bd df1d c33b 6a94 d33d 94a5 a63a
00000080: 5461 63bd 82e5 53bd e150 9f3d 8e83 3a3d
00000090: fa13 8dbd a125 0d3c e6e8 413d 898f 3abe
000000a0: 7a59 e0bb fbd3 263c 1321 063e bde6 64be
000000b0: d50b 8abd 6f17 1f3e 4e7c 14bd 97e6 913a
000000c0: f9b3 d53a 67d2 173a 93dc 2abd b0ae a6bc
000000d0: 4a7a b43d f2f9 a6bc aa96 97bd bcc1 573d
000000e0: f835 1f3e 4ae8 4fbd 2361 67be ddaa d4bc
000000f0: 6a07 a13c 7ff6 f43c ba8f 42bb f31b 87be
00000100: 5d4b 6bbe cbe4 cd3d 07ef 01be 99d0 1cbd
00000110: 9943 8abd 819d 403d 85ae 6a3d 6221 9cbd
00000120: 8480 96bd 6579 d3bd 7363 1cbe f5e5 a9bd
00000130: 84a2 ea3d 4414 2a3c 538c 96bc 0827 0ebe
00000140: 60a4 203e 31d2 aebd 8a34 4ebd 7fc9 95bd
00000150: 4cd8 c1bd c46a 58bc c7a4 a03c ecb2 e5bd
00000160: 134f ac3d aefb 9c3d ef8d 90bd 7ad7 febc
00000170: 70d1 4fbd ad52 4e3c 2997 553e d504 a93d
00000180: 465a c53d 3133 7ebc 1c00 4ebd 6f91 6abc
00000190: af6d 863d ff01 14be 4ac7 8c3d 9469 ba3d
000001a0: 6f6b ccbd 6af9 4dbe e785 df3d 0670 03be
000001b0: a73a 0a3e e456 c93c ac0a 073d df3c b5bd
000001c0: 382f 2f3d 5abb d03a e3f1 21bb fda8 193e
000001d0: 4a87 15bd 7b66 34be 97e4 2e3d 9a86 793c
000001e0: 2c55 dabb bdf2 93bc 20de 9bbd b98f bcbd
000001f0: 0b6f 59bd 9781 d2bc e9fd 47bd 8176 96bd
00000200: 4e0e fe3d 1751 d3bc d62a e5bd cfc5 f73d
00000210: 06d2 b6bd 7646 ad3d 157b cebd 5f8e 7c3c
00000220: 1f0e 533d acbf 313e d12d 01be 40ab 353d
00000230: 93af 01be 0f8d 463d 5ad4 46bc b0dd 22be
00000240: 0e2c c13d d0d4 ac3c b36c b93d 6d7c 47bd
00000250: ccb4 153d baf6 e23d de9d 523c 7ff2 7dbd
00000260: 5223 a13c 8144 94bd a0b7 163d d5fb 86bd
00000270: 3f43 113d 2e49 8f3d 1eea f0bd 33a0 4cbe
00000280: d038 35be 8efe a13d 503a 163e ff41 703d
00000290: afa0 a73d 6903 ca3c 4298 aa3d 5020 57be
000002a0: ba64 92bc 4f41 053e b4e2 0f3e 5b62 b23d
000002b0: a5f2 293d 42cd 0dbe dcad 56bd d5b9 893d
000002c0: 4708 06bd 4171 103e 6d75 173e 8304 c3bc
000002d0: 08db 23bc 7eb7 2fbd 80b5 4bbd fd31 b3bc
000002e0: 49fd c63d a453 8abd 76c1 59ba f49a f1bd
000002f0: 716c c8bc 0cd1 c3bc dab4 ec3d b149 a63c
00000300: 9a28 273d a2fa b63d 3ef5 16bd 3702 b33d
00000310: 84cf 1e3d 30e9 31bc 951c afbd b5ca 1d3d
00000320: 3ab7 cc3d f977 d73c 2921 cbbd 3a24 24be
00000330: 2686 1b3e 53da 163e 17ea bebc ee30 893d
00000340: 9840 73bd 1e1a eabd 01c8 473d d4ac 153d
00000350: 1cd5 c4bc 2aef 6abc abd8 7c3d 05e4 88bd
00000360: 3db4 103c 79e3 f3bd bd3a 91bc 77d0 f6bd
00000370: 33bf 3fbe 01fb b63d 2a5b da3d 1434 4fbe
00000380: a28d 273e e558 103c 8b6c e13d 8037 a63d
00000390: dafa fabd 0dcb d6bc 7262 533e 3e8c 77bd
000003a0: d4b0 cd3c 878d 003e 909c 013e 821e 36bd
000003b0: 5c28 f33d 4fe7 353e 81bf d33a 2bb8 7ebd
000003c0: aef0 eabd e1e4 233d 8252 40bd 4a13 a43d
000003d0: 470f 91bd ea37 0fbe 7f1a 1ebe 2dd5 a33d
000003e0: 60a9 f63d a6c1 34bd 2f96 58be 7693 43bd
000003f0: 4591 babd 3aa9 2fbc eb78 203d 5946 4dbe

encoder_lstm.lstm.bias_ih_l0 f4 [192]
-0.23100194 -0.077045575 -0.18280655 -0.105542734 -0.17608282 0.160326 -0.021585027 0.08378231
0.022756666 0.059368633 0.109844975 -0.09940525 0.07584082 -0.042262997 -0.26437318 -0.033391234
0.017433194 -0.102696344 -0.10956318 -0.109486185 -0.15816472 -0.2217975 -0.2305905 -0.14596319
0.064765915 -0.02897925 -0.1344737 0.07716692 -0.090344064 -0.085407734 -0.15401956 -0.12559769
-0.0018056382 0.08140549 -0.01239988 -0.13243648 -0.10635376 -0.06308826 -0.12680477 0.06929545
0.03532651 -0.16723993 0.11633871 -0.033738475 -0.23492806 -0.07207135 -0.09311941 -0.082641244
-0.20162004 -0.20121627 0.017514221 -0.08737567 -0.2076005 -0.084178604 -0.09417509 -0.10690346
-0.012863819 0.051082704 0.040607043 -0.17331924 -0.12377769 -0.20549995 -0.10066088 -0.10727577
0.019371768 0.09284318 -0.23465766 -0.23238002 -0.116322435 0.015087526 -0.0055352356 -0.08047828
0.036319464 -0.111357294 -0.078836754 -0.071179844 -0.0919934 -0.09591613 -0.28939542 -0.12909736
-0.14225665 -0.0496483 -0.025905408 0.00022781444 0.0050887447 0.024458073 -0.0064659473 -0.06085337
-0.07144874 -0.025062118 0.13930468 0.060426105 -0.2161572 -0.083913766 -0.0654401 -0.108507656
-0.037615344 0.013375611 -0.0004979279 -0.124083735 -0.106076464 0.068402395 0.018546134 -0.06650749
-0.05042723 0.060871728 0.013990897 0.0930344 -0.099638045 -0.024706116 -0.11776699 0.13917546
0.056104857 0.12965609 0.0021230543 0.046300046 0.0659591 0.06560365 -0.1300945 0.02201362
-0.1259451 0.020949967 -0.13933796 0.02792093 0.14330938 0.024590326 0.078824714 -0.03569472
-0.021208366 0.09702105 -0.03063567 -0.054531783 -0.0068441345 0.027408265 -0.07020102 0.13380736
0.03434661 -0.10837283 -0.054740924 0.0030284456 -0.02392172 -0.00948907 -0.014474861 -0.091267824
-0.053841192 -0.17594612 0.06058204 -0.11234689 -0.068361335 0.04569455 -0.013650351 -0.18915386
-0.17934796 0.13500617 0.07226822 -0.10466817 -0.08174366 -0.11402135 0.16493014 0.16654314
-0.014779456 -0.08483866 -0.118999965 -0.113416635 -0.092228495 0.0007957703 -0.22930962 -0.1963331
0.025413748 -0.1293557 -0.23331392 -0.029880015 0.008981616 0.034928348 0.018124815 0.16715893
-0.021339055 -0.1830064 0.03377401 0.04645792 0.025758786 0.025584703 -0.11443536 -0.07334776
-0.14711846 -0.062096436 -0.3343244 0.0991593 -0.2796624 0.054142445 0.052902725 -0.16844736
00000000: c68b 6cbe 12ca 9dbd a431 3bbe ca26 d8bd
00000010: 0e4f 34be 802c 243e 15d3 b0bc 0f96 ab3d
00000020: 306c ba3c 862c 733d 67f6 e03d fb94 cbbd
00000030: 6f52 9b3d f71b 2dbd ec5b 87be 3fc5 08bd
00000040: 0fd0 8e3c 7652 d2bd a962 e0bd 4b3a e0bd
00000050: eff5 21be e21e 63be eb1f 6cbe 6077 15be
00000060: fea3 843d e465 edbc 79b3 09be b109 9e3d
00000070: 4f06 b9bd 40ea aebd 4eb7 1dbe ae9c 00be
00000080: 2aab ecba ecb7 a63d de28 4bbc 6e9d 07be
00000090: 00d0 d9bd 6b34 81bd 1cd9 01be c6ea 8d3d
000000a0: 88b2 103d f240 2bbe fd42 ee3d 5b31 0abd
000000b0: fb90 70be 259a 93bd 64b5 bebd d03f a9bd
000000c0: 7c75 4ebe a30b 4ebe fc79 8f3c 04f2 b2bd
000000d0: 3a95 54be d565 acbd dfde c0bd 34f0 dabd
000000e0: c4c2 52bc 193c 513d 9253 263d 997a 31be
000000f0: 287f fdbd 946e 52be 4b27 cebd 66b3 dbbd
00000100: 8bb1 9e3c 9124 be3d 194a 70be 07f5 6dbe
00000110: 753a eebd ac31 773c ec60 b5bb ccd1 a4bd
00000120: b8c3 143d 4b0f e4bd 2a75 a1bd bdc6 91bd
00000130: 0967 bcbd ad6f c4bd a32b 94be 1932 04be
00000140: baab 11be 045c 4bbd 9437 d4bc 79e1 6e39
00000150: 7cbf a63b 4c5c c83c 4ce0 d3bb 6241 79bd
00000160: b853 92bd 124f cdbc e3a5 0e3e 5d81 773d
00000170: 5058 5dbe fbda abbd 7605 86bd 4339 debd
00000180: 8c12 1abd 6125 5b3c 6087 02ba 9d1f febd
00000190: 9e3e d9bd 8e16 8c3d 10ee 973c 1435 88bd
000001a0: c88c 4ebd a254 793d 133a 653c d288 be3d
000001b0: 080f ccbd 7b64 cabc d22f f1bd 0384 0e3e
000001c0: 35ce 653d 91c4 043e f122 0b3b 1ea5 3d3d
000001d0: 9115 873d 355b 863d 7e37 05be e855 b43c
000001e0: c1f7 00be 449f ab3c 9cae 0ebe 6fba e43c
000001f0: b2bf 123e a771 c93c da6e a13d a034 12bd
00000200: 2bbd adbc f9b2 c63d a8f7 fabc b85c 5fbd
00000210: c344 e0bb 4c87 e03c 8dc5 8fbd cc04 093e
00000220: 08af 0c3d 93f2 ddbd 0538 60bd e378 463b
00000230: 7cf7 c3bc 0b78 1bbc f827 6dbc a0ea babd
00000240: 9588 5cbd 382b 34be e024 783d 2016 e6bd
00000250: 0701 8cbd 352a 3b3d b9a5 5fbc 8db1 41be
00000260: fea6 37be 0f3f 0a3e 5c01 943d 445c d6bd
00000270: 3869 a7bd 0784 e9bd 72e3 283e 498a 2a3e
00000280: 8825 72bc e4bf adbd 41b6 f3bd fb46 e8bd
00000290: 4be2 bcbd 3e9b 503a 24d0 6abe 8b0b 49be
000002a0: 7e30 d03c d275 04be d8e9 6ebe efc6 f4bc
000002b0: a127 133c 0711 0f3d 7e7a 943c b62b 2b3e
000002c0: 3ecf aebc 0866 3bbe 9e56 0a3d a94a 3e3d
000002d0: 1704 d33c 0397 d13c 165d eabd 5a37 96bd
000002e0: 39a6 16be d558 7ebd 912c abbe 0814 cb3d
000002f0: e92f 8fbe 78c4 5d3d 87b0 583d 777d 2cbe

encoder_lstm.lstm.bias_hh_l0 f4 [192]
0.049979124 0.03846197 0.013120312 -0.030590316 -0.115269154 -0.093585625 -0.14269817 0.053955346
0.06809011 -0.11953306 -0.01036365 0.008135621 -0.16109529 0.025211696 -0.25453725 -0.12915558
0.039637063 -0.09824259 -0.0037694986 0.007954923 -0.14557005 -0.13406333 -0.21696346 -0.2262741
-0.026718775 -0.054025985 -0.09854713 -0.15132378 0.06368904 -0.14734939 -0.21890724 0.030839872
0.00031908922 -0.060315557 -0.21960483 -0.053569738 0.0710017 -0.13843462 -0.020579167 -0.11776007
0.09929065 -0.025594607 0.19878277 0.112724416 -0.22899972 0.020195268 -0.0066638165 -0.23258266
-0.095949896 -0.10295158 0.038556986 0.034200314 -0.15978017 -0.10590249 -0.20615213 0.02815217
-0.012927895 0.027894186 -0.030968951 -0.020841438 -0.047860287 -0.029747443 -0.24051364 -0.13309172
-0.04490197 0.08136999 -0.21477816 -0.16931848 -0.14793518 -0.16414009 -0.22133785 -0.032790594
-0.041260835 -0.21525581 0.00284168 -0.19543943 -0.05127068 -0.1363977 -0.26547888 -0.09071578
-0.113917924 -0.058611512 -0.03699359 -0.047217064 -0.0152309695 -0.19724941 -0.15891714 -0.118449405
-0.10327854 0.005991163 0.107696734 0.03736648 -0.01839812 -0.21572423 -0.22255634 0.027570512
-0.07821618 -0.1012221 -0.17021357 0.076477855 0.14781024 -0.11107834 0.031871334 -0.09957256
-0.11268032 0.12973574 -0.061756156 -0.06793646 0.006788172 -0.10528247 0.14915325 -0.05030119
0.10438012 0.07931806 0.13501444 -0.014615073 0.1437679 -0.10312281 0.06789711 0.04870935
0.04356643 -0.0050941883 0.08080715 0.054759704 0.117777295 -0.012217761 -0.05028696 0.08462763
0.03784422 -0.09286879 -0.06574222 -0.046238013 -0.15473883 -0.09651497 -0.06636172 0.03809774
-0.1042618 -0.09469144 0.04188085 0.09054345 0.022856317 -0.010073433 -0.10554052 0.054960493
-0.25165373 -0.21000889 0.09924028 -0.116532154 -0.080688745 -0.002013897 0.025427021 -0.12705897
-0.23914544 0.068209484 -0.09986626 -0.006744299 0.027343217 0.04808277 0.086954385 0.31712082
-0.07751089 -0.12549566 -0.17358662 -0.10604058 -0.0035427331 -0.20286803 -0.014001039 -0.27037087
-0.1048605 -0.16397853 -0.20053716 -0.0021161935 -0.12151988 -0.010192359 0.044021565 0.102987744
0.10384053 -0.008643871 -0.18323138 -0.1525654 0.11422139 -0.105252996 -0.19372801 -0.08795509
-0.19465704 -0.0921758 -0.18107054 -0.052084096 -0.060405977 -0.029193055 -0.084558785 -0.012826845
00000000: e9b6 4c3d 4c8a 1d3d 94f6 563c 8b98 fabc
00000010: 3c12 ecbd d2a9 bfbd 781f 12be 4800 5d3d
00000020: d472 8b3d c0cd f4bd 4ccc 29bc 454b 053c
00000030: 2af6 24be c288 ce3c b552 82be 5c41 04be
00000040: 795a 223d 6933 c9bd b109 77bb 5e55 023c
00000050: 5110 15be e647 09be ab2b 5ebe 66b4 67be
00000060: 55e1 dabc 5a4a 5dbd 14d3 c9bd 9ff4 1abe
00000070: 666f 823d c2e2 16be 3829 60be e6a3 fc3c
00000080: 6e4b a739 720d 77bd 17e0 60be f16b 5bbd
00000090: 5769 913d cec1 0dbe a495 a8bc 312c f1bd
000000a0: e558 cb3d c8ab d1bc b68d 4b3e 0fdc e63d
000000b0: e77e 6abe 8c70 a53c 255c dabb 262a 6ebe
000000c0: 6181 c4bd 47d8 d2bd eeed 1d3d a115 0c3d
000000d0: 6a9d 23be 68e3 d8bd 8b19 53be 619f e63c
000000e0: 86cf 53bc 5982 e43c 99b2 fdbc aabb aabc
000000f0: 2609 44bd e9b0 f3bc 3549 76be 3249 08be
00000100: 21eb 37bd 4fa5 a63d ceee 5bbe d361 2dbe
00000110: 527c 17be 5714 28be 64a6 62be 6e4f 06bd
00000120: 1f01 29bd 056c 5cbe 7b3b 3a3b 4621 48be
00000130: 3401 52bd d7ab 0bbe d9ec 87be 32c9 b9bd
00000140: cd4d e9bd a012 70bd 9786 17bd ae66 41bd
00000150: 518b 79bc c0fb 49be 2dbb 22be 9a95 f2bd
00000160: b383 d3bd 8551 c43b 1b90 dc3d 980d 193d
00000170: a7b7 96bc d0e6 5cbe cfe5 63be 8edb e13c
00000180: ce2f a0bd 884d cfbd 774c 2ebe 6ca0 9c3d
00000190: 915b 173e 0a7d e3bd 848b 023d b3ec cbbd
000001a0: f1c4 e6bd 72d9 043e 06f4 7cbd 4522 8bbd
000001b0: 506f de3b 569e d7bd a1bb 183e 9f08 4ebd
000001c0: 3fc5 d53d 8271 a23d 3a41 0a3e 0f74 6fbc
000001d0: e437 133e 0d32 d3bd a40d 8b3d 7583 473d
000001e0: b772 323d 26ed a6bb 387e a53d b64b 603d
000001f0: 3935 f13d 012d 48bc b3f9 4dbd 4051 ad3d
00000200: 8a02 1b3d fe31 bebd dba3 86bd 1264 3dbd
00000210: db73 1ebe a4a9 c5bd a7e8 87bd 600c 1c3d
00000220: 3687 d5bd 96ed c1bd 418b 2b3d d86e b93d
00000230: 2c3d bb3c 0a0b 25bc a125 d8bd 411e 613d
00000240: c2d8 80be 920c 57be 7d3e cb3d 69a8 eebd
00000250: 2440 a5bd 96fb 03bb 544c d03c bf1b 02be
00000260: 8be2 74be 6ab1 8b3d af86 ccbd 48ff dcbb
00000270: e2fe df3c 70f2 443d 2415 b23d a95d a23e
00000280: 08be 9ebd ef81 00be b1c0 31be ce2b d9bd
00000290: 332d 68bb a3bc 4fbe 9d64 65bc 0d6e 8abe
000002a0: 1ac1 d6bd fde9 27be 9d59 4dbe d6af 0abb
000002b0: 6adf f8bd dafd 26bc f54f 343d 3deb d23d
000002c0: 58aa d43d 069f 0dbc 02a1 3bbe 1b3a 1cbe
000002d0: e7ec e93d e28e d7bd a360 46be cc21 b4bd
000002e0: 2d54 47be aac6 bcbd 8e6a 39be 2256 55bd
000002f0: 426c 77bd 4626 efbc 282d adbd b027 52bc

decoder_lstm.lstm.weight_ih_l0 f4 [192, 10]
0.080893 0.1109782 -0.027721692 0.034134425 -0.06448778 0.1329315 -0.11474825 0.04025435
0.040497363 0.009794821 -0.13974074 0.077674806 0.07177567 0.12590486 0.04946064 -0.15381752
-0.13663748 -0.00033302733 0.27681184 0.022943247 0.21178351 0.07561727 -0.14063193 -0.06639262
-0.07606828 -0.17339818 -0.08135009 0.039630983 -0.08724526 0.09833829 -0.03292504 0.039452825
-0.08023351 -0.11026499 0.051412594 -0.07247189 -0.05043316 -0.0009069779 0.0989241 0.09540401
0.040819116 -0.060146216 0.087848455 0.25418732 -0.0475199 -0.012527654 0.009955585 -0.17085232
0.20228265 -0.3366424 -0.041913718 -0.13643736 0.0016765386 0.0749913 0.0021774722 0.00033091742
0.022951081 0.09611069 -0.10721637 0.07256403 0.117221504 -0.06803991 -0.0018607785 -0.18182743
0.026898324 -0.08591173 0.06352975 -0.038327117 -0.033553593 0.08542688 -0.06095251 0.07865928
0.038007095 -0.015447902 0.18518282 -0.11692124 -0.025741087 -0.10737451 0.034281906 -0.07806488
0.24357097 -0.013336351 -0.025002299 0.26424134 0.04808623 0.12614243 -0.029644363 -0.16726895
0.23615761 -0.1875478 0.2149825 -0.027939454 0.043956123 -0.10021783 0.17269976 0.1738867
-0.062412582 -0.071725465 -0.09940869 0.019291624 -0.07730792 -0.06844196 0.041709594 0.056401342
0.09147495 -0.12448361 0.056977686 -0.14316538 0.03473367 0.05280996 0.036163315 -0.12703183
-0.19363858 -0.04878477 0.108047426 0.0042438176 -0.058237806 0.11636105 -0.040215585 0.20861469
-0.08127486 0.1272265 0.07559839 -0.11887249 -0.06494957 0.0017513072 -0.14404497 -0.07348631
0.08440503 0.032636106 0.036834233 0.10363543 0.048759725 0.12608904 0.10611057 0.17771646
0.0115204705 -0.027829446 0.13042681 -0.056784254 0.1734484 0.057119463 0.13185968 0.27030966
0.1370021 0.097478434 -0.021028725 -0.03683725 0.17421794 -0.29821908 -0.032053627 -0.21197376
-0.09909064 0.054567933 -0.08431444 0.10791904 0.023037085 -0.24123532 0.2154347 -0.12205958
0.031374563 -0.25582188 -0.054625247 -0.019980256 0.037442904 0.11590905 0.1305135 -0.03781358
-0.04022053 0.040624075 0.09885635 -0.0047142142 0.14658226 0.2485375 0.16781926 -0.16404948
-0.083335236 -0.1488614 0.15075834 -0.20197831 0.01947737 -0.09345559 0.08736879 0.070964776
0.0031530375 0.03541106 0.043858215 0.09266894 0.0066994065 0.12329564 -0.14650224 -0.08437858
0.1446995 -0.06589301 -0.12391213 0.10426373 0.087368816 -0.018357718 -0.08788724 -0.13033374
-0.07647836 -0.34041572 0.14883275 -0.16409893 0.09210126 0.025732338 -0.090546094 -0.11414581
-0.040802434 0.10561138 0.07671517 0.014943267 -0.030930562 0.09639899 -0.04763513 -0.019369375
0.059277665 -0.07772571 0.14763838 -0.06568499 -0.039651323 0.02649164 -0.19523062 -0.10941089
0.047943544 -0.18856199 -0.18209448 -0.19873701 0.14177816 -0.0572094 -0.06338731 -0.12915063
0.08635428 -0.08215313 0.027378261 -0.0646965 -0.092251346 0.06625435 -0.08835416 -0.09428554
0.050706655 0.25859386 0.003225435 -0.013972634 0.11929266 0.053471413 0.046809025 0.106800534
0.0023206652 -0.11183647 0.08148463 -0.23617636 0.16820626 -0.12135694 -0.10815188 0.09175461
00000000: 3bab a53d 8a48 e33d 9a18 e3bc 8ad0 0b3d
00000010: 2b12 84bd 321f 083e 2101 ebbd bfe1 243d
00000020: 90e0 253d 757a 203c 3218 0fbe f813 9f3d
00000030: 1fff 923d 34ed 003e 3d97 4a3d 5782 1dbe
00000040: b2ea 0bbe 2c9a aeb9 48ba 8d3e 7af3 bb3c
00000050: c7dd 583e 3add 9a3d d101 10be dbf8 87bd
00000060: b0c9 9bbd 4b8f 31be e09a a6bd 1954 223d
00000070: a5ad b2bd 9665 c93d 68dc 06bd 4999 213d
00000080: 7751 a4bd 9cd2 e1bd 0396 523d 246c 94bd
00000090: 0093 4ebd 42c2 6dba b898 ca3d 2d63 c33d
000000a0: f231 273d e15b 76bd e4e9 b33d d724 823e
000000b0: 3aa4 42bd ca40 4dbc c01c 233c e9f3 2ebe
000000c0: 2f23 4f3e 655c acbe b8ad 2bbd 3cb6 0bbe
000000d0: 4dbf db3a 0a95 993d ecb3 0e3b fc7e ad39
000000e0: e803 bc3c aed5 c43d 4294 dbbd 739c 943d
000000f0: d411 f03d 8258 8bbd 5ee5 f3ba f830 3abe
00000100: e059 dc3c 7df2 afbd e31b 823d e5fc 1cbd
00000110: 7e6f 09bd 4af4 ae3d 57a9 79bd 1e18 a13d
00000120: 54ad 1b3d 3219 7dbc 91a0 3d3e 6774 efbd
00000130: f9de d2bc 2be7 dbbd 2f6b 0c3d 7be0 9fbd
00000140: ab6a 793e b680 5abc 9fd1 ccbc a44a 873e
00000150: 11f6 443d 7b2b 013e bcd8 f2bc 8d48 2bbe
00000160: 4dd3 713e 880c 40be 5f24 5c3e 48e1 e4bc
00000170: 560b 343d 013f cdbd 35d8 303e 5b0f 323e
00000180: 56a4 7fbd cde4 92bd c996 cbbd 7809 9e3c
00000190: 9d53 9ebd 4c2b 8cbd aed7 2a3d 1805 673d
000001a0: 3857 bb3d 43f1 febd 6f61 693d f299 12be
000001b0: e544 0e3d 424f 583d fc1f 143d a214 02be
000001c0: 3149 46be 8ad2 47bd f847 dd3d b90f 8b3b
000001d0: c48a 6ebd b44e ee3d 19b9 24bd 179f 553e
000001e0: 6f73 a6bd aa47 023e 54d3 9a3d 6c73 f3bd
000001f0: 4804 85bd 1e8c e53a 8680 13be fe7f 96bd
00000200: 8bdc ac3d 70ad 053d 7edf 163d d03e d43d
00000210: 47b8 473d 7c1d 013e 8050 d93d 4efb 353e
00000220: 5bc0 3c3c 94fa e3bc 9b8e 053e 9b96 68bd
00000230: 759c 313e 19f6 693d 3906 073e 0766 8a3e
00000240: 474a 0c3e c6a2 c73d 6f44 acbc a8e2 16bd
00000250: 3066 323e 2cb0 98be aa4a 03bd a60f 59be
00000260: 09f0 cabd a082 5f3d 0dad acbd a804 dd3d
00000270: 45b8 bc3c 6406 77be ea9a 5c3e 60fa f9bd
00000280: 9d82 003d 16fb 82be b9be 5fbd a2ad a3bc
00000290: bb5d 193d b961 ed3d 55a5 053e 6ae2 1abd
000002a0: 48be 24bd 6e65 263d 3375 ca3d b279 9abb
000002b0: a919 163e 9d80 7e3e d0d8 2b3e 96fc 27be
000002c0: aaab aabd 1f6f 18be 6560 1a3e 67d3 4ebe
000002d0: 018f 9f3c a565 bfbd 68ee b23d fb55 913d
000002e0: 31a3 4e3b 300b 113d aca4 333d 37c9 bd3d
000002f0: b286 db3b 6d82 fc3d af04 16be adce acbd
00000300: 1b2c 143e eaf2 86bd a5c5 fdbd 3988 d53d
00000310: 6cee b23d ed62 96bc 3afe b3bd 3576 05be
00000320: b0a0 9cbd f84a aebe 9d67 183e 8d09 28be
00000330: 969f bc3d a0cc d23c 3b70 b9bd 47c5 e9bd
00000340: 7420 27bd c74a d83d d81c 9d3d 9bd4 743c
00000350: 1762 fdbc d56c c53d 0e1d 43bd 86ac 9ebc
00000360: 23cd 723d a82e 9fbd 842e 173e da85 86bd
00000370: 6d69 22bd ff04 d93c 89ea 47be d112 e0bd
00000380: 7360 443d 6516 41be fa76 3abe b781 4bbe
00000390: 4b2e 113e 6754 6abd 35d1 81bd 1040 04be
000003a0: 83da b03d e63f a8bd 6048 e03c 997f 84bd
000003b0: 46ee bcbd 5cb0 873d 07f3 b4bd c718 c1bd
000003c0: c8b1 4f3d 6a66 843e d261 533b 7aed 64bc
000003d0: b64f f43d d704 5b3d d2ba 3f3d 3dba da3d
000003e0: 4d16 183b 850a e5bd 6ae1 a63d 37d8 71be
000003f0: 433e 2c3e fd89 f8bd bc7e ddbd d7e9 bb3d

decoder_lstm.lstm.weight_hh_l0 f4 [192, 48]
-0.13258317 0.054691944 0.1107818 0.054600853 -0.028649613 0.062461656 -0.012543228 0.07113456
0.14498907 -0.15045977 0.071926005 -0.11506059 0.035247292 -0.060115572 -0.104479745 -0.09433636
-0.21575126 -0.10094855 -0.07477718 0.04451693 -0.057718437 0.14491273 0.11346465 -0.19790258
-0.16359577 0.109537266 0.07943476 -0.024801647 0.021288836 -0.076624595 -0.032737646 -0.065673925
0.124431245 -0.14323787 0.060384203 0.10487646 0.03798971 0.18466431 0.08174687 -0.04845058
0.013066303 -0.03682706 0.08013574 0.0006885118 -0.043763135 0.062080592 0.27317703 -0.038134873
-0.033019453 -0.101355985 -0.024649331 -0.07941965 -0.1691805 0.12266335 0.068710126 -0.04826014
-0.057454225 -0.14671227 -0.027012425 0.04536357 0.13409232 0.014966716 -0.16950601 0.03579165
-0.21529864 0.08901765 -0.041378792 0.077861615 0.053590138 0.08220948 -0.09618372 -0.079546586
-0.041456103 -0.17091982 0.010439586 -0.075924054 0.02510564 -0.17200099 0.012880879 0.040178295
-0.0793843 -0.00814173 0.14268346 0.029897837 -0.022511406 0.10133107 0.06193673 0.06894077
0.014476821 0.02649821 -0.016942339 0.11109895 -0.09627001 -0.035477616 0.12281024 -0.00035131164
0.05047202 -0.02270466 0.03933818 0.23214307 0.115646936 0.091620244 -0.05449464 0.10686966
0.014591335 -0.016486013 0.07990301 0.098053426 -0.12495765 -0.03595216 0.013879537 -0.030412894
-0.11951492 0.09569958 0.06972786 -0.034460016 -0.04674602 -0.0025422208 0.051195256 0.09366439
0.10029268 0.107232384 0.051654465 -0.039355066 -0.20370756 0.053063486 -0.030236749 0.08139102
-0.06887958 -0.055837467 -0.030159855 -0.03191245 -0.09361894 -0.095082976 -0.005395973 -0.110694885
-0.13773587 0.07940741 0.02017234 -0.041300766 -0.08153707 0.03692337 0.15071729 0.14033175
-0.017312268 0.07944638 0.06065395 0.06563406 0.044671997 0.11877798 0.07518952 0.07171533
-0.1304851 -0.22755148 0.123173654 0.0025156685 0.051195603 -0.057874158 -0.09268597 -0.0680439
-0.07888921 0.04316519 -0.03178494 -0.08872777 -0.15116443 -0.177321 0.15613249 -0.054099422
0.2990394 0.019962834 -0.18080576 -0.0956196 0.0307231 0.019779459 -0.05234884 -0.01698109
0.009026323 0.0845735 0.032275327 -0.02635473 0.15280913 -0.04209382 0.089925386 -0.13370511
-0.15395515 0.027312435 0.07139935 0.06922337 0.11365251 -0.10952903 0.038959533 -0.01499257
0.019462269 -0.10195256 0.0066583073 0.14959328 0.1291647 0.18499847 -0.008140523 -0.06295954
-0.028569985 0.02615295 -0.005424577 0.035542913 -0.06404235 -0.01899537 0.20488137 0.14339405
0.109360166 0.060439438 0.012897552 0.041230697 -0.109146684 0.0013495624 -0.005447806 0.057733737
-0.028470477 -0.08400477 0.15885787 -0.03368804 -0.0959771 0.056072403 0.011475629 -0.16675462
-0.14864302 0.019623937 -0.052194662 -0.091765925 -0.05204542 0.035257936 -0.07730911 -0.00543698
-0.10477343 -0.07244156 0.16954131 -0.20539281 0.03732835 0.00035588298 0.13528605 0.16573212
-0.064559184 -0.14224869 -0.15351018 0.056565702 -0.059222937 -0.14021708 0.08770042 0.034480818
-0.093414545 -0.08199342 -0.24323323 -0.030170681 0.23624341 -0.11327261 -0.023109335 0.075863734
00000000: e2c3 07be a904 603d 91e1 e23d 25a5 5f3d
00000010: 98b2 eabc cbd7 7f3d 1d82 4dbc ffae 913d
00000020: 0478 143e 2012 1abe f14d 933d e3a4 ebbd
00000030: 775f 103d bf3b 76bd 7af9 d5bd 6c33 c1bd
00000040: e6ed 5cbe 1dbe cebd c724 99bd 6257 363d
00000050: 2b6a 6cbd 0164 143e 2860 e83d f9a6 4abe
00000060: a685 27be 1355 e03d b1ae a23d d32c cbbc
00000070: ed65 ae3c 5bed 9cbd e917 06bd 0d80 86bd
00000080: cfd5 fe3d f3ac 12be 6d55 773d 78c9 d63d
00000090: 199b 1b3d a418 3d3e e76a a73d 1e74 46bd
000000a0: 0c14 563c f9d7 16bd 351e a43d 3f7d 343a
000000b0: f940 33bd 3848 7e3d dcdd 8b3e 5033 1cbd
000000c0: 683f 07bd ba93 cfbd 65ed c9bc c5a6 a2bd
000000d0: a73d 2dbe ec36 fb3d e5b7 8c3d 6dac 45bd
000000e0: 1f55 6bbd be3b 16be 2949 ddbc 27cf 393d
000000f0: 7f4f 093e f536 753c fc92 2dbe 449a 123d
00000100: 3f77 5cbe e34e b63d cf7c 29bd e975 9f3d
00000110: 5581 5b3d 725d a83d f8fb c4bd 52e9 a2bd
00000120: e0cd 29bd 9b05 2fbe cc0a 2b3c 127e 9bbd
00000130: 58aa cd3c 0721 30be 530a 533c ff91 243d
00000140: 3c94 a2bd e464 05bc 9d1b 123e 4fec f43c
00000150: d769 b8bc aa86 cf3d 5eb1 7d3d d230 8d3d
00000160: 3030 6d3c c612 d93c a9ca 8abc d987 e33d
00000170: 3629 c5bd fa50 11bd ef83 fb3d 4030 b8b9
00000180: c0bb 4e3d 20ff b9bc 1221 213d eab6 6d3e
00000190: 4dd8 ec3d 65a3 bb3d c635 5fbd 7bde da3d
000001a0: 7f10 6f3c ad0d 87bc 30a4 a33d 3cd0 c83d
000001b0: cce9 ffbd 9242 13bd ff66 633c 7624 f9bc
000001c0: 3dc4 f4bd 24fe c33d 7bcd 8e3d f225 0dbd
000001d0: c178 3fbd 639b 26bb 1eb2 513d 1ed3 bf3d
000001e0: 4066 cd3d a79c db3d a293 533d c732 21bd
000001f0: b798 50be 1959 593d 0fb3 f7bc 56b0 a63d
00000200: bd10 8dbd d4b5 64bd cd11 f7bc a1b6 02bd
00000210: 49bb bfbd ddba c2bd b4d0 b0bb 00b4 e2bd
00000220: a20a 0dbe 5aa0 a23d 7740 a53c fe2a 29bd
00000230: e8fc a6bd f63c 173d a255 1a3e 20b3 0f3e
00000240: 75d2 8dbc c9b4 a23d 4770 783d 266b 863d
00000250: fcf9 363d df41 f33d f7fc 993d 7ddf 923d
00000260: e39d 05be 4103 69be 7842 fc3d eadd 243b
00000270: 7bb2 513d 740d 6dbd 24d2 bdbd 9a5a 8bbd
00000280: ab90 a1bd fbcd 303d ed30 02bd e8b6 b5bd
00000290: d9ca 1abe a393 35be 32e1 1f3e 5b97 5dbd
000002a0: b11b 993e 1989 a33c 2525 39be 35d4 c3bd
000002b0: 03af fb3c 8808 a23c bd6b 56bd ed1b 8bbc
000002c0: 25e3 133c df34 ad3d 2233 043d e0e5 d7bc
000002d0: ff79 1c3e 926a 2cbd cd2a b83d fee9 08be
000002e0: 6ba6 1dbe 54be df3c d339 923d fbc4 8d3d
000002f0: a6c2 e83d c250 e0bd 0894 1f3d 65a3 75bc
00000300: 566f 9f3c 81cc d0bd ee2d da3b fb2e 193e
00000310: c043 043e 3d70 3d3e d45f 05bc eef0 80bd
00000320: 9a0b eabc b63e d63c a6c0 b1bb 7295 113d
00000330: a328 83bd 2e9c 9bbc 6ccc 513e e4d5 123e
00000340: 39f8 df3d 588f 773d 4150 533c 85e1 283d
00000350: 4c88 dfbd cde3 b03a 8283 b2bb 367a 6c3d
00000360: eb3a e9bc b10a acbd a3ab 223e 78fc 09bd
00000370: a48f c4bd 2dac 653d 4704 3c3c b9c1 2abe
00000380: e035 18be 61c2 a03c 12ca 55bd c6ef bbbd
00000390: 942d 55bd a06a 103d 3d54 9ebd b228 b2bb
000003a0: 7493 d6bd 3e5c 94bd 3d9c 2d3e 7e52 52be
000003b0: 9de5 183d ce95 ba39 6d88 0a3e aeb5 293e
000003c0: 9b37 84bd a4a9 11be c631 1dbe 70b1 673d
000003d0: c093 72bd 1195 0fbe 479c b33d c23b 0d3d
000003e0: 2050 bfbd 2bec a7bd 2212 79be 8128 f7bc
000003f0: cbe9 713e 78fb e7bd ca4f bdbc 725e 9b3d

decoder_lstm.lstm.bias_ih_l0 f4 [192]
-0.1982202 -0.17871477 0.0002986316 -0.16117266 -0.16319486 -0.18351722 0.011526232 0.14553571
-0.07209129 0.06168163 0.0004190897 0.021647727 0.035435833 -0.12355106 -0.017472785 0.1049707
0.08071374 0.12711382 0.11686537 0.028050473 -0.15963237 -0.010577939 0.037143975 -0.08478338
-0.05575516 -0.13566737 0.010351505 -0.03770232 -0.2014273 0.07393815 0.06122121 -0.059034422
-0.19329254 -0.09015331 -0.21883808 -0.07465422 0.022415798 -0.21967007 -0.12322495 0.07450243
-0.1625436 -0.15381652 0.12771784 -0.14571227 0.07535256 -0.018894594 0.0088424105 0.04170512
-0.06254312 0.102501824 0.0959137 -0.023833785 0.17830014 -0.03902666 -0.16114691 -0.114532396
0.07122018 0.102712505 0.040048476 0.018420856 -0.11511066 -0.12778595 0.0365187 0.2089397
-0.16183628 0.14715159 -0.18305722 -0.09551586 -0.08945584 0.035962727 -0.14060986 -0.07848285
0.00212344 -0.15044232 -0.101946145 -0.07190883 -0.16376676 -0.0034390977 -0.06379581 -0.28371394
-0.07739926 0.008201396 -0.18405922 0.07017171 0.04239504 0.09059345 -0.12975004 0.15372682
-0.10858859 -0.17704907 0.34955704 0.012156413 -0.09028111 0.0021407283 -0.16851166 -0.12718941
-0.061282177 -0.13852213 0.086204275 0.10740254 0.101530775 -0.081526585 -0.111536786 -0.07795789
-0.06095942 0.11259752 -0.07985959 0.06306782 -0.09949747 -0.11017069 -0.0007012008 0.09509853
0.11404846 -0.11513471 -0.025248969 -0.13546199 0.029157711 0.1236559 -0.18651016 0.0035075399
-0.007822972 0.011432676 0.024642933 -0.114865296 -0.15325539 0.044597026 0.0028837975 -0.007502174
-0.08262889 0.1060218 -0.09607968 0.028105995 0.03298343 0.079044215 0.02684584 0.0023070222
0.009125835 0.03123622 -0.013072003 -0.09081203 0.097477324 -0.12998621 0.10119174 -0.045072142
-0.09630519 -0.05234335 -0.11435928 -0.034803234 -0.12736215 -0.111741774 -0.23021352 -0.03388635
0.0017892552 -0.04845426 0.048618518 -0.15467359 0.043996084 -0.14505188 -0.0011468286 0.060619727
0.06872767 0.0906396 0.063870884 -0.15580815 -0.20748883 -0.10907042 -0.0020798661 -0.2757428
-0.204778 -0.012336151 -0.08169742 -0.23282528 0.069600895 -0.0031545477 -0.014356561 -0.24125028
-0.19614667 0.10172526 -0.16368851 -0.186028 -0.038380075 -0.050803445 -0.054172464 0.0945382
-0.103003755 -0.013981403 -0.060849782 0.03215596 -0.13280259 -0.13487582 -0.1480807 -0.028469179
00000000: 3cfa 4abe 0101 37be a891 9c39 720a 25be
00000010: 8e1c 27be f0eb 3bbe 85d8 3c3c 5007 153e
00000020: 99a4 93bd e0a5 7c3d 44b9 db39 9356 b13c
00000030: 2a25 113d 5708 fdbd 1623 8fbc e1fa d63d
00000040: 3f4d a53d 202a 023e 1c57 ef3d 1bca e53c
00000050: ab76 23be 184f 2dbc 4824 183d e9a2 adbd
00000060: 865f 64bd 63ec 0abe 5c99 293c bf6d 1abd
00000070: f542 4ebe e36c 973d 17c3 7a3d 14ce 71bd
00000080: 7bee 45be 4ca2 b8bd 1717 60be 50e4 98bd
00000090: 56a1 b73c 31f1 60be 5d5d fcbd bb94 983d
000000a0: d471 26be 1482 1dbe 77c8 023e 9935 15be
000000b0: 7152 9a3d d6c8 9abc c2df 103c fdd2 2a3d
000000c0: 9b16 80bd 7aec d13d 676e c43d 123f c3bc
000000d0: 5094 363e 6bda 1fbd b203 25be f68f eabd
000000e0: e3db 913d ef5a d23d df09 243d 56e7 963c
000000f0: 23bf ebbd 52da 02be a294 153d 4af4 553e
00000100: 69b8 25be e8ae 163e 5a73 3bbe d29d c3bd
00000110: a034 b7bd a74d 133d 08fc 0fbe 9ebb a0bd
00000120: 6929 0b3b 8d0d 1abe 24c9 d0bd f044 93bd
00000130: 79b2 27be 7c62 61bb 61a7 82bd f442 91be
00000140: 8183 9ebd 265f 063c 057a 3cbe 2fb6 8f3d
00000150: 6ca6 2d3d 0f89 b93d 32dd 04be 906a 1d3e
00000160: b263 debd 5a4c 35be 24f9 b23e b12b 473c
00000170: 4de5 b8bd 764b 0c3b 528e 2cbe f13d 02be
00000180: 0503 7bbd bfd8 0dbe de8b b03d ddf5 db3d
00000190: 5eef cf3d 69f7 a6bd 666d e4bd 63a8 9fbd
000001a0: 96b0 79bd 8799 e63d 6d8d a3bd b429 813d
000001b0: 54c5 cbbd 2ca1 e1bd cad0 37ba 05c3 c23d
000001c0: 3d92 e93d bfcb ebbd edd6 cebc 8cb6 0abe
000001d0: 27dc ee3c 4e3f fd3d 85fc 3ebe c1de 653b
000001e0: ec2b 00bc 1e50 3b3c fadf c93c 7f3e ebbd
000001f0: fbee 1cbe 5fab 363d 18fe 3c3b ccd4 f5bb
00000200: 5639 a9bd f521 d93d 6cc5 c4bd 8b3e e63c
00000210: a219 073d efe1 a13d cfeb db3c 6931 173b
00000220: 8784 153c 1ae3 ff3c f42b 56bc a8fb b9bd
00000230: 31a2 c73d 1b1b 05be 9d3d cf3d 919d 38bd
00000240: a83b c5bd fb65 56bd 3335 eabd d68d 0ebd
00000250: 396b 02be dfd8 e4bd 18bd 6bbe 6acc 0abd
00000260: 7185 ea3a f977 46bd 3624 473d c162 1ebe
00000270: 3d35 343d 7b88 14be 2f51 96ba 644c 783d
00000280: 18c1 8c3d 41a1 b93d bdce 823d 2c8c 1fbe
00000290: f477 54be 5060 dfbd 5d4e 08bb 292e 8dbe
000002a0: 53b1 51be 911d 4abc fa50 a7bd c069 6ebe
000002b0: ea8a 8e3d 87bc 4ebb c837 6bbc 500a 77be
000002c0: acda 48be 5555 d03d f69d 27be 207e 3ebe
000002d0: 6d34 1dbd 4617 50bd f2e3 5dbd 3e9d c13d
000002e0: a2f3 d2bd 4112 65bc 9f3d 79bd f8b5 033d
000002f0: 67fd 07be e31c 0abe 78a2 17be 3238 e9bc
