notebook/model_artifacts/10Iteration__LR0.00079__NonClipp__LeakyReluMHA__Epsilon1e-07__Threshold_13-08__ComplexLossisTRUE_NOBatchNorm.pt (torch, 289096 bytes, 28 tensors)

batch_norm_layer.batch_norm_layer.weight f4 [10]
0	0x3f86ac49	1.0521327
1	0x3f92b54f	1.1461581
2	0x3f87f3d3	1.0621284
3	0x3f829774	1.020247
4	0x3f83172f	1.024145
5	0x3f806cb3	1.0033172
6	0x3f82fa81	1.0232698
7	0x3f851c15	1.0399195
8	0x3f8540ed	1.0410439
9	0x3f86e6bb	1.0539163

batch_norm_layer.batch_norm_layer.bias f4 [10]
0	0x3b62b1f7	0.0034590939
1	0xbdedf1f0	-0.116184115
2	0xbbde725a	-0.006788534
3	0xbd1b9cab	-0.037991207
4	0x3c582198	0.013191603
5	0xbd721967	-0.059106257
6	0xbc79acd0	-0.015238956
7	0xbcef5454	-0.029215015
8	0x3cdfc92d	0.027317608
9	0xbd1c06aa	-0.038092293

batch_norm_layer.batch_norm_layer.running_mean f4 [10]
0	0x3eaaaaa8	0.33333325
1	0x4723f60f	41974.06
2	0xbe25d1bd	-0.1619329
3	0xbdd5918a	-0.1042815
4	0xbd08cfa4	-0.033401147
5	0x3db33962	0.08751179
6	0x3d916566	0.07099418
7	0xbd9b3034	-0.075775534
8	0xbe711572	-0.23543337
9	0xbd4b1a78	-0.04958579

batch_norm_layer.batch_norm_layer.running_var f4 [10]
0	0x3d7a66d2	0.061133213
1	0x4c3fb72a	5.0257064e+07
2	0x3cd47563	0.02593488
3	0x3cce9ce1	0.02522129
4	0x3e32ee10	0.17473626
5	0x3d8ed0ad	0.069733955
6	0x3d35ede8	0.04441634
7	0x3e09c695	0.1345466
8	0x3df15d99	0.117854305
9	0x3e7f9ade	0.24961421

embedd_layer.embedd_layer.weight f4 [3060, 8]
0	0xbeb27ff4	-0.34863245
1	0xbe5f9ea7	-0.21837865
2	0x3eed3823	0.4633189
3	0xbe9046ab	-0.28178915
4	0xbcef29ac	-0.029194675
5	0xbee03380	-0.4378929
6	0x3e76f374	0.24116307
7	0xbee6c226	-0.45069999
8	0x3d2d4a5a	0.042307235
9	0x3df39df0	0.118953586
10	0xbc215ef0	-0.009849295
11	0x3e9c14c6	0.304846
12	0x3eb99ffb	0.36254868
13	0xbe59bc64	-0.21263272
14	0xbf0a1961	-0.53944975
15	0x3f2677cb	0.6502654
16	0xbe37c7d2	-0.17947319
17	0xbe5a8a9a	-0.21341935
18	0xbf0dbd85	-0.5536731
19	0x3e7539e2	0.23947862
20	0xbdf6855a	-0.120371535
21	0x3ed8ad86	0.42319888
22	0xbed0e71c	-0.40801322
23	0xbeb2575b	-0.34832272
24	0xbe7b1d7a	-0.24522963
25	0xbeee879b	-0.46587834
26	0xbf0d5747	-0.552113
27	0x3fcc10cb	1.5942625
28	0x3f0fc8b3	0.5616562
29	0xbf6bb469	-0.9207216
30	0xbf93257a	-1.1495812
31	0x3e7b53af	0.24543642
32	0x3ec24f39	0.37951067
33	0x3c875171	0.016518326
34	0x3efd9d0f	0.4953389
35	0xbf5c13ec	-0.859679
36	0xbf7af1a3	-0.9802496
37	0xbfe3ea50	-1.7805882
38	0xbfcb5912	-1.5886557
39	0xbf90f66a	-1.13252
40	0xbf6c3665	-0.922705
41	0xbe04126a	-0.1289765
42	0xbdc56db4	-0.09640065
43	0x3f14f63a	0.5818821
44	0x3f24666e	0.64218795
45	0x3e653fcb	0.22387616
46	0xbf8007a5	-1.0002333
47	0x3ee7ec86	0.4529764
48	0x401edc39	2.4821913
49	0xbeeab3af	-0.45840213
50	0x3eec6918	0.4617393
51	0xbe8160f5	-0.25269285
52	0x3f16d702	0.58921826
53	0x3f81dae2	1.0144923
54	0xbfeaf7c2	-1.835686
55	0xbecb3deb	-0.39695677
56	0x3f4cd286	0.80008733
57	0x3fad8c16	1.3558376
58	0x3e85969b	0.26091465
59	0x3e089f83	0.13342099
60	0xbeb5e520	-0.3552637
61	0xbfb54382	-1.4161227
62	0xbdaa412a	-0.0831321
63	0x3e20a76b	0.15688865
64	0x3ec321a3	0.381116
65	0xbe09c4bc	-0.13453954
66	0xc00f3490	-2.2375832
67	0xbf99affc	-1.2006831
68	0xbfa2da22	-1.2722819
69	0x3f7beae9	0.9840532
70	0x3ee9fd67	0.45701143
71	0xc03033fc	-2.7531729
72	0x3e33f11e	0.17572448
73	0x3f5702db	0.8398873
74	0x3eeab950	0.45844507
75	0x3f0a7067	0.5407776
76	0x3e361dc3	0.1778479
77	0xc04e6b3d	-3.2252953
78	0x3df10117	0.11767786
79	0xbf16e040	-0.5893593
80	0xbdbd9e2a	-0.09258683
81	0xbfef9a03	-1.8718876
82	0x3d1ad9e2	0.037805445
83	0xbfa0e0f1	-1.2568647
84	0xbd7e2f16	-0.062056623
85	0xbfd57202	-1.6675417
86	0xbe100148	-0.14062989
87	0xbefe5e8f	-0.49681517
88	0x3d0cb6ef	0.034354147
89	0x3fa3c994	1.2795892
90	0x3f04273e	0.5162238
91	0x3ec94b14	0.39315093
92	0xc000dbd8	-2.0134182
93	0xbdbd3d2c	-0.09240183
94	0x3fa3de5d	1.2802235
95	0xbf800073	-1.0000137
96	0x3fce69fd	1.6126095
97	0x3fa2ac9f	1.270893
98	0x40164dd7	2.348501
99	0xc00deaa3	-2.217446
100	0x3e07c032	0.1325691
101	0x3f10bd7d	0.56539136
102	0x3cb8ee47	0.022574557
103	0xbe73e1a1	-0.2381654
104	0xbf0db9ed	-0.55361825
105	0x3e89c915	0.26911226
106	0xbf86447e	-1.0489652
107	0x3f8a52b5	1.080649
108	0x3f431ef0	0.7621908
109	0x3e8bda74	0.27315104
110	0x3ffd778e	1.980211
111	0x3f967aef	1.1756266
112	0x3f2d06a9	0.6758829
113	0xbf289d8a	-0.65865386
114	0xbe1fb387	-0.15595828
115	0x3df8353f	0.12119531
116	0x3f67f778	0.9061198
117	0xbef8305d	-0.48474398
118	0x3e4e865f	0.20168446
119	0x3ef6929d	0.48158732
120	0xbfcd3db1	-1.6034452
121	0x3f44ba11	0.76846415
122	0xbd47c34c	-0.048770234
123	0x3f3f560a	0.7474066
124	0x3fac85ef	1.3478373
125	0x3c62c962	0.013841959
126	0x3f83ffa5	1.0312392
127	0x3ec1832d	0.37795392
128	0xbfd467f1	-1.659422
129	0xbfbb247f	-1.4620513
130	0x3f74b68b	0.9559104
131	0xbfd5bccb	-1.669824
132	0xbef20c17	-0.4727485
133	0x3e2d931a	0.16950646
134	0x3f8932d8	1.0718641
135	0x3e561bad	0.20908995
136	0xbf6413e1	-0.8909283
137	0xbf969867	-1.176526
138	0xbfcf0d29	-1.6175891
139	0x3f93d5f6	1.1549671
140	0xbea0c5c0	-0.3140087
141	0xbf81dcc8	-1.0145502
142	0xbec89dcc	-0.3918289
143	0x3f1d4fd0	0.6144991
144	0x3dd7599d	0.10515139
145	0xbde3023f	-0.11084413
146	0x3fc29278	1.5200949
147	0x3ccc5658	0.024943516
148	0x3eef7d5e	0.46775335
149	0xbf4feb8f	-0.8121881
150	0xbf0365e8	-0.5132737
151	0x3f97321e	1.181217
152	0xbf14d49b	-0.5813691
153	0x3e82c5e3	0.255416
154	0x3dfa37a3	0.12217643
155	0x400ad097	2.1689813
156	0xbe8ddfed	-0.27709904
157	0x404a09d9	3.156851
158	0x3ec31dde	0.38108724
159	0x3e99fe51	0.3007684
160	0xbf03bbf0	-0.51458645
161	0xbf9df29a	-1.2339661
162	0x3db49c16	0.088188335
163	0xbf7ed650	-0.99545765
164	0x3cd67e61	0.026183309
165	0x3fcfd0f5	1.6235644
166	0xbf92e584	-1.1476293
167	0xbfdbb24c	-1.7163787
168	0xbe192be6	-0.14958152
169	0xbd684fe8	-0.05671683
170	0xbf841f18	-1.0321989
171	0xbf4d7865	-0.8026183
172	0xc0302162	-2.7520375
173	0xbf1360e6	-0.5756973
174	0xbfca6fd6	-1.581538
175	0xbf81c29e	-1.0137517
176	0xbe3b4d01	-0.18291093
177	0xbf620200	-0.882843
178	0xbe0adcbf	-0.1356077
179	0xbfca24d0	-1.5792484
180	0xbeb17325	-0.3465816
181	0xbc76f60c	-0.015073311
182	0x3f4a8144	0.79103494
183	0xbe96c538	-0.2944734
184	0x3e5bc3d3	0.2146142
185	0xbe896328	-0.26833463
186	0xbf6b6b24	-0.9196036
187	0x3fa5ae60	1.294384
188	0x3f9e8880	1.2385406
189	0xbf0679d5	-0.5252965
190	0x3eb8e914	0.36115324
191	0xbee90c23	-0.45517072
192	0x3f71fd61	0.9452725
193	0xbf6977c2	-0.9119836
194	0xbf18fad4	-0.59757733
195	0x3ebfca56	0.37459058
196	0xbff8309b	-1.9389833
197	0x3d17ac99	0.037029836
198	0xbfab10e0	-1.3364525
199	0x3f38b23a	0.7214695
200	0xbf2f02e4	-0.68363786
201	0xbf548617	-0.83017105
202	0x3fa72c5d	1.3060414
203	0xc0225f5b	-2.53707
204	0x3f0a40cf	0.5400514
205	0xbd72076d	-0.059089113
206	0x3edea5de	0.43485922
207	0xbf5324bb	-0.8247792
208	0xbf42e951	-0.7613726
209	0xbfea55dd	-1.8307453
210	0xbeb03f3e	-0.3442325
211	0x3fa5b7a0	1.2946663
212	0x3f7e4291	0.9932032
213	0x3fc9b5cf	1.5758609
214	0xbf70f257	-0.9411978
215	0x3e57f050	0.21087766
216	0xbf1f1203	-0.6213686
217	0xbd468441	-0.04846597
218	0x3d626e15	0.055280764
219	0xbf423bd5	-0.75872546
220	0xbf8e0ec2	-1.1098254
221	0xbf6bfd9c	-0.9218385
222	0xbd445abd	-0.047938097
223	0xbea302b4	-0.31838
224	0x3f6f3d7a	0.9345318
225	0x3fc49c04	1.5360112
226	0x3da65ed9	0.081235595
227	0x3f2ccdfa	0.67501795
228	0x3f90348b	1.1266035
229	0x3f94bcfe	1.1620176
230	0xbdfe6b4b	-0.12422808
231	0x3e2c49de	0.16825053
232	0xbf04ebd4	-0.51922345
233	0xbee655cc	-0.44987333
234	0xbeb12aa3	-0.34602842
235	0xbd184ed1	-0.03718454
236	0x3fc12efb	1.5092462
237	0x3f22d2c8	0.63602877
238	0x3f2e9add	0.6820505
239	0x3eed9a2f	0.46406695
240	0x3fa2cf24	1.2719464
241	0x3ef4acaa	0.47787982
242	0xbfcbdf99	-1.5927612
243	0xbe02a996	-0.12760004
244	0xbe798665	-0.24367674
245	0x3fd7066b	1.6798834
246	0xbfb9dfa8	-1.452138
247	0xbef7e94b	-0.48420176
248	0xbe8458d0	-0.2584901
249	0xbec9112f	-0.39270923
250	0xbd8089d0	-0.06276286
251	0x3e39a493	0.18129186
252	0xbf1da70b	-0.6158301
253	0x3f5dad38	0.86592436
254	0x3e07046e	0.13185284
255	0x3fa1ee33	1.2650818

encoder_lstm.lstm.weight_ih_l0 f4 [192, 10]
0	0x3e481ccf	0.1954224
1	0x3db2dee2	0.08733918
2	0xbe219bf1	-0.15782143
3	0x3c471d72	0.012153016
4	0xb7e39efa	-2.7134538e-05
5	0xbd8937eb	-0.06700119
6	0x3dc21ae4	0.09477785
7	0x3cffbc17	0.031217618
8	0xbd6e2a77	-0.058145966
9	0x3d683073	0.05668683
10	0x3c29e9c7	0.010370678
11	0x3de76562	0.11298634
12	0x3e13655d	0.14394136
13	0x3e03c1ee	0.12866947
14	0x3d9f5bf2	0.07781209
15	0xbd5c8ed2	-0.05384714
16	0x3d4aaf3f	0.049483534
17	0xbe4eac0f	-0.20182823
18	0xbd06bf7b	-0.032897454
19	0x3e0a9639	0.13533868
20	0x3e5a77ee	0.21334812
21	0xbd8113f0	-0.06302631
22	0xba330cbc	-0.00068302057
23	0x3dcfd4c1	0.101480015
24	0x3cd0d1c2	0.025490645
25	0xbd3edf14	-0.046599463
26	0xbd93804e	-0.072022066
27	0xbd10e0ff	-0.035370823
28	0x3e303d75	0.17210944
29	0x3d6d46ee	0.057928972
30	0xbe42aa58	-0.19010293
31	0xbd5d4d8a	-0.054029025
32	0xbce8fe77	-0.02844165
33	0x3e289585	0.16463287
34	0x3dee4022	0.11633326
35	0x3ddbf98d	0.107409574
36	0x3e8835fa	0.2660368
37	0xbe0a0959	-0.13480128
38	0xbd66e0a3	-0.056366574
39	0x3e97dd22	0.29660898
40	0xbd2edc57	-0.0426906
41	0xbdc06a69	-0.09395296
42	0xbe5424e2	-0.20717195
43	0x3d88d04a	0.06680353
44	0x3e41103b	0.18853848
45	0xbd2c6556	-0.04208883
46	0xbd4444e4	-0.04791726
47	0xbe446ae1	-0.19181396
48	0x3e3fd71c	0.18734401
49	0xbd72f5c4	-0.05931641
50	0x3d43f7ce	0.047843747
51	0x3df4216a	0.11920436
52	0x3db8daa4	0.090260774
53	0x3d0f3fc9	0.03497294
54	0x3d81ab47	0.06331497
55	0xbddc257e	-0.107493386
56	0x3e194730	0.14968562
57	0xbdd2c0a2	-0.10290648
58	0xbd122803	-0.03568269
59	0x3dbe0585	0.092783965
60	0x3dd95917	0.10612696
61	0xbe5ee6f5	-0.2176779
62	0xbdc6b7a4	-0.097029954
63	0xbda044e6	-0.07825641
64	0xbd216237	-0.039400306
65	0xbe43db2b	-0.19126575
66	0xbe1cf5e4	-0.15328175
67	0xbd6d9916	-0.058007322
68	0xbcf3ecfc	-0.029776089
69	0x3cc7fa59	0.024411367
70	0x3d9b22c5	0.07574991
71	0x3e2eea75	0.17081626
72	0xbd724cdd	-0.059155334
73	0x3c3b9731	0.011449621
74	0xbca104fb	-0.019655695
75	0xbdd63879	-0.1045999
76	0xbcec5ce6	-0.028852891
77	0x3c2fec89	0.010737547
78	0x3dbbe655	0.09174792
79	0xbd18e507	-0.037327792
80	0x3e527766	0.2055336
81	0x3d34675c	0.044043884
82	0xbc3ff686	-0.011716491
83	0xbe219b77	-0.15781961
84	0x3e23154c	0.15926093
85	0x3cb7a796	0.022418778
86	0xbb16bde7	-0.0023001374
87	0xbdc23be1	-0.09484077
88	0x3d38cea0	0.045118928
89	0x3c24fba6	0.010069763
90	0xbd4c0215	-0.049806673
91	0x3d81d306	0.06339078
92	0xbe1abc4d	-0.15110894
93	0xbb5a457f	-0.0033305583
94	0xbd618a60	-0.055063605
95	0xbd174fef	-0.036941465
96	0x3a8dcb44	0.0010818024
97	0xbe0f97e2	-0.14022782
98	0x3e42b07a	0.19012633
99	0x3df46164	0.11932638
100	0xbcff1a49	-0.031140463
101	0xbdcb120f	-0.09915554
102	0x3d1bb062	0.03801001
103	0xb9afed34	-0.0003355533
104	0xbe387448	-0.18013108
105	0x3e1102a5	0.14161165
106	0xbc92f1f4	-0.017937638
107	0xbd21be8e	-0.039488368
108	0x3cc00c46	0.023443352
109	0x3d820f95	0.06350628
110	0x3d6bb5f1	0.05754656
111	0x3e4741ed	0.19458742
112	0x3dbb1454	0.09134737
113	0x3d82f1e3	0.063937925
114	0x3c9566ed	0.018237555
115	0xbe3dfc5d	-0.185533
116	0x3df590be	0.11990498
117	0x3d1b3a4a	0.037897386
118	0xbd1091af	-0.035295185
119	0x3d560971	0.052255098
120	0xbd74cb93	-0.059764456
121	0x3e230005	0.15917976
122	0xbe1a7495	-0.15083535
123	0x3db0d458	0.08634251
124	0xbdbbc755	-0.09168879
125	0xbe5ce34b	-0.2157108
126	0xbc5d9435	-0.013524105
127	0xbd143bc7	-0.03618982
128	0x3dce7ba7	0.100821786
129	0xbde8f81c	-0.11375448
130	0x3e2760aa	0.16345468
131	0xbde99f88	-0.11407381
132	0xbe333cab	-0.17503612
133	0x3cb12c3f	0.021627543
134	0x3ccb594c	0.024822854
135	0xbe092dfc	-0.13396448
136	0x3cedfa5f	0.02905005
137	0xbdcb1db4	-0.09917775
138	0x3e68eaa7	0.22745763
139	0xbd510540	-0.051030397
140	0xbda49c83	-0.08037665
141	0xbe286665	-0.1644531
142	0xbd9f2f74	-0.07772723
143	0x3e0e7636	0.13912281
144	0x3e231709	0.15926756
145	0x3da429e1	0.080158
146	0x3df008a9	0.11720402
147	0xbca38edc	-0.019965582
148	0xbc963750	-0.018336922
149	0x3da4b660	0.08042598
150	0x3d820e34	0.06350365
151	0x3dddebd2	0.10835995
152	0x3d72c7da	0.059272625
153	0xbd92d23a	-0.07169004
154	0x3d9a4a08	0.075336516
155	0x3df48df2	0.119411364
156	0xbe1af023	-0.15130667
157	0xbd2c0a3d	-0.04200195
158	0xbc2c36cb	-0.010511111
159	0xbd72ffda	-0.05932603
160	0x3da5582f	0.0807346
161	0xba929402	-0.0011183026
162	0x3b3c5345	0.0028736156
163	0x3ddc918d	0.10769949
164	0xbd8b4a60	-0.06801295
165	0x3cc90021	0.024536194
166	0xbd6a5bac	-0.05721633
167	0xbde9f083	-0.11422827
168	0xbd2cf0d3	-0.042221855
169	0x3cf5b59e	0.029993828
170	0xbd4a6f7b	-0.049422722
171	0xbe84959f	-0.25895402
172	0xbcf2b6a5	-0.029628107
173	0xbdd62058	-0.10455388
174	0x3e268c77	0.1626452
175	0xbe375fbf	-0.17907618
176	0xbe107806	-0.14108285
177	0xbe1ccfbe	-0.15313622
178	0x3a11f4a0	0.0005567763
179	0x3c8deb81	0.017324211
180	0xbd69ca90	-0.057077944
181	0x3c0ad597	0.008473775
182	0xbcf2b476	-0.029627066
183	0xbd7c45f9	-0.06159017
184	0x3afe772a	0.0019414176
185	0xbe02340e	-0.1271517
186	0x3d2ee610	0.042699873
187	0xbd8b6675	-0.068066515
188	0x3d89fd99	0.06737823
189	0xbd9fbe4c	-0.07799968
190	0x3d80d44d	0.06290493
191	0x3cec66fc	0.0288577
192	0x3d759ddf	0.05996501
193	0xbe0e15e7	-0.13875543
194	0xbd65cba9	-0.05610243
195	0xbe0e0dc8	-0.13872445
196	0x3c484d01	0.01222539
197	0xbe2a1ef2	-0.16613367
198	0xbccf6776	-0.025317889
199	0xbe1eb215	-0.1549762
200	0xbd16a7f7	-0.036781278
201	0x3d89f23d	0.067356564
202	0xbde34747	-0.110975794
203	0x3d08addd	0.033368934
204	0x3e4c3b04	0.19944388
205	0xbceae607	-0.028674139
206	0xbd8f6da7	-0.070033364
207	0xbe3154d3	-0.17317514
208	0x3deae68c	0.114697546
209	0x3cd0d612	0.025492702
210	0xbe6ac272	-0.22925738
211	0xbe69b5e0	-0.22823286
212	0x3daa17e8	0.08305341
213	0xbc286bb7	-0.0102795875
214	0xbdd65c21	-0.10466791
215	0x3d65c4ce	0.05609589
216	0xbd2f5351	-0.042804066
217	0xba0da5c7	-0.0005403426
218	0xbe3485c1	-0.17629148
219	0xbd583a5d	-0.052790035
220	0x3e18d3dc	0.14924568
221	0xbe2fb75d	-0.17159791
222	0x3ce6513a	0.028114904
223	0xbdb3616e	-0.087588176
224	0x3dc8b129	0.097994156
225	0xbe6b47f5	-0.22976668
226	0xbdc2285a	-0.09480353
227	0x3d9c859f	0.07642674
228	0x3e0ad686	0.13558397
229	0x3ccdea89	0.02513625
230	0x3d113c19	0.035457704
231	0xbe2a46e7	-0.1662861
232	0x3d059c22	0.032619603
233	0x3dab9bc6	0.08379321
234	0x3d67af64	0.05656375
235	0xbdd39197	-0.103305034
236	0x3d4b8a11	0.049692217
237	0xbdf0a2ca	-0.117497995
238	0xbc680565	-0.014161442
239	0x3dc6027f	0.09668445
240	0xbda56ebb	-0.08077761
241	0xbded485b	-0.11586066
242	0xbd9786f6	-0.07398789
243	0xbd12856d	-0.035771776
244	0x3e7bf774	0.24606115
245	0xbe4b6c63	-0.19865565
246	0x3e6fe0cb	0.23425595
247	0xbe56dd77	-0.2098292
248	0x3e5b886a	0.21438757
249	0x3dc391bb	0.0954928
250	0x3c889064	0.016670413
251	0x3e38c211	0.1804278
252	0x3e1ed67f	0.15511511
253	0xbcbf8f04	-0.023383625
254	0xbcbdf23f	-0.023186801
255	0x3d0d9415	0.03456505

encoder_lstm.lstm.weight_hh_l0 f4 [192, 48]
0	0x3e3c90e8	0.18414652
1	0x3cab6b4b	0.020925185
2	0x3b81684c	0.0039492007
3	0x3e63366b	0.22188728
4	0xbe0fc644	-0.14040476
5	0xbd9f41ab	-0.07776197
6	0xbe34d2b8	-0.17658508
7	0x3e17bae6	0.1481739
8	0xbe0f9e93	-0.14025335
9	0xbcec6bff	-0.02886009
10	0xbc886400	-0.016649246
11	0xbd4b62f9	-0.049654935
12	0xbe2733ec	-0.163284
13	0x3ccc1da7	0.024916483
14	0xbc7d7118	-0.015468858
15	0x3c17bb48	0.00926096
16	0x3caef717	0.021358056
17	0xbded3e95	-0.11584202
18	0xbdc181f5	-0.094486155
19	0x3d8588a5	0.065202035
20	0x3d63f1db	0.055650573
21	0x3dd35b89	0.10320193
22	0x3ac2b9da	0.0014856413
23	0xbd2b66c2	-0.041846044
24	0xbd9d9196	-0.07693784
25	0x3d8d4830	0.06898534
26	0x3e074358	0.13209283
27	0xbd014376	-0.031558476
28	0x3daa8535	0.083261885
29	0x3bb60c04	0.0055556316
30	0x3cc97bb2	0.024595115
31	0xbca592fd	-0.020211691
32	0xbd7c41a1	-0.061586026
33	0xbd86e737	-0.065870695
34	0x3da3c904	0.07997325
35	0x3df4ebf9	0.11959071
36	0x3df24985	0.11830429
37	0x3dfe346c	0.124123424
38	0x3d70e95e	0.058816306
39	0xbd04bd6d	-0.032407213
40	0xbdb9338f	-0.09043037
41	0xbe29e109	-0.1658975
42	0xbc7ea467	-0.015542126
43	0xbd074100	-0.033020973
44	0xbe123e7e	-0.14281651
45	0xbaa1074a	-0.0012285498
46	0x3db6d18f	0.08926689
47	0x3d9244c2	0.07142021
48	0xbd88ca2c	-0.06679186
49	0xbdb01369	-0.08597452
50	0xbcc01ec3	-0.023452168
51	0xbdeefa96	-0.11668889
52	0xbdf94c73	-0.12172785
53	0x3d7c8fe2	0.061660655
54	0xbdbffa6a	-0.093739346
55	0x3de0b341	0.1097169
56	0xbe212311	-0.15736033
57	0xbd837674	-0.064190775
58	0xbde32a37	-0.11092036
59	0x3da5c0c5	0.080934085
60	0x3d8b3d18	0.06798762
61	0xbd3d17d0	-0.046165287
62	0xbce1f7e2	-0.02758402
63	0xbdb76471	-0.089547046
64	0xbd2738f3	-0.040825795
65	0x3e0f7b0b	0.14011781
66	0xbca4b0d2	-0.020103846
67	0xbab54f0e	-0.0013832764
68	0x3dca3280	0.09872913
69	0x3dbffd0c	0.09374437
70	0xbdb2686f	-0.087113254
71	0xbe26913c	-0.1626634
72	0x3d8c3cdb	0.06847545
73	0xbe010009	-0.1259767
74	0x3d241512	0.040059157
75	0x3dae0f7e	0.08499049
76	0x3d610213	0.05493362
77	0x3db66e6f	0.08907782
78	0xbddc8f44	-0.10769513
79	0x3c06e79f	0.008233934
80	0xbdf4a0e7	-0.11944752
81	0x3e285da1	0.16441967
82	0x3e4778c9	0.1947967
83	0x3deaa3c5	0.11457018
84	0xbdfad2e0	-0.122472525
85	0x3dd280c7	0.102784686
86	0xbe15a41f	-0.14613388
87	0xbdc11f1e	-0.09429763
88	0x3dd844c3	0.1055999
89	0xbd0ca2a1	-0.034334783
90	0xbdf05c4b	-0.117363535
91	0x3e185953	0.14877824
92	0xbcd2afe7	-0.025718642
93	0xbdc388fc	-0.09547612
94	0x3d498e61	0.04920805
95	0xbe0ff2c2	-0.14057449
96	0x3e10e917	0.14151417
97	0xbdeabfa3	-0.11462333
98	0x3e071d13	0.13194685
99	0xbd139c10	-0.036037505
100	0x3ddcde96	0.107846424
101	0xbdadff33	-0.08495941
102	0x3e05eaef	0.13077901
103	0x3d4249b1	0.04743356
104	0x3d4b9ccc	0.04971008
105	0xbcde0b6e	-0.02710506
106	0x3d96757d	0.07346628
107	0x3abf34e0	0.0014587902
108	0x3d8d582d	0.06901584
109	0x3c6e573d	0.014547166
110	0xbdc8edb0	-0.0981096
111	0x3d881d39	0.06646199
112	0xbd47a1b9	-0.048738215
113	0x3da38865	0.079849996
114	0xbca7f705	-0.02050353
115	0xbad38b59	-0.0016139551
116	0x3e1ce34f	0.15321086
117	0xbcd5a56e	-0.02607986
118	0x3cdcc0a2	0.026947323
119	0x3ca93b87	0.020658268
120	0xbe11ba78	-0.14231288
121	0xbdc985f3	-0.09840002
122	0x3dee667e	0.116406426
123	0x3dc46f41	0.095915325
124	0xbdcffcd2	-0.101556435
125	0xbc55960a	-0.01303626
126	0x3da94490	0.082650304
127	0x3d8ee461	0.069771536
128	0x3cd395cf	0.02582827
129	0x3e503b83	0.20335202
130	0xbd23b267	-0.03996506
131	0xbe31867d	-0.1733646
132	0xbe32e1dc	-0.17468971
133	0x3e4a48b8	0.19754303
134	0x3d99f16e	0.07516752
135	0xbda569c2	-0.08076812
136	0x3dda2a3e	0.10652588
137	0x3da4eee2	0.08053376
138	0xbe28299c	-0.16422123
139	0xbe2eac26	-0.17057857
140	0xbd3bfd1d	-0.045895685
141	0x3d0f891b	0.035042863
142	0xbc883999	-0.016629027
143	0x3db26ba4	0.08711937
144	0xbd2b9766	-0.04189243
145	0xbe00fe7b	-0.12597077
146	0x3e100a4b	0.14066426
147	0x3d604822	0.05475629
148	0xbd81caaf	-0.06337487
149	0xbe1fc807	-0.15603648
150	0xbd5d9c7d	-0.054104317
151	0x3da9a5af	0.08283555
152	0x3c23a2ab	0.009987514
153	0x3d35a316	0.044344984
154	0x3d5a3747	0.053275373
155	0xbe65ce4e	-0.2244198
156	0x3c64d466	0.013966655
157	0x3da6df71	0.08148087
158	0x3e289cec	0.16466111
159	0xbd57f435	-0.05272313
160	0xbd26d28b	-0.040728133
161	0xbb76f42d	-0.0037682161
162	0xbda9dad6	-0.08293693
163	0x3e158afd	0.14603801
164	0xbe40beaf	-0.1882274
165	0xbe5eae1c	-0.21746105
166	0x3d04f8a9	0.032463703
167	0x3e89c548	0.26908326
168	0x3e584f76	0.21124062
169	0x3d513569	0.051076327
170	0xbdcfd882	-0.101487175
171	0x3c1a6b03	0.009424928
172	0xbe2eb93b	-0.17062847
173	0x3e596fbd	0.21234031
174	0xbdecc3f3	-0.11560812
175	0x3dba1d16	0.09087579
176	0x3e2b7b51	0.1674626
177	0xbd9cf679	-0.076641984
178	0xbc42636f	-0.011864527
179	0x3e645d6e	0.22301266
180	0xbe8062c7	-0.2507536
181	0x3cdd0a0a	0.026982326
182	0x3d3d60eb	0.046235006
183	0x3d478064	0.048706427
184	0xbe1185a1	-0.14211132
185	0xbe068359	-0.13136043
186	0x3bfecd72	0.007775956
187	0x3d88d600	0.06681442
188	0xbd92cc3c	-0.07167861
189	0x3d63d0ac	0.055618927
190	0x3dae02a7	0.084966
191	0x3dcc0e6b	0.099636875
192	0xbd47534a	-0.048663415
193	0x3d9a0527	0.07520514
194	0x3cb21d4d	0.021742487
195	0xbcb6c39e	-0.022310074
196	0x3cf55541	0.029947879
197	0x3d06f603	0.03294946
198	0x3e040392	0.12891987
199	0x3dd58136	0.10425036
200	0x3baceae5	0.005277025
201	0xbb693fb4	-0.0035590949
202	0xbbd72386	-0.006565514
203	0x3cfd278d	0.030902648
204	0x3d8a9282	0.067662254
205	0xbe03b3f2	-0.12861612
206	0xbe19c01b	-0.15014689
207	0xbce2987d	-0.027660603
208	0x3d9074b5	0.0705351
209	0xbc9542b9	-0.018220292
210	0xbe624aa9	-0.22098793
211	0x3cc3c8db	0.023899486
212	0x3e1b0f7b	0.15142624
213	0x3d571084	0.052505985
214	0xbdbe52bc	-0.09293124
215	0x3dce30cb	0.100679
216	0xbe3458a2	-0.17611936
217	0x3d644516	0.055729948
218	0x3ccfb27d	0.025353665
219	0xbda57976	-0.080798075
220	0xbe226bcc	-0.15861434
221	0xbd9ad1c1	-0.07559539
222	0x3dd1b8c8	0.10240322
223	0xbe519a56	-0.2046903
224	0xbe4d62e2	-0.20057252
225	0x3df60645	0.120129146
226	0xbc994023	-0.01870734
227	0xbc375c2b	-0.011191408
228	0xbdb7e23b	-0.08978697
229	0x3c87df68	0.01658602
230	0x3da577a6	0.08079462
231	0x3d90bc2a	0.070671394
232	0xbc236ec5	-0.00997514
233	0x3dcea382	0.100897804
234	0xbc971c17	-0.018446011
235	0x3cebe34b	0.028794905
236	0xbc9292bd	-0.017892236
237	0xbd1a9010	-0.037735045
238	0x3d03f7d8	0.032218784
239	0xbd097f62	-0.033568747
240	0xbe2143b8	-0.15748489
241	0xbdee0892	-0.116227284
242	0xbceebcd4	-0.029142775
243	0x3d3002a5	0.042971272
244	0xbdb9c1c0	-0.09070158
245	0x3db33e5b	0.08752128
246	0x3d0cbda1	0.03436053
247	0xbd9138c1	-0.07090903
248	0xbcc50407	-0.024049772
249	0xbe44c4ac	-0.1921565
250	0xbe1af530	-0.15132594
251	0xbd26cf60	-0.040725112
252	0xbe2b65ac	-0.16738003
253	0x3d547783	0.051871788
254	0xbd7baeab	-0.061445873
255	0xbe04edf6	-0.129814

encoder_lstm.lstm.bias_ih_l0 f4 [192]
0	0xbe4e08a3	-0.20120482
1	0xbdbf7dce	-0.09350167
2	0x3d444a33	0.047922324
3	0x3d5db337	0.05412599
4	0xbd5fc270	-0.05462879
5	0x3d6c7890	0.057732165
6	0x3e2000d5	0.15625317
7	0xbca9ae37	-0.020712955
8	0xbe0e67f2	-0.1390684
9	0x3dac9c9d	0.08428309
10	0xbd0a5fe2	-0.033782847
11	0x3c1b1417	0.009465239
12	0xbdcd4ee7	-0.10024815
13	0xbdc9d85d	-0.09855721
14	0xbe04eae7	-0.12980233
15	0x3d5c4de2	0.053785212
16	0x3d19fcc8	0.037594587
17	0xbd84b3bf	-0.06479596
18	0xbd0d3902	-0.034478195
19	0xbca1669c	-0.019702248
20	0xbe168641	-0.14699651
21	0x3dd12aca	0.102132395
22	0x3d8d93cf	0.06912958
23	0x3db91ea1	0.09039045
24	0x3de5276b	0.11189159
25	0xbe2b64f8	-0.16737735
26	0x3d23eecb	0.040022653
27	0x3df3cbd4	0.119041115
28	0xbcfa8250	-0.030579716
29	0x3d17c794	0.037055567
30	0xbe0164f2	-0.12636164
31	0xbda48cc2	-0.0803466
32	0xbda822ae	-0.082097396
33	0xbda4bf26	-0.08044271
34	0xbd5ad8a3	-0.053429257
35	0x3da9a571	0.082835086
36	0x3e2e77c4	0.17037874
37	0x3cbafaf6	0.022824746
38	0xbb15400f	-0.0022773778
39	0x3e625c20	0.22105455
40	0xbe14ba0f	-0.145241
41	0xbcd80c51	-0.02637306
42	0x3d7e0cc0	0.062023878
43	0x3dd31f39	0.103086896
44	0xbe0187bf	-0.1264944
45	0xbd24f77c	-0.040275082
46	0x3c111ea0	0.008857399
47	0xbbce95d3	-0.0063044815
48	0xbda45ed7	-0.08025902
49	0xbdd108ab	-0.102067314
50	0xbdd89daf	-0.10576951
51	0xbca9cd06	-0.020727646
52	0xbc568654	-0.01309355
53	0x3b97a03d	0.004627256
54	0x3cb80f0b	0.02246811
55	0x3d9b602b	0.07586702
56	0x3deccad3	0.11562123
57	0x3e182871	0.14859177
58	0xbbbc7b87	-0.0057520303
59	0xbb949784	-0.0045346636
60	0xbd364ef7	-0.0445089
61	0xbc9f7a59	-0.01946752
62	0x3c7fc0d8	0.015609942
63	0x3db651b3	0.08902302
64	0x3e31735b	0.17329161
65	0x3d9f85ec	0.077892154
66	0x3d9d7a71	0.076893695
67	0x3d911d92	0.07085718
68	0xbd7f997d	-0.062402237
69	0x3d73f856	0.059563003
70	0x3da01add	0.07817624
71	0xbd5221f2	-0.051301904
72	0x3e2b7bd4	0.16746455
73	0xbe5dfddb	-0.2167887
74	0xbc70bb4d	-0.0146930935
75	0xbd5aeaff	-0.053446766
76	0x3e041124	0.12897164
77	0x3d755363	0.059893977
78	0x3d80b293	0.0628406
79	0xbdbd7cc0	-0.0925231
80	0xbd26ad21	-0.040692452
81	0xbe3e1e85	-0.1856633
82	0xbc3d2dde	-0.01154658
83	0xbd8acbb7	-0.06777137
84	0x3e869c29	0.26291016
85	0xbdeffcfc	-0.11718175
86	0xbe3eaf96	-0.18621668
87	0x3e82a7f4	0.25518763
88	0x3d9cbd04	0.07653239
89	0xbe0fd7fb	-0.14047234
90	0x3d3cd874	0.046104863
91	0xbcae4a88	-0.021275774
92	0x3b764979	0.0037580414
93	0xbde18b38	-0.11012882
94	0xbd107d24	-0.035275593
95	0x3d8c6b55	0.068564095
96	0xbdb75b70	-0.08952987
97	0xbdd6c491	-0.10486711
98	0x3bd3240e	0.006443507
99	0xbdf86437	-0.121284895
100	0x3ccd097f	0.025028942
101	0xbdb6b3d8	-0.08921021
102	0x3dc761bf	0.097354405
103	0xbd92f942	-0.071764484
104	0xbb3ae784	-0.0028519342
105	0xbe073d0e	-0.13206884
106	0x3d75c464	0.060001746
107	0x3d54f068	0.05198708
108	0x3dd415cd	0.10355721
109	0xbc60acfc	-0.013713118
110	0x3de74a1a	0.112934306
111	0xbdb58187	-0.08862596
112	0xbc0ec485	-0.008713846
113	0x3def27dc	0.116775244
114	0xbd0a43b4	-0.033755973
115	0xbe0963e4	-0.13417011
116	0x3de148e7	0.11000233
117	0x3bcadc4c	0.006190812
118	0xbbef3c90	-0.007300921
119	0x3e2c7e8c	0.16845149
120	0x3c5c3880	0.013441205
121	0xbd77d02d	-0.060501266
122	0xbcdd2461	-0.026994886
123	0xbdc4da2d	-0.09611926
124	0x3de09afd	0.10967062
125	0xbdcb34bc	-0.09922168
126	0x3dab73f1	0.083717234
127	0xbcf0a0e8	-0.029373601
128	0xbc4b5d2f	-0.012412353
129	0xbd1b24ef	-0.03787702
130	0x3d252a0d	0.040323306
131	0xbcf2c106	-0.029633056
132	0x3cd1a008	0.025589004
133	0x3dcca9af	0.09993302
134	0x3e0c07ea	0.13674894
135	0xbdfaa93f	-0.122393124
136	0xbde07fe3	-0.109618925
137	0x3d810b70	0.0630101
138	0x3e211fcf	0.1573479
139	0xbdc34609	-0.095348425
140	0x3d7c4eca	0.061598577
141	0xbd288abf	-0.041147944
142	0x3d2a6d7f	0.04160833
143	0x3d49cf3b	0.049269896
144	0xbd95eb33	-0.07320251
145	0xbcf53272	-0.02993128
146	0x3d7d6f4c	0.06187372
147	0xbd058c60	-0.032604575
148	0xbd6ad28e	-0.057329707
149	0x3d39e03b	0.04537986
150	0x3e1d631f	0.15369843
151	0xbcfee51f	-0.031115113
152	0xbd7d0d66	-0.061780356
153	0x3dca30d9	0.09872598
154	0x3dfff3fe	0.1249771
155	0x3dfbe633	0.122997664
156	0x3c889ef6	0.016677361
157	0xbd61ba75	-0.05510946
158	0xbe071f22	-0.1319547
159	0x3dbc1166	0.09183006
160	0x3e2c7710	0.16842294
161	0x3c572ed7	0.013133726
162	0x3c563880	0.013074994
163	0xbdb1bfe5	-0.08679179
164	0x3de198fe	0.11015509
165	0x3ca82eb3	0.02053008
166	0xbe077dce	-0.13231584
167	0xbc8d473f	-0.017245887
168	0x3c5311ca	0.012882659
169	0xbe366d42	-0.17815116
170	0xbdbbcaea	-0.09169562
171	0xbdeb1180	-0.11477947
172	0xbcfe2a8f	-0.031026153
173	0xbc97797c	-0.018490545
174	0x3a4259fb	0.0007413921
175	0x3dfe97ca	0.12431295
176	0x3d853c3a	0.06505628
177	0xbe303b05	-0.17210014
178	0x3d08ac29	0.03336731
179	0x3dd3ce53	0.103420876
180	0x3dbdaa9c	0.09261057
181	0xbdd2a77b	-0.102858506
182	0xbddc5608	-0.10758597
183	0xbcf1f213	-0.029534375
184	0xbc459d0d	-0.01206137
185	0xbe13f1ea	-0.14447752
186	0x3e383d7a	0.17992201
187	0xbbb4c500	-0.0055166483
188	0xbdba10bc	-0.09085223
189	0xbde0c9cb	-0.10975989
190	0x3db0d4dc	0.0863435
191	0xbc1b744f	-0.009488179

encoder_lstm.lstm.bias_hh_l0 f4 [192]
0	0xbe3f4eea	-0.18682447
1	0xbce034f1	-0.027368994
2	0xbdee5e94	-0.11639133
3	0x3dd47430	0.103737235
4	0x3e1184a6	0.14210758
5	0x3da60907	0.081071906
6	0x3e0ea0d1	0.13928534
7	0xbdda4c14	-0.10659042
8	0x3cc7607f	0.024338005
9	0xbdc78682	-0.09742452
10	0xbd36b1a4	-0.044603005
11	0xbdaa4718	-0.08314341
12	0xbdd746ab	-0.10511526
13	0x3cb5a7a6	0.022174668
14	0x3d8a00d9	0.06738443
15	0xbd824770	-0.06361282
16	0xbc3f2fba	-0.011669094
17	0x3dd55a94	0.10417667
18	0xbd860a27	-0.06544905
19	0x3cbf0c14	0.023321189
20	0x3dd32f80	0.10311794
21	0x3e441d20	0.19151735
22	0x3de86632	0.11347617
23	0x3c364c44	0.011126582
24	0xba1d7ddb	-0.00060078286
25	0xbce92eee	-0.02846476
26	0xbdee6336	-0.11640017
27	0x3d3c4a78	0.045969456
28	0x3d19590b	0.037438434
29	0x3de9264a	0.11384256
30	0x3d808050	0.06274474
31	0xbbc676aa	-0.0060566263
32	0xbdd5284e	-0.10408078
33	0x3db64e26	0.089016244
34	0xbd476684	-0.04868175
35	0x3df473c5	0.11936144
36	0x3e19a9ae	0.15006134
37	0x3c082976	0.008310666
38	0xbc2bd5a1	-0.010487945
39	0x3e613303	0.21992116
40	0x3b83e89e	0.004025533
41	0x3d0bd6f8	0.034140557
42	0x3d8bc568	0.06824762
43	0x3d0711dd	0.03297602
44	0x3dadda46	0.08488898
45	0x3e0439fb	0.12912743
46	0xbdad0ac7	-0.08449321
47	0xbd40db83	-0.047084343
48	0xbc9442fa	-0.018098343
49	0xbd84b5d5	-0.06479994
50	0x3c8effab	0.017455896
51	0x3ddea2f1	0.10870922
52	0x3e069cc7	0.13145743
53	0xbd689708	-0.05678466
54	0x3e229b48	0.15879548
55	0x3dd7fbbc	0.105460614
56	0x3cefe128	0.029282168
57	0x3cd3140f	0.0257664
58	0x3d84a1c7	0.06476169
59	0xbd941228	-0.072300255
60	0xbdc11310	-0.09427464
61	0xbdaf2f49	-0.08553941
62	0x3d2cffb5	0.04223605
63	0xbd3b9032	-0.045791812
64	0x3b49b56c	0.0030778302
65	0x3e09c15a	0.13452664
66	0xbd87e3f2	-0.06635274
67	0x3dd234b3	0.10263958
68	0x3df8af17	0.12142771
69	0x3de62702	0.11237909
70	0xbdcf1324	-0.10111073
71	0x3df77108	0.12082106
72	0x3d01966e	0.0316376
73	0xbc09c5d7	-0.008408985
74	0x3de122eb	0.10992988
75	0xbc9ca65d	-0.019122297
76	0x3d266515	0.040623743
77	0x3dc346cb	0.09534987
78	0xbdfde1a1	-0.12396551
79	0x3d68f940	0.05687833
80	0xbddff9d8	-0.10936326
81	0x3dac7854	0.08421388
82	0xbd863335	-0.06552736
83	0xbd33f65b	-0.043936115
84	0x3d6954e6	0.05696573
85	0x3d962743	0.07331707
86	0xbe230492	-0.15919712
87	0x3d8d735c	0.06906769
88	0xbd4e5b7e	-0.050380222
89	0x3c6d3483	0.014477852
90	0x3d38db7c	0.04513119
91	0x3e0762d2	0.1322129
92	0xbe0d3e4d	-0.13793297
93	0x3d8acd79	0.06777472
94	0xbe2a746f	-0.16645978
95	0x3b4fe9a0	0.0031724945
96	0xbd82e544	-0.06391385
97	0xbd2fd341	-0.042926077
98	0x3c424bdd	0.0118589075
99	0xbdd19b31	-0.102346785
100	0x3dfbe16d	0.12298856
101	0x3bcacf3f	0.0061892564
102	0x3de89533	0.113565825
103	0xbcddee71	-0.027091237
104	0xbcdc24a8	-0.026872948
105	0x3c9a91c1	0.018868329
106	0xbdcaff82	-0.099120155
107	0xbd022194	-0.031770304
108	0x3ca1edb3	0.019766664
109	0xbe0b31d6	-0.1359323
110	0x3da2bde5	0.07946376
111	0x3c7f5c08	0.015585907
112	0x3d96474b	0.07337817
113	0x3d9bd6e6	0.07609348
114	0xbe291db3	-0.16515236
115	0x3d8e0b88	0.06935793
116	0x3dcce32b	0.10004266
117	0x3c5aa8b6	0.013345888
118	0xbd957c06	-0.07299046
119	0x3e33e466	0.17567596
120	0xbdd1c223	-0.10242107
121	0x3c7cb0cd	0.015423012
122	0xbd748f7a	-0.059707142
123	0xbd5cfa2a	-0.053949513
124	0xbd2d5224	-0.042314664
125	0x3b84cb12	0.004052528
126	0xbdf9f140	-0.12204218
127	0xbd36d62c	-0.044637844
128	0xbdcb7e1f	-0.09936165
129	0x3d486cb7	0.048931804
130	0x3d078bc4	0.033092275
131	0xbdb66951	-0.08906806
132	0x3b14c5f8	0.0022701006
133	0x3dbc7af0	0.09203136
134	0xbcfd743d	-0.030939216
135	0x3cafdad8	0.021466658
136	0x3cecc679	0.028903233
137	0x3d1cc931	0.03827781
138	0xbdd52ebd	-0.10409305
139	0x3d8e8043	0.06958058
140	0x3a472b98	0.00075977435
141	0xbd79382f	-0.060844596
142	0x3c9942cc	0.018708609
143	0xbdf5a282	-0.119938865
144	0xbe00cad2	-0.1257737
145	0xbc96b33a	-0.018396009
146	0x3cecc4cd	0.028902436
147	0xbd3c1a3b	-0.045923453
148	0x3d9bf2df	0.07614683
149	0xbdf89934	-0.12138596
150	0xbd2690bf	-0.040665384
151	0x3d56f6c3	0.052481424
152	0xbddf42c0	-0.109014034
153	0xbdb542aa	-0.08850606
154	0xbe0b2873	-0.13589649
155	0xbe0fb038	-0.14032066
156	0xbd0572c6	-0.03258016
157	0xbdc541ed	-0.09631715
158	0xbd754f30	-0.059889972
159	0xbdf86584	-0.121287376
160	0x3cf1a6ac	0.02949842
161	0xbe1d71be	-0.1537542
162	0x3e11c1fb	0.14234154
163	0xbdbe8cef	-0.09304225
164	0xbc9feb5a	-0.019521404
165	0x3d247b28	0.040156513
166	0x3de21603	0.11039355
167	0xbd4e537d	-0.05037259
168	0xbd3a9864	-0.045555487
169	0xbded82c7	-0.115972094
170	0x3d8b55a9	0.06803448
171	0x3d564c8c	0.052319095
172	0xbdcc0f67	-0.09963875
173	0xbcfb40d1	-0.030670555
174	0x3da6ff20	0.0815413
175	0xbb784e87	-0.0037888603
176	0x3cfa6a34	0.03056822
177	0xbc1297a8	-0.0089472905
178	0x3d44f595	0.048085768
179	0x3df18588	0.11793047
180	0xbc34be76	-0.011031738
181	0xbc4af6d9	-0.012387955
182	0x3d73abf4	0.05949016
183	0xb92af228	-0.00016302674
184	0xbce4623c	-0.027878873
185	0x3d25bf62	0.04046572
186	0x3e136919	0.1439556
187	0xbaeea96a	-0.0018208448
188	0xbd9df76e	-0.07713209
189	0x3da3d709	0.07999999
190	0x3d9d386d	0.07676778
191	0xbdf1a729	-0.117994614

decoder_lstm.lstm.weight_ih_l0 f4 [192, 10]
0	0x3e13dc3b	0.1443948
1	0xbdbe6a95	-0.09297673
2	0xbc4dfce0	-0.012572497
3	0x3e047868	0.12936556
4	0x3d933840	0.07188463
5	0xbd3e9413	-0.046527933
6	0x3e16f8cb	0.14743344
7	0xbdb18d8d	-0.08669577
8	0xbdc01cd5	-0.09380499
9	0x3e0dd66e	0.1385133
10	0x3e4dfa4c	0.20115012
11	0xbe3d147e	-0.18464848
12	0xbdbef80c	-0.09324655
13	0xbdd1c5a1	-0.10242773
14	0xbd8c836f	-0.068610065
15	0x3c82a54c	0.01594796
16	0xbaa06f2f	-0.0012240167
17	0xbd8de0b6	-0.06927626
18	0xbd31b898	-0.043388933
19	0xbde45bc0	-0.111503124
20	0x3db789e0	0.089618444
21	0x3de87f87	0.11352449
22	0xbe132bd5	-0.1437219
23	0xbd5045f2	-0.050847955
24	0xbc5b8087	-0.0133973425
25	0x3db27133	0.08712997
26	0xbc3193ee	-0.010838492
27	0x3d523061	0.05131567
28	0xbdd546f2	-0.10413922
29	0xbdf99c60	-0.12188029
30	0xbd211b3f	-0.039332625
31	0x3cb346dd	0.021884376
32	0x3e1450ce	0.1448395
33	0xbdae7ff3	-0.08520498
34	0x3e16d4bc	0.14729589
35	0x3d53c07d	0.051697243
36	0x3d90e56d	0.070750095
37	0xbbb600be	-0.0055542877
38	0xbdc05d8a	-0.09392841
39	0xbcfdf8f0	-0.031002492
40	0xbcce26b0	-0.025164932
41	0xbd501612	-0.050802298
42	0x3dd9eb74	0.10640612
43	0xbcf2be4b	-0.029631754
44	0x3a6a553e	0.00089390937
45	0xbe2a0eee	-0.16607258
46	0xbde96792	-0.113967076
47	0xbd1f15bd	-0.03883909
48	0xbcff6723	-0.03117711
49	0x3dd43a65	0.103627004
50	0x3e267f5f	0.16259526
51	0x3e616590	0.220114
52	0x3d3df3bd	0.046375025
53	0xbd060b1d	-0.032725442
54	0x3e216cd6	0.15764174
55	0xbdd4c970	-0.10389984
56	0x3ce1290a	0.02748539
57	0x3c996a9d	0.018727595
58	0x3dcab509	0.09897811
59	0xbab5b729	-0.001386379
60	0x3e012b1d	0.12614103
61	0xbd56be5f	-0.052427646
62	0x3df46513	0.11933341
63	0xbd626467	-0.055271532
64	0x3d26a28a	0.040682353
65	0xbe39a393	-0.18128805
66	0x3c2404b4	0.010010887
67	0xbc007d02	-0.007842304
68	0xbd4b3ab5	-0.049616534
69	0x3e183f71	0.14867951
70	0x3e44649c	0.19179004
71	0x3e172191	0.14758898
72	0x3e2e14a6	0.17000064
73	0x3df5a41a	0.119941905
74	0x3deab0d8	0.114595115
75	0xbd9eaa3a	-0.07747312
76	0xbd80773a	-0.06272741
77	0x3d840903	0.06447031
78	0xbd03967e	-0.032125942
79	0x3db89ff6	0.09014885
80	0x3da7d044	0.081940204
81	0x3d6d9788	0.05800584
82	0xbaa4aed5	-0.0012564311
83	0x3b821ddb	0.003970844
84	0xbb3c74c5	-0.0028756124
85	0x3ad934a7	0.0016571478
86	0xbd702649	-0.05863026
87	0xbdfd3cd1	-0.123651154
88	0x3d397283	0.045275223
89	0x3e012ec7	0.126155
90	0x3e7047fa	0.23464957
91	0xbdad508e	-0.0846263
92	0x3df5bd4d	0.11998997
93	0x3d0ce732	0.034400173
94	0x3c1ae603	0.009454253
95	0x3d0eeb19	0.034892175
96	0x3d461147	0.04835632
97	0xbe67c671	-0.22634293
98	0xbdda61ba	-0.10663171
99	0xbab0402f	-0.0013446863
100	0xb994f883	-0.00028413915
101	0xbdd14326	-0.10217886
102	0xbd7e1380	-0.062030315
103	0xbdb6a2b8	-0.08917755
104	0x3d704d95	0.058667738
105	0xbe7ab7cd	-0.24484177
106	0xbe416f33	-0.18890075
107	0xbe4301b8	-0.19043624
108	0x3e8463e6	0.25857466
109	0xbd6f86b0	-0.058478057
110	0x3e4cf840	0.20016575
111	0x3e1e6c2b	0.1547095
112	0xbd0d9546	-0.034566186
113	0x3d7c35f1	0.06157488
114	0x3e5596f4	0.20858365
115	0xbe717a1c	-0.23581737
116	0x3dc96fa7	0.09835749
117	0x3d395fff	0.045257565
118	0x3d8af13b	0.06784292
119	0x3d8f362a	0.06992753
120	0xbd3a2178	-0.045442075
121	0x3d86c1a9	0.065799065
122	0x3d22bfb5	0.039733607
123	0xbdfb4ab2	-0.122701064
124	0x3d9d9bc1	0.07695723
125	0x3d8f4956	0.069964096
126	0xbba0b14d	-0.0049039484
127	0xbcd987a8	-0.026553944
128	0x3df532a4	0.119725496
129	0xbe2b6234	-0.1673668
130	0x3e26ed06	0.16301355
131	0xbc4bf4ca	-0.012448499
132	0x3c985338	0.01859437
133	0xbe22ae15	-0.1588672
134	0x3cb07408	0.021539703
135	0x3dca0586	0.09864335
136	0xbe12710a	-0.14300933
137	0x3ce24348	0.027619973
138	0x3d583b28	0.05279079
139	0xbdf6a788	-0.12043673
140	0xbaa268e9	-0.0012390885
141	0xbe6a1308	-0.22858822
142	0x3e09b29d	0.13447042
143	0xbd2918b6	-0.04128333
144	0xbd999bbe	-0.075004086
145	0x3d898dc8	0.06716496
146	0xbd27a5c8	-0.040929586
147	0xbdb42627	-0.087963395
148	0xbdf55677	-0.119793825
149	0xbde7cc69	-0.11318285
150	0xbdf57f2b	-0.11987146
151	0x3d686b6d	0.056743074
152	0xbdbb0a6d	-0.09132848
153	0x3d1a3a95	0.037653524
154	0xbe1e821d	-0.15479322
155	0xbb1b6d14	-0.0023716139
156	0x3d19014c	0.037354752
157	0x3d93ffe1	0.072265394
158	0xbda06f3d	-0.07833717
159	0x3c8ee0f8	0.017441258
160	0xbd4d743a	-0.05015967
161	0xbdb151a2	-0.08658148
162	0x3d1c9d90	0.0382362
163	0x3db34db0	0.08755052
164	0x3b844ba5	0.004037338
165	0x3d63da17	0.05562791
166	0xbdef5ac8	-0.11687237
167	0xbdd605fd	-0.10450361
168	0x3d11815e	0.035523765
169	0xbd8048c3	-0.06263878
170	0x3e52645c	0.20546097
171	0xbc2c7696	-0.01052632
172	0x3d2c7de5	0.04211225
173	0x3b9e97bc	0.0048398655
174	0xbdd3f870	-0.1035012
175	0xbdc12d5a	-0.09432478
176	0xbdedf094	-0.11618152
177	0xbe0323f6	-0.12806687
178	0x3e35268d	0.17690487
179	0x3c8c60ff	0.017136095
180	0x3e2b4aca	0.16727749
181	0x3c24088e	0.010011805
182	0x3d962c50	0.07332671
183	0xbbdcad11	-0.0067344983
184	0xbdc293d4	-0.09500852
185	0x3d819949	0.06328065
186	0xbd7e9c79	-0.062160943
187	0x3d2ce48a	0.04221014
188	0xbc382f5c	-0.01124176
189	0x3e0d95a6	0.13826618
190	0x3e2126c9	0.15737452
191	0xbe209d6a	-0.15685049
192	0x3cd6c3b2	0.026216362
193	0x3c966491	0.0183585
194	0xbe2dd235	-0.16974719
195	0xbdc60f04	-0.09670833
196	0x3c181ee9	0.009284713
197	0xbb92d8bc	-0.004481403
198	0x3cef7910	0.029232532
199	0xbd44a87a	-0.048012234
200	0x3cd70666	0.026248168
201	0xbd925974	-0.07145968
202	0xbd94175d	-0.07231019
203	0x3e3f21e6	0.18665275
204	0x3de4c6a6	0.11170702
205	0xbc6a87cb	-0.014314602
206	0x3e1434fd	0.14473338
207	0xbdffd044	-0.124908954
208	0xbe07680b	-0.13223283
209	0x3ddc4d9e	0.10756992
210	0x3d946980	0.07246685
211	0x3e11ce5d	0.14238878
212	0x3e333698	0.17501295
213	0x3d8c4af6	0.06850235
214	0x3dda82aa	0.106694534
215	0xbd9d0517	-0.076669864
216	0x3d9c8923	0.07643344
217	0xbd001cea	-0.031277575
218	0xbd22af3f	-0.03971791
219	0x3db29d50	0.08721411
220	0xbd5a9fdb	-0.053375106
221	0xbe01ad41	-0.12663747
222	0x3cef8d2f	0.029242126
223	0x3e130968	0.14359057
224	0xbda0a4a5	-0.078439035
225	0xbdcea020	-0.10089135
226	0xbdc51e67	-0.096249394
227	0xbc494fd4	-0.012287099
228	0x3e155fdf	0.14587353
229	0x3b326dbe	0.0027226056
230	0x3e2cc1a8	0.16870749
231	0x3dadb650	0.08482039
232	0xbd357337	-0.04429933
233	0x3d954b98	0.07289809
234	0xbe0576e5	-0.13033636
235	0xbe154adc	-0.14579338
236	0x3dfcb168	0.12338525
237	0xbd7c4c5c	-0.06159626
238	0xbc8f76da	-0.017512728
239	0xbc916ebf	-0.017753003
240	0x3e40bbf0	0.18821692
241	0xbe23dcf4	-0.16002256
242	0xbd6104e7	-0.054936316
243	0x3bc1b8ef	0.0059119384
244	0xbe248f47	-0.16070281
245	0xbe3d346e	-0.18477032
246	0x3c8a551c	0.016886286
247	0xbd907e46	-0.07055335
248	0xbd8d5fdf	-0.069030516
249	0xbda5ac79	-0.08089537
250	0x3d962209	0.073307104
251	0xbde4abd2	-0.111655846
252	0xbdcb7f8a	-0.099364355
253	0xbdaa59a9	-0.083178826
254	0xbd3f6484	-0.04672672
255	0x3dbb59a9	0.09147961

decoder_lstm.lstm.weight_hh_l0 f4 [192, 48]
0	0x3dc02d2f	0.09383618
1	0xbccb35c2	-0.024805907
2	0x3dc3e512	0.09565176
3	0xbd652613	-0.055944514
4	0x3dcf2d50	0.101160645
5	0x3e3492e5	0.17634161
6	0x3e1f047f	0.15529059
7	0x3e02c3e3	0.12770037
8	0xbdbdc49b	-0.09266015
9	0xbdfa6ba7	-0.12227564
10	0xbda5d9fc	-0.08098218
11	0xbd7cf293	-0.061754774
12	0x3dd22aee	0.102620944
13	0xbdeeb4aa	-0.11655553
14	0xbdc56088	-0.096375525
15	0xbe329a40	-0.17441654
16	0xbdb458dd	-0.08806012
17	0xbc3dbb1f	-0.011580258
18	0xbd82bfa5	-0.063842095
19	0xbe26a516	-0.16273913
20	0xbd1b8f4a	-0.037978448
21	0x3ccfb788	0.02535607
22	0x3cd64d68	0.026159957
23	0xbdb54c5e	-0.088524565
24	0xbdaf038e	-0.085456
25	0xbce88400	-0.028383255
26	0xb9fd6b88	-0.00048336037
27	0x3d535e8b	0.051603835
28	0xbd54e2d3	-0.05197413
29	0xbd78c639	-0.060735915
30	0xbcb073e2	-0.021539632
31	0xbd6200ef	-0.05517667
32	0x3dcf86cb	0.101331316
33	0x3b725c87	0.003698142
34	0xbda7e173	-0.08197298
35	0xbdfca239	-0.12335629
36	0xbbfbf2e6	-0.007688868
37	0xbd757867	-0.059929278
38	0x3d3a0aff	0.045420643
39	0x3c0eeef6	0.008723965
40	0x3d7e57c9	0.062095437
41	0xbd664c65	-0.0562252
42	0x3dadb23c	0.08481261
43	0xbd93e4b1	-0.07221354
44	0xbd873fbc	-0.06603953
45	0xbd2ccacc	-0.04218559
46	0xbdbea28a	-0.093083456
47	0x3d800328	0.06250602
48	0xbdbd7461	-0.09250713
49	0xbd26a819	-0.040687654
50	0xbd88659d	-0.06660006
51	0xbc4b725a	-0.0124174
52	0xbdb565bb	-0.08857294
53	0xbda2b22b	-0.07944139
54	0x3ced0294	0.028931893
55	0x3df976fc	0.121808976
56	0xbe201016	-0.15631136
57	0x3cfcf646	0.030879151
58	0xbe364b40	-0.17802143
59	0x3abf50d1	0.0014596229
60	0xbdb086de	-0.08619474
61	0xbdafb429	-0.08579285
62	0xbda6d3ca	-0.08145864
63	0xbdfc285c	-0.123123854
64	0x3d98dbbf	0.07463788
65	0x3e2dd4d9	0.16975726
66	0x3c8de961	0.017323198
67	0xbe3d9f52	-0.18517807
68	0x39ba8dcb	0.0003558233
69	0xbe10f998	-0.14157712
70	0xbd33843b	-0.043827277
71	0x3dc4753e	0.09592675
72	0xbdbed5a4	-0.093180925
73	0xbd38311f	-0.04496872
74	0x3de8a6d2	0.113599434
75	0x3e22b490	0.15889192
76	0xbe10aa40	-0.14127445
77	0xbd9ccd28	-0.07656318
78	0x3df95509	0.12174422
79	0x3dd5f989	0.10447986
80	0x3be6a0e2	0.0070382217
81	0x3d490343	0.049075376
82	0x3d3c5f14	0.04598911
83	0xbe1188f9	-0.14212407
84	0x3c0e31fa	0.0086789075
85	0x3d01c22f	0.03167933
86	0xbe045c7a	-0.12925902
87	0x3e12238c	0.14271373
88	0x3e28c933	0.16483001
89	0xbdadbe9a	-0.0848362
90	0x3d59b5a6	0.05315175
91	0x3d895c08	0.06707007
92	0xbded92cd	-0.11600266
93	0xbd9c313a	-0.07626577
94	0xbccfdf73	-0.025375104
95	0xbd0ebfea	-0.034850992
96	0x3ddc4be2	0.10756661
97	0xbdfab8e9	-0.122423
98	0xbda52994	-0.08064571
99	0x3e01010e	0.12598059
100	0xbd9cded3	-0.07659688
101	0xbca5365b	-0.02016752
102	0x3d595962	0.053063758
103	0xbda69f66	-0.081358716
104	0x3d536ea0	0.051619172
105	0xbd761e0f	-0.06008726
106	0xbe2db3ee	-0.16963169
107	0xbce3b3f9	-0.027795779
108	0x3d74f988	0.059808284
109	0xbd3b1431	-0.045673553
110	0xbd67e8cf	-0.056618508
111	0xbdf57a7f	-0.11986255
112	0x3d8525d0	0.06501353
113	0xbdb374cf	-0.08762514
114	0xbe217b25	-0.15769632
115	0xbc36d2a5	-0.01115862
116	0x3e0b5d6a	0.13609853
117	0x3d9c8751	0.07642997
118	0xbda58b1a	-0.08083172
119	0x3e281363	0.16413645
120	0xba00024b	-0.0004883154
121	0xbda4755d	-0.08030198
122	0x3e10e5dd	0.14150186
123	0x3db47581	0.088114746
124	0xbdee1739	-0.11625523
125	0x3dc80831	0.097671874
126	0xbd96a060	-0.07354808
127	0x3dabba4b	0.08385142
128	0xbdf255aa	-0.118327454
129	0xbd2049ff	-0.03913307
130	0x3c920850	0.01782623
131	0xbd9e7345	-0.0773683
132	0xbe29ca68	-0.16581118
133	0x3e099a29	0.13437714
134	0xbd96c5a7	-0.07361918
135	0xbd97a9c7	-0.07405429
136	0xbc395927	-0.0113127595
137	0x3d72ef17	0.059310045
138	0x3ccff4d8	0.025385305
139	0x3e10fe3c	0.14159483
140	0xbe2b2310	-0.16712594
141	0x3d0078e5	0.031365294
142	0xbe2d7af0	-0.16941428
143	0x3d2ecfda	0.04267869
144	0xbc967b87	-0.01836945
145	0xbd8db24b	-0.06918772
146	0xbcace644	-0.021105893
147	0x3db0aa6e	0.08626257
148	0x3ddbd477	0.10733884
149	0xbd9d4e46	-0.07680945
150	0x3d504820	0.050850034
151	0xbe35b10f	-0.17743324
152	0x3da69d5a	0.08135481
153	0x3d978f9a	0.07400437
154	0x3e54a248	0.2076503
155	0xbe1962a3	-0.14979033
156	0xbd8a14cc	-0.06742248
157	0xbbc99bb9	-0.006152597
158	0x3db439b1	0.08800066
159	0x3db74895	0.08949391
160	0xbdea6659	-0.114453025
161	0x3cacffc6	0.021118056
162	0x3caa6637	0.020800693
163	0x3d92d5ba	0.07169671
164	0xbcc543e7	-0.02408023
165	0x3c8aa8e7	0.016926242
166	0x3cac4b63	0.021032041
167	0xbdf8750e	-0.121317014
168	0x3d227457	0.03966173
169	0x3e4511ba	0.19245043
170	0x3d7c854e	0.061650567
171	0x3c9f3fcd	0.019439602
172	0xbe4a1b42	-0.1973696
173	0x3e19ab38	0.15006721
174	0xbe02bd85	-0.12767608
175	0x3daa551e	0.08317016
176	0x3dc3c823	0.095596574
177	0xbcd75ae8	-0.026288465
178	0xbd5638d6	-0.052300297
179	0x3dfa27d3	0.12214627
180	0xbdf0cfb2	-0.11758365
181	0xbe2a42fe	-0.16627118
182	0x3e575671	0.21029069
183	0x3db66910	0.08906758
184	0x3d241f22	0.040068753
185	0x3cdc3814	0.026882209
186	0x3d7f4816	0.062324606
187	0xbd8b5058	-0.06802434
188	0x3dcd52f6	0.10025589
189	0x3d70d9d7	0.0588015
190	0x3e1809a1	0.14847423
191	0xbe202c24	-0.15641838
192	0x3bceec70	0.0063148066
193	0x3dcc5ad2	0.0997826
194	0xbe11c786	-0.14236268
195	0x3e550cad	0.20805617
196	0x3df76124	0.12079075
197	0x3e16f397	0.1474136
198	0x3d05ff37	0.032714095
199	0xbd8047e6	-0.062637135
200	0x3d0f957a	0.03505466
201	0xbe16458d	-0.14674969
202	0xbd17da9a	-0.03707371
203	0x3db01c83	0.08599188
204	0xbe02e92a	-0.12784258
205	0x3dcfbe66	0.101437375
206	0x3aae879e	0.0013315564
207	0xbe3e9c1a	-0.18614236
208	0xbdbdb034	-0.09262124
209	0xbb88cad9	-0.004174572
210	0xbb83d3e7	-0.0040230635
211	0xbd134788	-0.03595689
212	0x3dc13c79	0.09435362
213	0xbd01ba98	-0.03167209
214	0x3d156a5a	0.036478378
215	0x3dc293da	0.09500857
216	0xbe482b40	-0.19547749
217	0xbdfd089b	-0.12355157
218	0x3d202a2d	0.039102722
219	0x3b3c249b	0.0028708342
220	0xbdc9b4bc	-0.098489255
221	0x3d476008	0.048675567
222	0x3cc105e6	0.023562383
223	0xbd56e1db	-0.052461486
224	0xbe027846	-0.12741193
225	0x3d5a1a4e	0.053247742
226	0x3e102a21	0.14078571
227	0xbdcd70d1	-0.10031284
228	0x3bf22bf3	0.007390493
229	0x3db716c4	0.08939889
230	0xbde630e1	-0.11239792
231	0xbd8d3710	-0.06895268
232	0x3e2bdd6a	0.16783682
233	0x3dba931a	0.09110089
234	0xbd2d310f	-0.042283114
235	0xbd1aaed7	-0.037764397
236	0xbe5599fb	-0.2085952
237	0x3c598dd2	0.0132784415
238	0xbe1eff1f	-0.15527008
239	0x3d3aafd8	0.045577854
240	0xbd574420	-0.052555203
241	0xbdaddb30	-0.08489072
242	0x3e1517fb	0.14559929
243	0xbe47c79e	-0.19509742
244	0x3b6b6ed1	0.0035924206
245	0xbdc294ec	-0.09501061
246	0x3e05d8f7	0.13071047
247	0x3d6d6bde	0.0579642
248	0xbdee1fd2	-0.11627163
249	0xbd0f8bbe	-0.035045378
250	0xb9a3bd03	-0.00031230607
251	0xbdc36b95	-0.09542004
252	0xbdabf168	-0.08395654
253	0xbe070d99	-0.13188781
254	0x3e0d03b8	0.1377095
255	0xbe2d1c51	-0.16905333

decoder_lstm.lstm.bias_ih_l0 f4 [192]
0	0xbe25e2f0	-0.16199851
1	0xbe1a8a05	-0.15091713
2	0xbc09d157	-0.008411727
3	0x3d2b3a25	0.041803498
4	0xbd670fc9	-0.05641154
5	0xbd7da9ff	-0.0619297
6	0xbb97cd7e	-0.004632651
7	0x3d1f2fa7	0.038863804
8	0x3d6350b1	0.055496875
9	0x3c753ef8	0.014968626
10	0xbe20c9ba	-0.15701953
11	0x3c47a80d	0.0121860625
12	0xbde91203	-0.113803886
13	0x3db59b0b	0.08867463
14	0xbe5e2514	-0.21693832
15	0xbd843fba	-0.064574674
16	0xbde9fc17	-0.114250354
17	0xbe01a235	-0.12659533
18	0xbc6b9cff	-0.0143806925
19	0xbe0ac87c	-0.13553041
20	0xbe0f8f91	-0.1401961
21	0xbd854013	-0.06506362
22	0xbe15c4b7	-0.14625822
23	0xbd895b83	-0.067069076
24	0xbdb446b9	-0.08802552
25	0x3dab745d	0.08371804
26	0x3ccdb6e6	0.025111627
27	0x3d3db8e7	0.046318915
28	0x3e5a9214	0.21344787
29	0x3c1c224b	0.00952966
30	0xbe2e6083	-0.17029004
31	0xbe17ebab	-0.14835994
32	0xbe4367d2	-0.19082573
33	0x3d827edc	0.06371853
34	0xbc0d0c37	-0.008608869
35	0xbd2fa842	-0.042885073
36	0x3e2b37a8	0.1672045
37	0xbe0b32f0	-0.1359365
38	0xbc3a21e4	-0.011360619
39	0xbe1faf86	-0.155943
40	0xbdcbfd8c	-0.099604696
41	0xbe0d91f1	-0.13825203
42	0xbd4345c8	-0.04767397
43	0x3c060fe2	0.008182498
44	0x3b966358	0.0045894794
45	0xbdd35f1f	-0.10320877
46	0x3df8d3a3	0.121497415
47	0xbda1a573	-0.07892885
48	0xbe1c48fa	-0.15262213
49	0xbda203b7	-0.07910865
50	0xbe19a194	-0.15003043
51	0x3e02ea2c	0.12784642
52	0xbd9011b4	-0.070346266
53	0x3df2f0f7	0.11862367
54	0x3da7825f	0.08179163
55	0x3e3a6468	0.18202364
56	0xbc886a1f	-0.016652165
57	0xbdafa728	-0.085768044
58	0xbda9eafa	-0.08296771
59	0xbdc295e7	-0.09501248
60	0xbdfcc138	-0.12341541
61	0x3c9027c5	0.017597089
62	0xbe09e5a0	-0.13466501
63	0xbd5ef6f9	-0.05443475
64	0xbdb629cd	-0.088946916
65	0xbdc6afe0	-0.09701514
66	0x3dc1d6b3	0.09464779
67	0xbd0b64f7	-0.034031834
68	0xbdb20c65	-0.0869377
69	0x3e39ecb1	0.18156697
70	0x3e00e6d5	0.12588055
71	0x3b75aeb7	0.0037488171
72	0xbe08244f	-0.132951
73	0xbc72410f	-0.014786019
74	0x3cb63685	0.022242794
75	0xbdd818b1	-0.105515845
76	0x3e89ea4e	0.26936573
77	0x3dd3b429	0.10337097
78	0xbdbda368	-0.09259683
79	0xbe26d12c	-0.1629073
80	0xbdea07fe	-0.11427306
81	0xbdbcc237	-0.09216731
82	0x3cc7ec0e	0.024404552
83	0xbd45de42	-0.048307665
84	0x3e83a699	0.2571304
85	0x3dfc1207	0.12308126
86	0xbd80d312	-0.062902585
87	0xbc09791c	-0.008390691
88	0xbdd44bbe	-0.10366009
89	0xbd1f75dd	-0.038930763
90	0xbc96b4e3	-0.0183968
91	0x3d4ee410	0.050510466
92	0x3e0215ec	0.12703675
93	0xbc0f6623	-0.008752379
94	0x3d460913	0.048348498
95	0x3cef5a17	0.029217763
96	0x3d6389ff	0.055551525
97	0xbc768e6f	-0.015048607
98	0xbdec9a43	-0.115528606
99	0xbda2e276	-0.0795335
100	0xbc29d252	-0.010365086
101	0xbb00267c	-0.0019554188
102	0x3e0031d7	0.12519012
103	0x3d857e65	0.065182485
104	0x3d685065	0.056717295
105	0xbd99c986	-0.07509141
106	0x3bc23427	0.005926627
107	0x3c023021	0.007946045
108	0x3d1b3b5b	0.037898403
109	0x3d8e01a2	0.06933905
110	0xbdc1ec85	-0.09468941
111	0xbdc67b2c	-0.09691462
112	0x3caa4678	0.020785555
113	0xbda0b552	-0.07847084
114	0x3dd71859	0.10502691
115	0xbcb1deff	-0.021712778
116	0xbc5b842c	-0.013398211
117	0xbdcc4e21	-0.099758394
118	0x3e1ae197	0.15125118
119	0xbd96f41e	-0.073707804
120	0x3c053830	0.008131072
121	0xbdc6265b	-0.096752845
122	0x3d9a35a7	0.075297646
123	0xbd95e808	-0.07319647
124	0xbc973c4b	-0.018461367
125	0x3dee39cd	0.116321184
126	0x3d21abfc	0.039470658
127	0xbd9c0bd2	-0.07619442
128	0x3dc50fdf	0.09622168
129	0xbe13dd26	-0.1443983
130	0xbda5bce2	-0.08092667
131	0x3dbcd81e	0.092209086
132	0x3ca511dc	0.020150118
133	0x3ca4fb62	0.0201394
134	0x3d40719c	0.046983346
135	0x3d26e189	0.04074243
136	0x3e00b423	0.12568717
137	0x3b6676a3	0.0035165928
138	0xbdfc405a	-0.123169616
139	0xbdb44ef7	-0.08804124
140	0x3b86f4a1	0.0041185175
141	0xbd792f2d	-0.060836006
142	0xbcd9c746	-0.026584279
143	0x3da87678	0.08225721
144	0xbe0df910	-0.13864541
145	0xbdcad371	-0.099036105
146	0xbe1aad5f	-0.15105198
147	0xbdfd191d	-0.123583056
148	0xbd874f25	-0.066068925
149	0xbbab2c09	-0.0052237553
150	0xbc62b507	-0.013837106
151	0xbdcb481a	-0.09925862
152	0x3d222448	0.03958538
153	0xbdbe7f99	-0.09301681
154	0x3d7dc1bf	0.06195235
155	0xbcc83dba	-0.024443496
156	0xbde4f416	-0.11179368
157	0x3d29f6a7	0.04149499
158	0xbbddcd2a	-0.006768842
159	0xbe305fc5	-0.17224033
160	0x3d8ef600	0.069805145
161	0xbda0e035	-0.07855264
162	0xbe05fb1e	-0.13084075
163	0xbd8f23f1	-0.06989277
164	0x3c9df263	0.019280618
165	0x3e16d40c	0.14729327
166	0xbd6d3d9d	-0.057920087
167	0xbe4ae5af	-0.1981418
168	0x3da8a313	0.08234229
169	0xbe3bc65a	-0.18337384
170	0xbcbd30fd	-0.023094648
171	0x3cec78c7	0.028866185
172	0x3c23b3c0	0.009991586
173	0xbd3132b6	-0.043261252
174	0x3d88d5fe	0.06681441
175	0xbe66451d	-0.22487302
176	0x3dec9270	0.11551368
177	0xbe13c179	-0.14429273
178	0x3b953071	0.004552894
179	0xbe321def	-0.17394231
180	0xbc666a44	-0.014063422
181	0x3d1b5c01	0.03792954
182	0xbe088670	-0.13332534
183	0x3bb1d632	0.0054271454
184	0xbe1a11b6	-0.15045819
185	0x3d9b2adb	0.075765334
186	0xbd2f63d6	-0.04281982
187	0x3d1ef368	0.03880635
188	0xbdfb739b	-0.12277909
189	0x3d77a340	0.06045842
190	0x3dd57292	0.10422243
191	0xbdd961f2	-0.10614385
