notebook/model_artifacts/10Iteration__LR0.00079__NonClipp__LeakyReluMHA__Epsilon1e-07__Threshold_13-08__ComplexLossisTRUE_layerNorm.pt (torch, 290306 bytes, 30 tensors)

batch_norm_layer.batch_norm_layer.weight f4 [10]
000000 9b 34 8c 3f 94 e4 b5 3f a7 7d 83 3f ba e2 83 3f
       1.0953554 1.4210382 1.0272721 1.0303566
000010 45 09 87 3f 72 49 83 3f f1 8a 86 3f 8a 4b 7b 3f
       1.0549704 1.0256789 1.0511152 0.9816214
000020 00 a0 7e 3f 58 2e 80 3f
       0.9946289 1.0014143

batch_norm_layer.batch_norm_layer.bias f4 [10]
000000 aa 5f 8a 3d 12 e1 46 bc 52 16 ff 3c 5f 4a 12 3d
       0.06756528 -0.012138622 0.031138573 0.035715457
000010 37 94 90 bb c2 d7 98 bc 0f 5c 5a b9 c3 1a 73 3d
       -0.0044122 -0.018657569 -0.00020824395 0.059351694
000020 54 22 30 3d 33 40 06 3e
       0.043001488 0.13110428

batch_norm_layer.batch_norm_layer.running_mean f4 [10]
000000 a8 aa aa 3e 0f f6 23 47 2d 42 30 be 08 8c 7b bd
       0.33333325 41974.06 -0.17212744 -0.06141284
000010 ba 3e 4c be 99 7d e3 3c 8d 99 a0 be f8 f6 e1 bd
       -0.19945803 0.02776985 -0.3136715 -0.11033434
000020 31 4a 38 3d 0b f9 b2 3e
       0.04499263 0.3495563

batch_norm_layer.batch_norm_layer.running_var f4 [10]
000000 d2 66 7a 3d 2a b7 3f 4c af c5 e1 3d 69 43 fa 3b
       0.061133213 5.0257064e+07 0.11024033 0.0076374304
000010 60 1d 9f 3d 79 87 b7 3d b6 4e 35 3d 74 7a 7b 3e
       0.07769275 0.08961386 0.044264518 0.24558431
000020 dc 09 d5 3c 63 5d db 3c
       0.026005678 0.026777929

embedd_layer.embedd_layer.weight f4 [3060, 8]
000000 37 ec 82 3e c7 18 2d 3d b8 7c 05 bf 45 9a c8 3c
       0.25570843 0.042259958 -0.5214343 0.024487624
000010 74 6a 82 bd 31 86 08 3f 60 dc 85 3e a2 6b 08 3f
       -0.063679606 0.5332976 0.26144695 0.53289235
000020 cc 34 0c bf 03 6f 2e be 4e 9f 1e 3e 8d 80 ab be
       -0.5476806 -0.17034535 0.15490457 -0.33496514
000030 40 56 13 bf 30 4f 4e be 54 61 f9 bd 21 b4 c1 3e
       -0.5755348 -0.20147395 -0.12176767 0.3783274
000040 6c b6 65 be de d8 65 bd 35 77 6d be d1 af c9 3e
       -0.2243287 -0.056115024 -0.23190005 0.3939195
000050 b6 77 9a be e9 b6 29 bf 66 ca 96 bb ed e4 0c 3e
       -0.30169457 -0.66294724 -0.0046017645 0.13759203
000060 29 dc c9 bf 0b 53 fd bd a5 52 51 3d f3 69 61 3f
       -1.5770313 -0.12369355 0.051104207 0.8805229
000070 67 7f 09 3e 27 ec 79 3e 72 9d 42 3f 37 d8 48 3f
       0.13427506 0.24406491 0.7602149 0.7845492
000080 82 ab 07 3e 93 21 c8 be 96 3d 03 c0 bf 7b 3f bf
       0.13249019 -0.39088115 -2.050634 -0.74798197
000090 23 ea 80 3f 47 20 8f be 6a f0 01 3f 0e 7e ca bf
       1.0071453 -0.27954313 0.5075747 -1.5819719
0000a0 1e e9 7b 3f b0 19 85 bf 72 3c 56 bf fb 5f 12 be
       0.98402584 -1.0398464 -0.8368598 -0.14294426
0000b0 bd cd 71 be 10 ab 62 3f 40 8f 9d 3f af 5f 98 3f
       -0.23613639 0.8854227 1.2309341 1.19042
0000c0 0b 5b 67 3f 5d 6a 90 bf 7e c8 40 3d a8 a2 66 bf
       0.90373296 -1.128246 0.047066204 -0.90091944
0000d0 13 d1 1e 3f 2c c0 ed be 62 1f 9b bf bd bc fd be
       0.6203777 -0.46435678 -1.2118952 -0.49558058
0000e0 95 9d 50 bf cc 25 4c 3f a6 ed 55 3f 33 7a 23 3d
       -0.8149045 0.79745173 0.8356575 0.03991146
0000f0 e6 84 ff 3f b4 6e 96 bf a9 59 e3 3e 96 fe 4e 3f
       1.9962432 -1.1752534 0.44404343 0.8085722
000100 9b 3a d4 be 3b 10 f2 3f b6 13 f5 3e a7 bf 7f bf
       -0.41450962 1.8911203 0.478666 -0.99901813
000110 f4 63 54 bf 51 ea c9 3e f0 9b 8d bf c2 e3 2a c0
       -0.82965016 0.39436582 -1.1063213 -2.6701512
000120 dd 8f 15 bf 65 38 84 bf 7d d0 c6 3e 0b d8 d0 bf
       -0.5842264 -1.032971 0.3883094 -1.6315931
000130 f9 c3 59 3f 46 ed a3 39 96 93 1c 3f e4 3c d1 bf
       0.85064656 0.00031266565 0.611627 -1.6346707
000140 72 60 ce bb 13 57 81 3d 7e 0a 0e 3e 91 68 da 3c
       -0.0062981183 0.06315436 0.1387119 0.02666119
000150 f0 c0 b5 be 54 3f 60 3f 94 88 9b bf bf 4e ae 3e
       -0.35498762 0.8759663 -1.2151055 0.34044454
000160 a1 a3 21 bf 6a b1 72 3f a2 b3 0f be b7 e6 8c 3f
       -0.631403 0.9480196 -0.14033368 1.1007909
000170 1e 3c 58 3f ae f9 06 3f ac 6f 94 3e 4f fd a0 be
       0.8446673 0.5272473 0.2899145 -0.3144326
000180 bd 3a 1d 3f 9d f6 8a 3f eb 1c 5e 3e 20 b9 64 bf
       0.6141775 1.085651 0.21690719 -0.8934498
000190 f5 7d 86 3f d6 f6 63 3f a5 f2 a7 3d 11 f9 0b bf
       1.0507189 0.89048517 0.08200578 -0.5467692
0001a0 58 6f b2 be bd ce 8e 3c 43 34 2b 3c 30 32 7f bd
       -0.34850574 0.017432565 0.010449472 -0.062303722
0001b0 b4 9b 93 3f 31 a5 38 be d1 43 fc 3f 56 db 2f bf
       1.1531892 -0.18031766 1.9708196 -0.68694055
0001c0 61 fa 06 bf cd ee db 3d a1 de 04 3e 23 aa aa bf
       -0.527258 0.10738907 0.12975551 -1.3333172
0001d0 93 6d 67 bf 9b 18 e5 3e c4 f7 88 3e 58 4e a0 bf
       -0.9040157 0.44745335 0.2675153 -1.2523909
0001e0 63 bb 84 3e 61 38 70 be 00 7d b1 bf 96 e1 5a 3f
       0.25924215 -0.23459007 -1.3866272 0.85500467
0001f0 01 57 1c bf 7b 88 dd 3a d9 e4 63 3f da c0 79 3e
       -0.6107026 0.0016901636 0.8902107 0.24389973
000200 cb be 0d 3f e4 9c 46 3f 07 99 f0 3f 70 0a 08 bf
       0.5536925 0.77583146 1.87967 -0.53140926
000210 85 e2 0b 3b 75 a3 c5 3e 45 62 74 3f 0a 50 2f 3f
       0.0021344733 0.3860127 0.9546245 0.68481505
000220 06 b5 e9 be b9 8e 89 3f 99 fd 84 bf 8c 61 0f 3f
       -0.45645922 1.074668 -1.0389892 0.5600822
000230 50 ef 4f bf 83 bd f0 bd 5a 54 03 bf 3a 92 9b be
       -0.81224537 -0.117548965 -0.51300585 -0.30385
000240 30 09 be 3e d9 ff 34 3e c5 71 9f 3e d4 fb 24 c0
       0.37116385 0.17675723 0.31141487 -2.5778704
000250 f6 82 3a bf 4a ca 5d bf 99 0c 1d 3f 01 77 6d be
       -0.7285608 -0.86636794 0.6134735 -0.23189928
000260 11 2d c5 bf b8 ed e1 bf 73 f6 0b bf 91 57 12 be
       -1.5404378 -1.7650671 -0.54672927 -0.14291216
000270 bb 90 4b 3f b5 68 50 3f 66 b5 98 be 49 8e 35 bf
       0.79517716 0.8140977 -0.29825896 -0.70920235
000280 01 f1 89 3f af 3a 0d bf 64 71 6d bf e8 2f f0 3e
       1.0776674 -0.5516767 -0.92751145 0.4691155
000290 a3 cf 8c bf d7 ec d1 3f d5 98 a8 3e 8b 63 70 3f
       -1.1000866 1.6400403 0.32929102 0.9390189
0002a0 e9 d7 c3 3e 83 0e e0 3d 70 60 7c bf 6f 42 12 be
       0.38250664 0.10940268 -0.9858465 -0.14283155
0002b0 9c f7 34 bf 97 5c 43 bf 2c bc 19 bf c6 66 3f bf
       -0.7069032 -0.76313156 -0.6005275 -0.74766195
0002c0 64 ee 80 be 60 ed a3 bf 32 21 b0 bf 61 02 82 be
       -0.25181878 -1.2806816 -1.376013 -0.2539244
0002d0 54 35 a5 bf fe d5 bc be 80 7f b1 bf be 37 cb 3f
       -1.29069 -0.36882013 -1.3867035 1.5876386
0002e0 11 8a 59 be d4 c0 b2 3e 43 2b 29 3f f6 90 70 be
       -0.21244074 0.3491274 0.6608164 -0.23492798
0002f0 6c aa 04 40 e5 9f 0f c0 4b ed ce 3e af a6 15 3f
       2.0729017 -2.2441342 0.40415415 0.58457464
000300 ac d2 94 3f ea bc d8 bf 93 e0 92 3e c7 47 ce 3f
       1.1626792 -1.6932652 0.28686962 1.6115655
000310 2b 45 ae bf 02 07 e4 bc f1 1e 1f 3f 6e 96 73 3f
       -1.3614858 -0.027835373 0.6215659 0.9515141
000320 e5 f2 a6 3f 94 c1 99 3f 22 38 b1 bf 13 65 ba bf
       1.3042876 1.20122 -1.3845255 -1.4562095
000330 78 06 b1 bf 75 e6 0c 3f 58 b5 19 be bd 43 7f be
       -1.3830099 0.5503915 -0.15010583 -0.24928184
000340 c5 36 86 bf 95 47 af bf a9 c8 7d bf 06 fd 8d 3f
       -1.0485464 -1.369372 -0.9913431 1.1092842
000350 22 ce 45 3d d8 e5 5a 3c 52 e5 5e 3f ce 48 fe bf
       0.048292287 0.013360463 0.87068665 -1.9865968
000360 5a 33 9b 3f 9a 21 e5 3f d7 91 09 3f fc 1f 1a 3f
       1.2125046 1.7900879 0.5373816 0.60205054
000370 65 19 e6 3e 98 f5 c5 be 4a de 19 bf 53 3c cf 3f
       0.4494125 -0.38663936 -0.6010481 1.6190284
000380 59 70 6b bf a1 60 cf 3e ad bd 60 3d 4f c2 20 bf
       -0.91968304 0.4050341 0.05486839 -0.6279649
000390 15 a6 35 3f 31 70 b8 3f b1 6d 20 3f f5 33 be be
       0.70956546 1.4409238 0.62667376 -0.37149015
0003a0 e4 75 5d 3d e8 b3 a0 bf b3 c9 20 3f f9 0c 43 3d
       0.054067507 -1.2554903 0.6280777 0.047619794
0003b0 87 b0 1e be 25 ec 5e 3f 19 45 82 3f 99 f6 39 bf
       -0.15497027 0.8707908 1.0177337 -0.72641903
0003c0 de 1f 41 3f c4 cb 93 3f 32 89 15 3f 42 9a 34 3c
       0.7543925 1.1546559 0.5841247 0.011023106
0003d0 4f a7 29 be 9c a3 81 3e 52 06 6a 3e 3e e7 01 3f
       -0.1656773 0.25320137 0.22853974 0.5074347
0003e0 bd 44 49 3f fe 52 a8 3f 75 bc bc 3f 35 b0 b3 bf
       0.7862051 1.3150327 1.4745013 -1.4038149
0003f0 b5 3d d4 bf bf 2b 64 be 6c d8 37 3f 3d 2c 7e 3f
       -1.6581331 -0.22282313 0.7181461 0.9928625

encoder_lstm.lstm.weight_ih_l0 f4 [192, 10]
000000 2c c5 2a 3e 9a df a8 be 09 67 be bd 2c e0 aa bd
       0.16676778 -0.32983094 -0.09296996 -0.08343539
000010 d1 08 13 3e 38 91 0c be b1 2d 2a 3c df 53 93 3c
       0.14358832 -0.13727272 0.01038687 0.017984329
000020 02 6f b9 bd ac 63 66 3d e6 f4 1e 3e cf 10 ab bd
       -0.09054376 0.0562474 0.15523109 -0.08352815
000030 b3 24 a0 3c 1c df 64 be ed 2e f4 3d fb 75 08 be
       0.01954875 -0.22350734 0.11923013 -0.13326256
000040 d7 c6 0d be d3 68 e3 3d 99 e5 c0 bd 20 80 f1 3d
       -0.13845383 0.11103978 -0.09418792 0.11792016
000050 7f 43 8e bd 4d 22 65 be f9 88 c9 b9 11 d7 f7 bd
       -0.069464676 -0.22376366 -0.0003843976 -0.121015675
000060 08 10 80 3d 86 78 25 3d 33 55 d4 bd 76 ab cb bc
       0.06253058 0.040398143 -0.10367813 -0.024862032
000070 df 31 21 3d 88 c8 56 bd e4 c4 aa bd 67 6c a1 be
       0.0393542 -0.052437335 -0.08338335 -0.31528017
000080 65 ef 59 3c 6c 0c 0f 3d 54 9e 28 bd 9d e6 3d be
       0.013301705 0.034923956 -0.04116662 -0.18545003
000090 3e a4 df 3d 77 66 1c 3e 19 44 99 3b 5e 11 cc 3b
       0.109199986 0.15273462 0.0046773073 0.0062276563
0000a0 7e e2 54 3d 5c aa 66 3d 37 ea 06 be ee b8 88 bc
       0.051973812 0.05631481 -0.13175283 -0.016689744
0000b0 c0 d7 55 3e 85 69 05 bd 27 fc f6 bd ae 51 01 be
       0.20883083 -0.032571334 -0.12059813 -0.12628815
0000c0 46 dc a0 3d 01 83 ba bd 0f e1 cf 3d dd 73 cf be
       0.07854514 -0.09107018 0.101503484 -0.40518084
0000d0 54 0a c1 bd 30 80 02 be 58 92 0b bd d4 79 0b 3e
       -0.09425798 -0.12744212 -0.03407511 0.13620692
0000e0 92 93 84 bd 86 b1 50 3d 57 59 de bd d0 52 2e be
       -0.06473459 0.05095055 -0.10856884 -0.17023778
0000f0 d3 f7 fa 3d 58 db cc 3e 41 97 ac 3c e6 b1 7d 3d
       0.122543 0.40011096 0.021068217 0.061937235
000100 25 ce 1d bd a4 da 0f bc 56 65 1c 3e a0 2b 42 3e
       -0.038526673 -0.008780155 0.15273032 0.18961954
000110 e6 c7 c4 bb 81 4b e4 3d 4b 7e 6b bd dd 7e 50 3e
       -0.006005275 0.11147214 -0.05749349 0.20360895
000120 02 62 d8 bd aa b7 b9 bd 9d 96 5d 3e 7f 2c bc bd
       -0.105655685 -0.09068234 0.21639486 -0.091881745
000130 a0 11 11 be db f7 53 bd 8d 82 06 be 2d 00 e0 bc
       -0.1416688 -0.051750045 -0.13135739 -0.027343834
000140 3c 9a b2 3d 98 88 18 bf db 4d 82 3d 25 9c 33 be
       0.08720824 -0.59583426 0.06362506 -0.17540033
000150 f1 84 39 3e 18 db 31 be 1d b9 67 be da 65 bb bd
       0.1811712 -0.17368734 -0.22629209 -0.09150286
000160 d0 6f 17 be 47 3b 18 3e b0 ac fa 3d 2c 3d 2e be
       -0.14788747 0.14866363 0.12239969 -0.17015523
000170 f1 2a e3 3c 76 32 af bc d0 14 eb bc 1c 23 ba bd
       0.027730437 -0.021386366 -0.028696448 -0.09088728
000180 ac db b1 3d fd 31 c2 3d 6d 00 d1 3c 72 88 5a bd
       0.08684477 0.09482191 0.025512898 -0.05335278
000190 89 47 ea bc e4 78 88 3e 52 5b 32 bd 4b b0 d1 3d
       -0.028598564 0.26654732 -0.04354412 0.10238703
0001a0 f6 dc 5a bd 4f 03 f8 bd 46 d2 f3 3d 7d 2a ef ba
       -0.05343338 -0.12110006 0.11905341 -0.0018246915
0001b0 f7 50 d1 3d fb 92 c2 3d c7 6c c4 bd 3e 88 30 be
       0.10220521 0.095006905 -0.0959106 -0.17239472
0001c0 8d 3f fb bd 56 e9 01 bd 4a 20 06 3e ca 7a 8f be
       -0.12267981 -0.031716667 0.13098255 -0.28023368
0001d0 a0 22 46 bd e7 18 84 3c ae e9 bb 3c 37 88 97 3d
       -0.048372865 0.016125156 0.022938576 0.07399028
0001e0 c5 ce ba 3d ca 3a ca 3d cc f1 f4 bc 62 44 5a 3d
       0.091214694 0.098744944 -0.029900454 0.05328787
0001f0 e4 1d 00 be 8b 8a a2 3c 03 bd 76 3d c4 5e 30 3c
       -0.12511402 0.019841453 0.06023885 0.010764781
000200 93 75 1b be b8 c6 20 be 1d 18 0b 3e 7d 34 1b 3e
       -0.1518157 -0.15700805 0.13583417 0.15156741
000210 b8 d2 10 3e f8 92 0a 3e 24 ea 58 3d 5b 8f 0d be
       0.14142883 0.13532627 0.05295767 -0.13824217
000220 28 0b 32 bd 91 0f d2 3c 39 bf 92 bc e5 89 1b 3e
       -0.04346767 0.025642188 -0.017913448 0.15189321
000230 09 12 18 3e ac 68 e3 3d 35 82 72 3d 00 82 d1 bb
       0.1485063 0.11103949 0.059206206 -0.006393671
000240 a1 93 fc ba b5 e9 f5 bc 50 01 72 bd f9 d9 d0 3d
       -0.0019270071 -0.030018667 -0.059083283 0.10197825
000250 8a 2e a1 3c df 1a 61 3e da 41 55 bd dd 1e 3d bb
       0.019675512 0.21982907 -0.052064754 -0.0028857507
000260 5c 3b fe bd 8d e7 a3 bd 22 ae c0 3c 83 2b ad 3d
       -0.12413666 -0.08003149 0.023520533 0.08455565
000270 82 2e 34 bd fc db 2d 3e 19 cf b3 bd 81 f9 09 3d
       -0.043989666 0.16978449 -0.08779735 0.03368521
000280 8b 8e 2d 3e 38 b1 ff bd b2 c9 38 be 16 ec ce bb
       0.16948907 -0.12484974 -0.1804569 -0.0063147647
000290 6b af b4 3d f9 4f f5 bc e9 0a 52 bd e8 e4 c9 3d
       0.08822521 -0.02994536 -0.051279936 0.098581135
0002a0 ee 09 a5 bd ca 56 cf bc 1a 97 c6 3d 93 9a 7b be
       -0.080585346 -0.025309939 0.09696789 -0.24570684
0002b0 5f 59 db bc 44 e7 80 bc bd 03 88 3d a8 ac 95 bc
       -0.026776014 -0.015735276 0.06641338 -0.018270805
0002c0 3b 52 db 3d 6e e1 2e 3e 13 0d 29 bd 0b f0 14 3e
       0.107090436 0.17078182 -0.041272234 0.14544694
0002d0 93 14 67 bd fb cd 11 3e 70 a4 c1 bc 0b 40 e9 bd
       -0.056416105 0.14238732 -0.02363798 -0.11389168
0002e0 29 7e d6 3d 5e fb d2 bd ec 1e b4 3c 5e fe c0 3b
       0.10473282 -0.10301851 0.021987401 0.005889698
0002f0 15 90 20 3e 97 d0 c1 bc d0 61 b4 bd 16 41 9e 3d
       0.15679963 -0.023659034 -0.08807719 0.07727258
000300 ab bc 12 3e b3 42 0e 3e ac e3 b6 bd 51 14 ad bd
       0.14329784 0.13892631 -0.08930144 -0.08451141
000310 25 3b 07 3e 42 fe a4 bc 71 87 ef 3d e4 15 0c bd
       0.13206156 -0.02014077 0.11695755 -0.034200564
000320 bd 48 29 3e 20 34 62 bd 77 49 08 3e 7d e2 87 3d
       0.16531654 -0.05522549 0.13309275 0.06634996
000330 e6 0b db 3d 3d 52 b6 bc f8 f3 5a bd fe ad 42 bc
       0.10695629 -0.022256011 -0.053455323 -0.011882303
000340 25 32 06 bd b1 21 37 3e 6c 6b 05 3d a7 06 38 bd
       -0.032762665 0.17883946 0.03257315 -0.04492822
000350 40 80 5e 3d 3d 9a dc bb a8 bf 24 3e 41 bd 3f bd
       0.054321527 -0.006732254 0.16088736 -0.046811346
000360 eb 5d 9e bd 7d 2c 96 3d 39 c5 fd bd dd 95 a6 bc
       -0.07732757 0.07332704 -0.12391133 -0.020335132
000370 48 0f 21 bd 68 e5 6c 3d bd 40 17 bd 09 1f 43 bd
       -0.039321214 0.057835966 -0.036926974 -0.04763702
000380 94 29 02 3e 74 69 09 be 1d 1b 5c 3d 03 71 ca 3b
       0.12711173 -0.13419133 0.053736795 0.006178023
000390 95 55 ce 3d 59 f3 b4 bd 8a 30 62 be 64 0e 9a be
       0.10074917 -0.088354774 -0.22088829 -0.30089104
0003a0 5c 3b 9e bc 21 4f ee 3c 48 e9 25 be d1 c1 cf 3c
       -0.019315414 0.029090466 -0.16202271 0.025360974
0003b0 21 fb f8 3d fa f5 04 bd 54 93 03 bd 6c ed 17 bd
       0.12157274 -0.032461144 -0.032122925 -0.037091658
0003c0 41 fa 8b 3e 1b 97 64 3e 5c 47 a8 bd 3c 32 37 3e
       0.27339366 0.22323267 -0.08216736 0.17890257
0003d0 c3 cb b7 bd aa 97 4e be 97 87 30 bd b6 73 48 3e
       -0.08974411 -0.20175043 -0.04309806 0.1957539
0003e0 c3 88 10 3e 8e e8 23 3c a5 54 82 3d c1 51 1d 3c
       0.1411467 0.010004176 0.06363801 0.009602011
0003f0 cf bf ee 3d 0e 87 12 3e b1 59 33 be 4e 89 3c 3d
       0.11657678 0.14309332 -0.17514683 0.04602938

encoder_lstm.lstm.weight_hh_l0 f4 [192, 48]
000000 04 23 e0 bc a6 ab 51 bc d7 10 e0 bd 93 ea b6 ba
       -0.027360447 -0.012797272 -0.10940712 -0.0013955407
000010 a3 59 1f 3e f3 21 27 3e 25 2b a7 3d 3e b4 73 3d
       0.15561537 0.16321544 0.08162526 0.059498064
000020 f4 49 f2 3d c7 43 87 3d b0 78 04 3d be eb 19 3e
       0.11830512 0.066047244 0.03234166 0.15031335
000030 34 44 72 be b5 ad f0 bd a0 49 aa bb d3 b1 a8 bc
       -0.2365883 -0.11751882 -0.005196765 -0.020592606
000040 c6 04 d1 bd ce c5 7e 3d 40 5b 9d bd ee f9 00 be
       -0.102059886 0.06220036 -0.0768342 -0.1259534
000050 59 aa 94 bc de 82 3d be 97 8a 91 3d 24 5e 84 3c
       -0.018147634 -0.18506953 0.07106512 0.016158171
000060 27 16 b6 3d 5d 64 55 be d3 34 2c ba 39 b8 bc 3d
       0.08890944 -0.20839067 -0.0006569151 0.09214825
000070 0c 51 46 3e f8 21 9b 3d c4 40 96 3d 0b 95 75 3c
       0.19366854 0.075748384 0.07336572 0.014989148
000080 a9 ce 90 3d 24 47 06 be 17 2b 0c be 0a 5f a5 3c
       0.07070667 -0.13113075 -0.13688312 0.02018692
000090 0d b2 41 3e 0b e3 d8 3c 64 fa 1a 3d da 15 91 3c
       0.18915577 0.02647545 0.037836447 0.017710615
0000a0 d7 37 d6 bd a0 78 2c 3e 58 4e 3b 3e 81 8d 99 bd
       -0.10459869 0.1684289 0.18291605 -0.07497693
0000b0 32 6f 14 3d 0b 78 0d 3e c4 d1 13 bd a8 43 12 3e
       0.036238857 0.13815324 -0.03608872 0.14283621
0000c0 17 71 16 be bd f3 98 bc 23 9d 97 bc 08 3e 18 3d
       -0.14691578 -0.018670911 -0.018507546 0.037168533
0000d0 3f 5f 93 3e 84 ff 39 3e 23 bb 02 bd b9 22 70 3e
       0.28783605 0.18163878 -0.03191675 0.23450746
0000e0 6f 1b 42 bd 67 91 82 3d bd 50 9b be 24 3b a3 3e
       -0.047389444 0.063753895 -0.30335036 0.31881058
0000f0 ab ca 06 be 76 0a 56 3d 65 8d e8 bd 4c 3b 1f 3e
       -0.13163249 0.05225607 -0.11355094 0.15549964
000100 5a 93 7c 3d b9 44 4d 3d bc 78 23 be 40 2f e7 3c
       0.061663963 0.050114367 -0.15964025 0.028220773
000110 3c 4a cb bd 5a de d5 3d 43 61 b7 bd a2 09 e4 3d
       -0.099262685 0.10442801 -0.08954098 0.1113465
000120 90 68 b2 bd db fa 3c be ab 53 c2 3d 2f b6 29 bd
       -0.0871135 -0.18455069 0.09488615 -0.04143351
000130 48 b9 84 bc 09 54 5f 3d cc ee 49 be 70 08 be 3d
       -0.01620163 0.0545235 -0.1972 0.09278953
000140 9b eb 1a be 44 e9 51 3d 78 fe 8e 3d 7b 80 99 3d
       -0.15128939 0.05124785 0.0698213 0.07495209
000150 4a d1 27 3e e6 f2 5d 3b 9b d0 02 bd ec 67 98 bd
       0.16388431 0.0033866703 -0.031937223 -0.074416965
000160 98 2b 45 3e 74 cd 3d 3e 8e ce b8 3d 5e af 2f be
       0.19254911 0.18535405 0.09023772 -0.17156741
000170 4a e6 20 3e 9c c2 04 be 50 93 a3 bd 7a ae 15 3d
       0.15712848 -0.12964863 -0.07987082 0.036543347
000180 ec 18 46 bd 4c ef 13 3e fc 3b 59 3d e4 91 bf bc
       -0.04836361 0.14446753 0.05303572 -0.023384996
000190 f8 9d d7 3d bd 78 aa 3d 54 61 a1 bc d2 df 1b bd
       0.10528177 0.0832381 -0.01969973 -0.03805525
0001a0 aa 0f 1a be 6b 99 80 bd 12 83 d1 3d 30 52 55 3c
       -0.15045038 -0.06279262 0.10230078 0.013020083
0001b0 94 20 ee 3d 8c ae 00 3c 41 d7 88 3d d1 c8 8c 3d
       0.116273075 0.007854115 0.066816814 0.0687424
0001c0 c1 fb 72 bd e6 30 d9 bd 33 32 38 bd 1b aa 08 bd
       -0.059322122 -0.1060503 -0.04496975 -0.03336535
0001d0 ad e8 30 3c 73 a0 6a 3d 3c d9 82 3c be fb 27 be
       0.010797662 0.057281923 0.015972726 -0.16404626
0001e0 bd e9 5f 3d d0 74 be bd 34 97 b1 bd 3f 1b 29 3d
       0.05466627 -0.09299624 -0.08671418 0.04128575
0001f0 d2 d3 00 3e 14 d2 d3 3c a0 2d e1 3d 17 e4 88 3d
       0.12580803 0.025857009 0.109950304 0.0668413
000200 bf 14 cb bd 9e 3c 2f 3d d4 e3 2a bc 59 9f 60 bd
       -0.099160664 0.04278242 -0.010430295 -0.054839466
000210 74 92 0c be f2 65 59 3c b4 7c 00 be 57 3c 05 3e
       -0.13727742 0.013268935 -0.1254757 0.13011299
000220 31 15 95 bd 01 2c be bd 13 f5 b4 bd 1f 28 ce 3d
       -0.072794326 -0.09285737 -0.08835807 0.10066246
000230 e7 29 c8 3d dc 9e 92 bb 62 40 02 3e b0 51 a3 3d
       0.09773617 -0.004474504 0.12719873 0.07974565
000240 44 64 d8 bd 42 5f 1d be bb 11 16 be 9c a8 f0 3c
       -0.10565999 -0.15368369 -0.14655201 0.029377274
000250 42 32 39 bd f8 4c 05 bc e2 7f a5 bd 0f cc 35 be
       -0.045213945 -0.008136027 -0.08081032 -0.17753623
000260 d6 57 a3 bc a3 eb f6 bd 94 8a 1f 3d 67 42 47 bd
       -0.019939344 -0.12056663 0.038950518 -0.04864731
000270 9d 8e 32 3d 2f 58 91 bd a4 49 d9 bd b4 68 28 be
       0.043593038 -0.07096898 -0.10609749 -0.16446191
000280 af 4e 9f 3d 87 17 16 3e fa ab e2 3d 69 32 4d 3d
       0.077786796 0.14657412 0.11067958 0.050096903
000290 d1 38 34 3e b2 b1 5d bd 27 77 19 3e a9 bf 24 3d
       0.17599799 -0.05412454 0.1498686 0.040221844
0002a0 8a d9 c6 3d 96 29 e5 bd 30 f7 59 3d 26 71 20 3e
       0.09709461 -0.111895725 0.053214252 0.15668163
0002b0 e8 f2 b3 3d d1 26 d1 3d 0d 72 22 3e b5 15 0b 3d
       0.08786565 0.10212482 0.1586382 0.03395625
0002c0 ec f2 ee 3d 90 31 f3 bd 18 0b 06 be 76 02 2c 3c
       0.116674274 -0.11874688 -0.1309017 0.010498634
0002d0 64 09 36 bd fc bb 0d be 46 10 b7 3c 14 9a 13 3e
       -0.04444255 -0.13841242 0.022346627 0.14414245
0002e0 bd ad fe 3d 18 de 17 be 23 b0 3b 3e 72 3c aa bd
       0.12435482 -0.14830816 0.1832891 -0.0831231
0002f0 6b cd a9 3d 0d b8 10 be 4e 9b 7d 3c 7d bf 17 3e
       0.082911335 -0.1413271 0.015478922 0.1481914
000300 ed 6a 4c bd 5f ca d9 bd 87 1d 28 3e 72 64 52 3e
       -0.04990666 -0.10634302 0.16417514 0.2054613
000310 07 0a 38 3d 36 5f d6 bd 99 e8 19 be 2e 1b 25 3d
       0.044931438 -0.10467379 -0.15030135 0.040309124
000320 f6 d0 da 3d 88 ae 64 3d fa 97 86 bd c0 1a 11 bd
       0.106843874 0.05583051 -0.06571956 -0.0354259
000330 48 aa 42 3c ba 49 1b 3e c6 8e 04 be a5 1a b0 3c
       0.0118814185 0.15164843 -0.12945089 0.02149708
000340 a0 5b 2d be e8 f5 d7 3c 13 49 32 bd 6d cd 81 3d
       -0.16929483 0.026362374 -0.04352672 0.0633801
000350 8e 8b fc bc 7e 0c 44 3c 99 26 b8 bd e4 68 c6 bd
       -0.030828264 0.011965869 -0.08991737 -0.09687975
000360 13 e1 92 bc 3d ad 8e bc 29 06 14 3e 24 63 84 bd
       -0.01792959 -0.01741659 0.14455475 -0.06464222
000370 66 46 5e bd 48 5d 6f bd 1b 41 00 be 47 0d 63 3d
       -0.054266356 -0.05843857 -0.12524836 0.055432584
000380 08 3a 65 3d 9b ef e1 3c d0 ae aa 3d 74 6f 53 3e
       0.055963546 0.027580073 0.08334124 0.20647985
000390 e9 45 c1 3d e3 bb 7a 3e ec 1e 15 be 7e 5b 06 3d
       0.094371624 0.24485736 -0.14562577 0.032802097
0003a0 8c ca 33 3d 9c 59 2e 3e db 29 27 3e b7 87 81 3c
       0.043894336 0.17026371 0.1632456 0.015811784
0003b0 b2 ce f3 3d 50 03 28 be eb d7 d6 bc 36 b9 00 3e
       0.119046584 -0.16407514 -0.026226005 0.12570652
0003c0 67 ac df bb 91 0e a7 3d 4f a1 e5 bd 05 0f cf bd
       -0.006825972 0.08157075 -0.11212408 -0.101102866
0003d0 41 3a 1b 3e 4e d6 7f 3e 8e ba 47 3d 91 3b c0 bd
       0.15158941 0.24984095 0.048761897 -0.093863614
0003e0 ce db ad bd ec 5b 18 3e 67 d2 09 bd 5d 94 aa bc
       -0.0848919 0.14878815 -0.03364792 -0.020822698
0003f0 88 44 b7 be 7a b2 b1 3b ec d9 f5 3d 48 8d 02 be
       -0.35794473 0.0054228874 0.12004456 -0.12749207

encoder_lstm.lstm.bias_ih_l0 f4 [192]
000000 d4 25 5d bd 83 83 2a 3e d2 af 11 be 91 d7 63 3c
       -0.053991154 0.1665173 -0.14227226 0.0139063755
000010 84 02 a1 3d ae 58 88 3e f0 b6 0e 3e be 58 2b bd
       0.07861808 0.26630157 0.13936973 -0.041832678
000020 ab 78 a3 bc a1 e6 f2 bd 88 4b 5e bd d5 eb 30 bd
       -0.019955 -0.11860395 -0.05427125 -0.043193657
000030 cf 39 93 3d 78 3b c8 bd 4f 3f f1 bc ec 4c 62 3d
       0.071887605 -0.09776968 -0.029449133 0.05524914
000040 28 7e 34 bc 8d 4d bf 3d ff 36 8e bc 53 ca 15 be
       -0.011016406 0.093409635 -0.017360209 -0.14627962
000050 3f f2 32 3d 7d 63 27 3e a9 c2 2b be 8f 4a 79 3d
       0.043688055 0.16346546 -0.16773476 0.06086212
000060 a7 10 37 bc 68 5a 20 be 54 da be 3d 1b b8 de bd
       -0.011173404 -0.15659487 0.093189865 -0.10874959
000070 4b 3d 64 bd 79 31 35 3e e1 41 83 3d da bf f8 bd
       -0.055722516 0.17694654 0.0640905 -0.12145968
000080 4a 72 6c 3d d1 0c e1 3c 52 7e 25 bc c3 8d 70 3d
       0.057726182 0.027471932 -0.010100918 0.058728945
000090 33 ef b7 3d 69 ec 51 bd 93 55 98 3d 4c 9a 12 3e
       0.089811705 -0.05125085 0.07438197 0.14316672
0000a0 34 4e d1 bd 99 34 08 3d 66 7a 2c 3e 33 2f ac bc
       -0.10219994 0.033253286 0.16843566 -0.0210186
0000b0 82 5c ea 3d 01 73 97 bd 52 cc a3 bd 59 17 3a bd
       0.11443426 -0.07394982 -0.079979554 -0.045432422
0000c0 45 19 8b 3d e5 bd ae bc bf 92 09 be 17 e4 b8 bd
       0.06791929 -0.021330783 -0.13434885 -0.0902788
0000d0 db f3 c0 3d 74 ff 3b 3e e3 69 f9 bc 7d 69 80 3d
       0.09421512 0.18359166 -0.030445999 0.0627012
0000e0 22 22 60 bd 2b 8d a2 bd dd 8a 82 bd 59 58 42 bd
       -0.05472005 -0.07937082 -0.06374142 -0.047447536
0000f0 39 b6 dd bd 57 17 cb 3c 4f d9 21 3e db be a6 3c
       -0.10825772 0.024791403 0.15805553 0.020354679
000100 f9 82 02 bd f1 dc 56 bd 85 e1 8b bc d4 02 fc bc
       -0.031863187 -0.0524568 -0.01707531 -0.030763067
000110 65 4d 29 3d 7d bf 88 bd 6d c7 0a be 3b 49 70 bd
       0.041333575 -0.066771485 -0.13552637 -0.058663588
000120 6f 74 20 3e 68 33 ca 3c 1e 2c 14 3d 5a 73 d0 3d
       0.15669416 0.024682716 0.036174886 0.101782516
000130 3d b5 2f be 7a 48 e0 3d 2d 32 1e 3e 29 30 9a bd
       -0.1715898 0.10951324 0.15448828 -0.07528717
000140 58 a0 b1 3b 74 fe 26 bd 29 97 be 3d ef f8 33 3d
       0.005420726 -0.04077001 0.09306175 0.043938573
000150 44 8d 39 be df 95 43 bc dc 9a 85 3c 69 14 c3 3c
       -0.18120295 -0.0119375875 0.016309194 0.023813443
000160 31 01 81 bd c2 dc 20 3e a2 86 07 3d c1 9e 5b 3d
       -0.06299055 0.15709212 0.03308738 0.053618196
000170 e2 f4 9c 3d da ec b9 3d b8 46 ce 3d 08 98 9a bd
       0.07663895 0.09078379 0.10072082 -0.07548529
000180 fd 2a 92 bd 22 de 1d 3e e1 70 c7 3d 13 c1 d2 bd
       -0.071371056 0.15416768 0.09738327 -0.10290732
000190 25 db 0f 3e 13 9c fa 3d 56 4c 7f bc 89 40 b7 ba
       0.14048441 0.122368 -0.015582165 -0.0013981025
0001a0 83 32 f2 3d cc f8 94 3d 0f 86 61 bd 45 de fb 3b
       0.118260406 0.07274017 -0.05505949 0.0076864087
0001b0 7d 53 0e be 0e 6f ee 3d 2d 1e e2 bd 75 4a bb bd
       -0.13899036 0.11642276 -0.11040912 -0.09145061
0001c0 46 95 cc 3d 9e b0 67 3d 0f e4 38 3c 68 4c 90 3c
       0.09989409 0.05656492 0.011284842 0.017614558
0001d0 a9 c9 c6 3b 93 18 3b be 14 6b f8 bd 85 a0 65 bc
       0.00606652 -0.18271093 -0.121297985 -0.014015322
0001e0 86 b0 99 bd 75 d0 7c 3d 57 e1 28 bb 77 77 e8 bd
       -0.07504372 0.061722238 -0.0025769079 -0.11350911
0001f0 c6 29 d5 3d 3f 6c e5 bc 1e 6d a9 3b 58 7a 02 bd
       0.10408358 -0.028005717 0.0051704785 -0.031854957
000200 a3 52 ed bd 5d 04 cb 3d 90 be 2a bd f7 ae e3 3d
       -0.11588027 0.099129416 -0.04168564 0.11117356
000210 c5 43 82 bd b0 01 c1 bd 77 e2 05 bd 11 b4 dc bd
       -0.06360582 -0.0942415 -0.032686677 -0.107765324
000220 85 ce 5b 3c b6 12 4b 3d 97 48 55 3c a4 66 24 3e
       0.013415937 0.04957839 0.013017795 0.1605478
000230 b6 dd d1 3d 16 99 f9 3d 0f cc 11 3d e9 8e f2 3c
       0.10247366 0.12187402 0.035594996 0.02960916
000240 35 61 f8 bc 31 d3 25 3d 7a c2 2c 3d 23 0f b1 3d
       -0.03031979 0.04048461 0.042177655 0.08645465
000250 fe b5 24 3e 00 a5 bf 3e a9 40 9d 3d f6 c0 57 bd
       0.1608505 0.37430573 0.076783486 -0.052674256
000260 95 95 fe bd c7 a0 fa 3c 50 ac a3 3d 23 1b cc bd
       -0.12430874 0.030594243 0.079918504 -0.099661134
000270 a2 13 e0 3d 46 a4 6b bd 9e f2 59 bd 3a f7 4a 3d
       0.10941245 -0.05752971 -0.053209893 0.04955218
000280 0d 3e 3a be 6f a4 d1 3d 2b 54 bc bd b3 f3 be 3d
       -0.18187733 0.10236441 -0.09195741 0.09323826
000290 9c 68 b3 bd e8 f6 f9 3d 57 a6 79 bd 0f 4d 47 bd
       -0.08760187 0.12205297 -0.06094965 -0.048657473
0002a0 e8 f7 22 be b6 d7 8f bc 92 9a bd 3c 14 ca c7 3d
       -0.15914881 -0.017558914 0.023144994 0.0975534
0002b0 cf 96 19 3e e9 68 3d 3d 40 52 f5 bd 89 7b b0 3d
       0.14998935 0.04624263 -0.119785786 0.086173125
0002c0 7c a7 64 bd 00 08 bb 3d 7a 1c 4f bd 3f 4a 39 bd
       -0.055823788 0.09132385 -0.050564267 -0.045236822
0002d0 69 bc 8a bd aa 8b 9d 3d 29 97 cc bd 19 8e e2 3d
       -0.06774218 0.076926544 -0.09989769 0.11062259
0002e0 74 db a3 bd 48 7d c4 bd 11 f8 63 be c7 ec 84 3d
       -0.08000842 -0.09594208 -0.22262599 0.06490474
0002f0 c7 08 ba bc a3 a4 7f bd e3 a1 7e 3d 67 15 07 bd
       -0.022709263 -0.06241287 0.062166106 -0.032979395

encoder_lstm.lstm.bias_hh_l0 f4 [192]
000000 04 49 b6 3d 08 da 3c 3d 64 17 ea bc f4 1e 1a 3e
       0.089006454 0.04610637 -0.028575607 0.1505087
000010 8d 48 11 3e 4d 81 1c 3e 02 c5 e8 3d e5 89 0e bd
       0.14187832 0.152837 0.11365701 -0.034799475
000020 9d 4f 5a bd 78 82 8d 3d 63 f6 a7 3d 16 d1 fb 3a
       -0.05329858 0.069096506 0.082012914 0.0019212093
000030 84 47 37 3e 08 cf da 3d f9 fc fc bc 54 0a 71 3d
       0.17898375 0.10684019 -0.030882346 0.05884774
000040 fb fa b5 3d 36 7d 89 3d aa 3b 9d 3c e1 7f c3 bd
       0.08885761 0.06713335 0.01919349 -0.09545875
000050 e9 c7 ef 3d e7 3d ad 3d 42 ce e4 3d 2d ea 9a bc
       0.11708052 0.084590726 0.11172153 -0.018910492
000060 12 be a3 3d 84 44 51 3d 56 0e 9c bd 7c b1 6e 3d
       0.079952374 0.051090732 -0.07619922 0.05827473
000070 f9 bf f7 3d 01 18 d4 bc 47 e1 c7 3c ad ec d5 3d
       0.12097163 -0.025890352 0.024399413 0.10445533
000080 9b a4 de bd cb 6e d3 3d 95 99 42 be 39 a3 7c 3d
       -0.1087124 0.103238665 -0.190039 0.0616791
000090 4e 67 0e 3e c6 d0 23 bc 45 e2 01 3e 1d cb fd 3d
       0.13906595 -0.009998506 0.12683971 0.123922564
0000a0 c2 dc 71 3d 6e f4 eb 3d 7c cb 4b bd 38 a0 55 3d
       0.05904842 0.11521231 -0.049754605 0.05215475
0000b0 e2 e2 4b 3c 47 43 39 bd 33 49 c7 3d e0 34 0b 3e
       0.01244423 -0.045230176 0.097307585 0.13594389
0000c0 c0 e9 51 3e 7e d5 18 3e ad 56 a5 3d d9 8c 6f 3d
       0.20499325 0.14925191 0.08073173 0.058483932
0000d0 70 1c 99 bd 75 1b a5 3d ad 53 d2 3d 67 18 a4 ba
       -0.07476127 0.08061878 0.10269866 -0.001251948
0000e0 d4 79 60 3d 2d 03 f5 bd 8e 59 9e bc 60 ac 0b 3e
       0.054803684 -0.11963496 -0.019329812 0.13639975
0000f0 b7 87 59 3d 81 d1 b5 3c f0 03 c3 3d 21 de 11 be
       0.053107943 0.022194626 0.095222354 -0.14244892
000100 ad 7e b7 bb 44 c1 7c 3d 0a 0c d5 3d c2 b0 32 be
       -0.0055998177 0.06170775 0.10402687 -0.1745024
000110 c8 80 e4 3d d0 7d ae bd 5b cc 99 3d cf bc 69 3d
       0.111573756 -0.085200906 0.07509681 0.057064828
000120 45 48 bd bd a6 1c 98 bd 0d ee 92 3d 32 73 a3 bc
       -0.092423 -0.07427339 0.07174311 -0.01995239
000130 83 56 4c bd fa fd 8c bd 70 75 25 3e 0f 8f e5 3d
       -0.04988719 -0.0688438 0.1615808 0.11208927
000140 13 0b 29 3d ee 6b 00 be 69 f0 df bd cf 5c ce 3d
       0.041270327 -0.12541172 -0.109345265 0.100762956
000150 3c 5e 07 be 94 ac cd 3d 6b 66 05 3e ba 2b 8e 3d
       -0.13219541 0.10042682 0.1302735 0.06941934
000160 15 3d bb 3d 8f 2d f8 3d 9c 69 36 3d b0 d1 81 3d
       0.0914251 0.121180646 0.04453431 0.06338823
000170 cb 7d 14 be 85 a7 f6 3d 23 74 ec bd 99 4b 8f bd
       -0.14501111 0.120436706 -0.11545589 -0.06996841
000180 4a 0a 1e 3e 53 4f 22 3c eb 3e 63 bd 62 ba be bd
       0.15433612 0.009906608 -0.055479925 -0.093128935
000190 71 bc 01 bd b8 92 26 3e b0 c4 0a bd e8 0b 4c 3d
       -0.031673852 0.16266906 -0.033878982 0.049816042
0001a0 be f8 26 bd 3f 27 de 3d 5e 67 c6 3d c4 f4 87 3d
       -0.040764563 0.10847329 0.096876845 0.06638482
0001b0 ad f4 87 3d e0 f5 c0 bc bd b1 85 3d e1 76 2c bd
       0.06638465 -0.023554742 0.065280415 -0.04210556
0001c0 ab 21 e5 3d 59 6a fe bb 9a 9e 82 bd 03 9c d7 bd
       0.11188062 -0.0077641425 -0.06377907 -0.10527804
0001d0 75 94 60 3d f5 7d 34 bc 80 05 b5 3c 7c 8d 94 3d
       0.05482908 -0.011016359 0.02209735 0.072535485
0001e0 e9 f2 f9 bd 91 16 d6 bd 55 30 c6 3d e7 02 28 3e
       -0.122045346 -0.10453523 0.09677187 0.16407357
0001f0 8c ea a9 3a 7b 0a eb bc b6 87 ec 3c 3d 04 0f be
       0.0012963577 -0.02869152 0.028873306 -0.1396646
000200 aa 82 ee bb 88 95 c2 3d 46 9f bc 3c ef 66 84 3d
       -0.00727876 0.09501177 0.023025166 0.064649455
000210 bb 23 11 3e 4f c8 a3 3d 6d c0 f5 bc 29 fa 44 bd
       0.14173786 0.0799719 -0.029998982 -0.048090134
000220 46 7f 92 3d 73 04 20 3c d2 cc 62 3d f4 ac de bd
       0.07153182 0.009766686 0.055371113 -0.10872832
000230 1d 63 4d bc b9 de 97 3d bf 1c 06 be 72 46 d1 3d
       -0.0125358375 0.07415528 -0.13096903 0.102185145
000240 e5 8f f9 bd a9 f2 00 bd ed 42 84 bd 57 46 57 bd
       -0.12185649 -0.03148142 -0.064580776 -0.052557316
000250 f9 d6 05 3e 76 f4 57 3e 60 88 d3 bc 4e 3c 48 bd
       0.13070287 0.21089348 -0.025821865 -0.048885636
000260 85 dd c9 3d 65 a1 92 bd 1f c3 8f bd ad 2b 86 3d
       0.098567046 -0.0715969 -0.07019638 0.06551299
000270 4d 1c 01 3e 3f 65 40 bd ca d6 a2 bb 40 f8 1a bb
       0.12608452 -0.046971556 -0.0049694525 -0.0023646504
000280 27 9a 34 39 92 2b 05 bb e3 14 ab bd ff ad e5 3d
       0.00017223564 -0.002032016 -0.08353593 0.11214828
000290 56 ad 52 3d 7a 16 8e 3d c0 e9 ac bd 82 77 aa 3d
       0.051434837 0.06937881 -0.08443022 0.083235756
0002a0 8b ee f3 bd 73 ae b6 bd 19 c9 99 3d 76 e9 28 bd
       -0.11910733 -0.08919992 0.075090595 -0.04123827
0002b0 c8 ab 61 3d a4 af 3a 3e 8b 11 39 bd c6 36 00 be
       0.055095464 0.18231064 -0.045182746 -0.12520894
0002c0 8b 4e 52 3d 95 86 e0 bd 15 c3 5a bd 11 62 02 be
       0.051344436 -0.109631695 -0.0534087 -0.12732722
0002d0 92 b5 38 3d 71 19 fa 3d 77 89 bf bd 34 0c 72 bd
       0.045095034 0.12211884 -0.09352391 -0.05909367
0002e0 09 12 50 bd 8e 0f e0 bd 46 08 00 be 50 65 21 3e
       -0.05079845 -0.10940467 -0.12503156 0.15761304
0002f0 ba 76 b0 bd 1a f4 bb 3d ca 29 ca bc 47 e8 9c 3d
       -0.08616395 0.09177418 -0.02467813 0.07661491

decoder_lstm.lstm.weight_ih_l0 f4 [192, 10]
000000 1b 41 2e 3e 06 a1 20 3e 35 8f bb 3d 0e 6c 29 bd
       0.17017023 0.15686426 0.09158174 -0.041362815
000010 a4 1c 37 3c b7 6e 34 be 2d 81 69 3d d7 99 01 3e
       0.011176262 -0.1762036 0.057007957 0.12656341
000020 d3 0b b9 3c 7d e2 cf 3e f2 6e 8d 3e 5d 04 17 3e
       0.022588646 0.40602484 0.27623707 0.14747758
000030 da 32 94 3d c0 a4 8b 3c a2 2e 64 3e f7 27 79 be
       0.07236262 0.017046332 0.22283414 -0.24331652
000040 47 74 c4 bd 9f f7 9c bd 69 58 b5 bd 38 68 5d bd
       -0.09592491 -0.076644175 -0.088547535 -0.05405447
000050 a5 f5 03 3d e9 28 09 3d f1 b6 c0 3d 92 c9 e2 3d
       0.032216687 0.03348628 0.09409893 0.11073603
000060 c5 a5 0c 3e e4 70 63 bc c3 bc 52 3d e5 1a 61 3d
       0.13735111 -0.013881896 0.05144955 0.05495729
000070 7a e9 ec 3c ae 65 0f be 61 20 5a bd c7 0c b0 bd
       0.028919924 -0.14003631 -0.053253535 -0.08596187
000080 2f 6b 5e 3d eb be 0b 3e a2 25 fa 3b c7 2c 78 bc
       0.054301437 0.13647048 0.0076338807 -0.0151473945
000090 0f 52 d9 bd 49 23 33 3c 01 b0 ab bd 1c 5a c1 ba
       -0.106113546 0.010933706 -0.083831795 -0.0014751586
0000a0 51 ed a2 3c 9f 35 84 3e fc 0c 57 bd fd e8 bd 3d
       0.019888552 0.2582216 -0.052502617 0.092729546
0000b0 e4 27 fd bc 28 7e 88 bd bf ef 53 bd 70 d2 a7 3d
       -0.03090281 -0.066646874 -0.05174231 0.08194435
0000c0 94 22 f8 bd 30 61 bc bd 68 20 c4 3d 6c b3 1c 3d
       -0.1211597 -0.091982245 0.095764935 0.038257048
0000d0 66 63 4e 3d 67 4b 47 3e 8c be f8 3b 46 64 0d 3d
       0.050387762 0.19462357 0.0075910743 0.034519456
0000e0 67 1a 80 3d 68 a2 4f 3d 63 94 9c bd 31 93 17 3e
       0.06255036 0.050691992 -0.0764549 0.14802243
0000f0 2d 5e ad 3e 9c 8d ec 3d ec 89 99 bb 3d 64 b2 bd
       0.33860913 0.11550447 -0.004685631 -0.08710525
000100 1c b9 04 3d 67 a1 56 be 9f eb 12 3e 54 48 ca 3d
       0.032403097 -0.20960008 0.14347695 0.09877077
000110 6f 68 33 bd 82 a6 58 3e a4 93 23 bd 52 ba 23 3e
       -0.043800768 0.21157268 -0.039935723 0.15989044
000120 00 62 74 3d 85 8e 6f 3e 0e 05 98 bd d4 d5 10 be
       0.059663773 0.2339421 -0.07422839 -0.14144069
000130 2d 1d b1 3d b9 67 65 3d ff 42 45 3e 37 03 91 3e
       0.08648143 0.05600712 0.19263838 0.28322765
000140 0f 5c 1e 3e 8f f4 1c bf a5 fd 00 be 9d 33 d8 bc
       0.15464805 -0.61310667 -0.12596758 -0.026391799
000150 83 d8 a2 3d 39 72 c0 bd 35 77 58 3d 05 6a e6 3d
       0.079514526 -0.09396786 0.05284806 0.1125069
000160 ec ba 0a be 8e 9d 08 bd c3 04 bb 3d 31 bb c6 3d
       -0.13547868 -0.03335338 0.091317676 0.09703673
000170 ed de 83 3d a5 4e ab bb 0f 6f 91 3d 1f 55 a1 bd
       0.06439004 -0.005227881 0.07101261 -0.07877564
000180 af 05 16 3e 0c 5b a0 3d 5d cc c2 bd af 85 34 bb
       0.14650606 0.07829866 -0.095116355 -0.0027545502
000190 d2 2a 4f 3d 90 9f 80 bd c7 b8 46 3d 07 c5 29 3d
       0.050577946 -0.06280434 0.04851606 0.041447666
0001a0 8f 9b 56 3c 39 3f 31 be 02 b6 f1 3c 4c db 02 3e
       0.0130986115 -0.17309274 0.029505733 0.12778968
0001b0 f6 8c d6 3b 28 0c 05 3e 33 7b 15 3d 5f de bc bc
       0.0065475656 0.12992918 0.036494445 -0.023055254
0001c0 dc 26 4a bd 40 24 f6 3d 49 e3 e3 bd 3a 9a e9 bd
       -0.049353465 0.12018633 -0.111273356 -0.114063695
0001d0 3f de 12 3e b4 9f 03 3e f6 70 a0 3c 7a 66 16 3e
       0.14342593 0.1285389 0.019585114 0.14687529
0001e0 c8 ec 64 bc 62 5f 96 bd 29 e4 9c bd 8f 2e a6 bd
       -0.013972469 -0.073424116 -0.076607056 -0.08114349
0001f0 92 75 58 3c aa bc 01 be de c3 02 3e fe a0 69 bb
       0.013211625 -0.12669626 0.1277003 -0.0035648937
000200 2d 21 83 3d c4 61 dd 3d d3 33 58 3e 6f 04 65 be
       0.06402812 0.10809663 0.2111352 -0.22364973
000210 84 8f a3 bd be 60 30 be e9 d2 41 3e a4 00 30 3c
       -0.07986358 -0.17224404 0.18928112 0.01074234
000220 0e e9 69 3d 01 66 38 3d 9f ca d1 bd 5e 42 d4 3d
       0.057107024 0.045019154 -0.10243725 0.10364221
000230 29 95 5d bd 9b 38 26 bc 7f cc cd 3d a7 02 f5 3d
       -0.05409733 -0.010145332 0.1004877 0.119633965
000240 b3 5c c7 3d 43 ab 23 be 5b 7d 8f bd cc 33 91 bd
       0.09734478 -0.159833 -0.070063315 -0.070899576
000250 63 9d 97 3d c4 c1 c5 bd e8 fd 94 3d 9f 97 d5 3d
       0.07403066 -0.096560985 0.07274991 0.1042931
000260 b5 b0 f1 bc f5 35 64 bd fa 43 9a bc 50 a1 1e bd
       -0.029503206 -0.05571552 -0.018831242 -0.03872806
000270 ae 4e bf 3d 6f f7 f8 3d 08 1b c1 bd b0 49 53 bd
       0.09341179 0.12156569 -0.09428984 -0.051583946
000280 80 6f 59 bd f4 87 36 be 22 7b 4a 3d bb 90 1b bc
       -0.05308485 -0.178253 0.049433835 -0.009494956
000290 f8 dc 37 bd 5b 16 0c be d0 d4 b9 3c 4c 4a 8b 3d
       -0.044888467 -0.13680403 0.022684485 0.068012804
0002a0 d8 57 94 bd dc e3 b4 bd 0e 5f cb bc ce 6b 3e bc
       -0.07243317 -0.08832523 -0.024825599 -0.011622382
0002b0 95 2a 93 bd 5c a9 39 3e 15 c3 34 bd 17 d1 15 3e
       -0.07185856 0.18131012 -0.044131357 0.14630543
0002c0 67 b2 f3 bd 37 99 f8 bd a1 75 91 bd c7 e5 27 be
       -0.11899262 -0.121385984 -0.07102514 -0.16396247
0002d0 a7 79 06 3e 04 73 f7 3c 08 c2 31 3e 10 07 73 3d
       0.13132344 0.03020621 0.17359173 0.059332907
0002e0 04 d7 63 3d 53 64 47 be 70 6f b8 3c 56 ff a0 bc
       0.055624977 -0.19471864 0.022514075 -0.019653004
0002f0 16 83 1c bd 2f 45 ce 3d fb 1c dc 3d 1f dd f3 bb
       -0.03821095 0.100717895 0.10747715 -0.007442131
000300 75 39 1d be c5 f3 82 3d 43 9e 49 3e 1c 9a de bc
       -0.1535395 0.063941516 0.19689278 -0.027173094
000310 93 fa c6 bd f3 eb 9b 3c 05 59 b8 bd f2 c3 17 bb
       -0.09715762 0.019033408 -0.09001354 -0.0023157564
000320 0c 05 c0 bd f8 9f 32 bc 08 c8 a6 3d 02 20 0a 3e
       -0.093759626 -0.010902397 0.08143622 0.13488773
000330 7b 18 4b 3e ff bc 16 be d7 04 68 bd 5f 08 14 be
       0.19833557 -0.14720534 -0.05664524 -0.14456318
000340 23 eb d7 3d 2d 37 c8 3d e8 b4 11 3e ad 4d f4 bd
       0.10542896 0.09776149 0.14229167 -0.11928878
000350 1a 00 9c 3d e4 5b 34 bd d6 a9 31 3e 56 44 1e b8
       0.07617207 -0.044032946 0.17349944 -3.773378e-05
000360 ec 5a d6 bd 1c 8d 8d bd f4 a2 51 bd 60 dc d7 3d
       -0.10466561 -0.0691168 -0.051180795 0.1054008
000370 b2 1b e8 bc 68 87 76 3e 3b 1f dd bc 50 72 8b 3d
       -0.028333519 0.24075091 -0.02699243 0.06808913
000380 99 c3 06 3d ad 40 ae bd 7e ea 89 3d 04 1f 8a 3d
       0.03290138 -0.0850843 0.06734179 0.06744197
000390 59 f8 34 3e 0e a4 1e 3e c6 15 0f 3d f7 c2 66 3d
       0.17672862 0.1549227 0.034932874 0.056338277
0003a0 ed ac 5b 3e 26 b9 13 3e 25 d6 c5 3c f8 a7 0e be
       0.21452685 0.14426097 0.024149964 -0.13931262
0003b0 ad f3 db 3d 71 bc 4a 3e ef 32 17 3d 37 c6 b3 bc
       0.10739837 0.19798447 0.03691381 -0.021945102
0003c0 d7 db 1c 3d a0 34 2a 3e c5 8f 45 bd 09 97 7f 3d
       0.038295593 0.16621637 -0.048232812 0.062399898
0003d0 0f 6c 42 3e 49 19 9e bd 4b 80 7f bd ee ce 2d 3e
       0.18986534 -0.077196665 -0.06237821 0.16973469
0003e0 68 74 f1 3d 03 0d 37 3e 46 49 ea 3d ff 5e 4f be
       0.11789781 0.17876057 0.11439757 -0.20251082
0003f0 a2 d5 6c 3d f9 eb 12 be dc 56 16 bd 89 04 57 be
       0.057820924 -0.14347829 -0.03670393 -0.20997824

decoder_lstm.lstm.weight_hh_l0 f4 [192, 48]
000000 c5 5c dd 3d 89 c6 8e be 5e b6 96 bc 00 06 9a bc
       0.1080871 -0.27885845 -0.018397506 -0.01880169
000010 39 d4 15 3e 64 76 28 3e 11 b0 19 3e 40 52 60 bd
       0.14631738 0.16451412 0.1500857 -0.05476594
000020 fa 54 b2 3e ea 6d 1f 3c 89 25 d9 bd 4d 77 6f bd
       0.34830457 0.009730795 -0.106028624 -0.058463383
000030 3f d6 0d 3c 64 00 17 be 07 35 95 bc f7 c6 80 3d
       0.008657037 -0.14746243 -0.018213762 0.062879495
000040 5b 57 51 be e2 b0 38 bd 9d 94 1b be 37 1e 07 be
       -0.2044348 -0.045090564 -0.1519341 -0.1319512
000050 2c 8c 96 bd a6 69 04 be 5e ad 73 bd 4e 0f d7 3d
       -0.073509544 -0.12930927 -0.059491508 0.10500966
000060 83 2f c8 3c bf 42 10 3c 69 89 41 3e 47 dd d0 bc
       0.024436718 0.008804976 0.18900074 -0.025496138
000070 c3 75 1e 3e a6 cd 58 be f9 73 b5 3c cd 60 61 3d
       0.1547461 -0.21172199 0.022150027 0.055023957
000080 de 59 d8 3d 7c 90 66 3d 8b ec b0 bc b4 19 8d 3e
       0.10564016 0.056290135 -0.021597167 0.27558672
000090 18 82 0f 3d ed 62 a4 3c 16 05 40 be b1 da 7f bb
       0.035036176 0.020066703 -0.1875194 -0.0039040262
0000a0 8c 9c 35 3b 38 d1 75 3e 53 7a 93 3d 65 60 74 bd
       0.0027711717 0.24005592 0.07201066 -0.05966224
0000b0 9e 0d be bd fd ce 06 be de 32 dd 3d e9 d7 26 3e
       -0.09279941 -0.13164897 0.10800718 0.162933
0000c0 d0 de 33 be 27 39 e0 3c b3 8e a3 bc da 8c 4a 3d
       -0.17565465 0.027371002 -0.019965505 0.049450733
0000d0 ea 5e 2a be 96 64 a0 bd 14 d7 aa 3b 17 15 5a bd
       -0.1663777 -0.07831685 0.0052136276 -0.05324277
0000e0 75 50 a4 bc 52 3c f2 bd e9 84 93 bd 9b 6a 30 3d
       -0.020057896 -0.118279114 -0.07203085 0.043070417
0000f0 29 3f f0 3d 4b 16 43 3e 3f 53 37 3e a7 59 a3 3d
       0.11730797 0.19051473 0.1790285 0.07976084
000100 13 84 55 be 4b 0a 2f be cb 56 1a bd e3 80 23 be
       -0.20851164 -0.1709377 -0.03768043 -0.15967135
000110 88 48 ee 3c 3f 03 40 be 49 af 07 3d 3f 47 f1 bd
       0.02908732 -0.18751238 0.03312615 -0.11781167
000120 09 31 13 3e f6 8a da 3d 6f 83 f7 bd 4f 54 de 3c
       0.14374174 0.10671036 -0.12085616 0.02713981
000130 62 d4 14 3c 3c 95 35 be 84 77 db 3c e1 26 dc bc
       0.009083839 -0.1773271 0.026790388 -0.026874008
000140 8d e0 ac bd 68 6c 0a 3d e0 31 d8 bd d2 64 78 bd
       -0.08441267 0.03379479 -0.10556388 -0.060643025
000150 4f 85 6b 3d 87 68 29 3e c6 e1 8e bd ab f7 5a be
       0.05750018 0.1654378 -0.069766566 -0.2138354
000160 5e 63 8d bd 3b 05 2a be 31 e9 27 3e 3e c0 7c be
       -0.069037184 -0.16603558 0.16397549 -0.2468271
000170 ce c9 5a 3d 53 00 62 bd 47 b7 a2 bd e1 40 7e 3c
       0.053415112 -0.05517609 -0.07945114 0.015518398
000180 cd 72 e6 bd 10 8e f8 bd 13 bf 00 be 8d 29 b2 3d
       -0.11252365 -0.12136471 -0.12572889 0.086993314
000190 23 87 2f 3e 87 c5 0b be 69 2c c0 3c 6f 0c 36 3d
       0.17141394 -0.1364957 0.023458676 0.04444545
0001a0 dd 6a 32 3e 09 29 6a bd df 7c a7 bd e8 fa 58 bb
       0.17423578 -0.05716804 -0.08178114 -0.0033108536
0001b0 f5 56 1d be 2d 32 b3 3c b5 81 f4 bd 70 2d 45 3c
       -0.15365203 0.021874512 -0.11938802 0.012034759
0001c0 2c 76 51 bc b7 71 92 3c c5 51 20 bd 7d d6 0f 3e
       -0.012784522 0.01787649 -0.03914048 0.14046665
0001d0 15 50 0d bc 94 93 7e 3d d7 67 eb bc 73 bb 12 be
       -0.00862505 0.06215246 -0.028736038 -0.14329319
0001e0 6d 2a 60 bd 5e af e3 bd 01 8e 4d 3d 6c c1 de bd
       -0.05472796 -0.11117433 0.050184254 -0.10876736
0001f0 86 80 b4 3d 7e 7e 89 bd fe 3f 8e 3b 9e 90 40 3d
       0.088135764 -0.067135796 0.0043411246 0.047012918
000200 ef ee fe bd 91 b3 2d be 5e 77 fa bc 72 4a 5e bd
       -0.12447917 -0.1696303 -0.030574497 -0.054270215
000210 0a 78 d8 bd fb d0 f6 3d 2b e6 1b bd 73 a0 47 be
       -0.10569771 0.120515786 -0.038061302 -0.194948
000220 eb e7 04 bc 01 e6 35 3e dc f6 ad bd 08 ba a0 3d
       -0.008111934 0.17763521 -0.0849435 0.07847983
000230 fc 3f 18 be 1d 13 18 be e1 48 1d bd d1 1b 85 3d
       -0.14868158 -0.14851041 -0.03839958 0.06499446
000240 ac fc ab bd 41 7f 31 3e 5e 21 70 3d 26 ca 2d bc
       -0.08397803 0.173337 0.05862557 -0.010607278
000250 ab 62 cd bd fb 07 a7 3c 88 bf 4a 3c 93 ca 05 be
       -0.10028585 0.020389548 0.012374766 -0.13065557
000260 67 ba 43 be 51 f3 74 bc be 4f c6 bd 1b 55 98 bc
       -0.19114076 -0.014950589 -0.09683178 -0.018595269
000270 e9 a8 93 3b a0 ef ce 3c 59 24 7a 3d 14 08 d6 3d
       0.0045062196 0.025260746 0.06106982 0.104507595
000280 24 49 86 3d 15 ae 11 be 83 fd 5d bd 7a 67 9b bd
       0.06556919 -0.14226563 -0.054196846 -0.07588096
000290 8f 12 0e 3e 7e 8b 27 bd 51 cc e1 3c 32 19 53 bd
       0.13874267 -0.040904514 0.027563246 -0.0515377
0002a0 41 d6 f5 3d 3b 42 ea 3b af f6 0b be 57 f9 f0 bd
       0.12003756 0.0071490086 -0.13668321 -0.11766308
0002b0 6f 62 de bd 0b fb 41 bd d7 0e 00 bd e1 29 d2 3d
       -0.108586185 -0.047358554 -0.031264152 0.10261894
0002c0 75 a9 7a 3c 7b e7 0f be 3b 84 4a bd 4d ab 93 be
       0.015299191 -0.14053147 -0.04944251 -0.2884163
0002d0 14 56 a5 bd 5a d5 09 be 47 5f ff 3d 58 81 8a bd
       -0.08073059 -0.13460293 0.124693446 -0.067629516
0002e0 42 8a 18 3e 04 40 37 be 4d c8 f1 3c 8f 85 2c be
       0.14896491 -0.17895514 0.029514456 -0.16847824
0002f0 13 36 a7 3d 29 82 d1 bd 36 2a bf bb 05 2a 76 bd
       0.08164611 -0.10229904 -0.0058338894 -0.060098667
000300 55 68 58 bd 98 53 fa 3d 03 00 cb bd c1 ae 36 3e
       -0.052833874 0.122229755 -0.099121116 0.17840101
000310 b6 0a a9 3d c1 67 07 be 1b d8 2d be 3d 07 f7 3d
       0.08253996 -0.13223173 -0.16976969 0.120619275
000320 a0 1c 58 3d 02 ea 35 bb cd 16 bc bc 98 75 a3 bc
       0.052761674 -0.0027757888 -0.022960091 -0.019953534
000330 01 ca 8f bb 07 d2 75 3e 32 44 03 be f3 db 1e 3e
       -0.0043880944 0.240059 -0.12818983 0.15513591
000340 95 86 07 be 6a 73 4f be 87 e3 1c bd f8 69 c8 bd
       -0.13234933 -0.2025887 -0.038302924 -0.09785837
000350 35 1f 41 bc 1b ab 14 3d a1 0a 89 3d b8 6b 66 be
       -0.0117872255 0.03629599 0.066914804 -0.22502029
000360 44 d2 29 3d 0b c3 24 bd 61 2a c8 bd 17 e8 f3 3b
       0.04146029 -0.04022507 -0.09773708 0.0074434387
000370 26 39 38 be 11 f1 bc bc d9 fa d1 3c ca c3 2f 3e
       -0.1799055 -0.023064168 0.025632309 0.17164531
000380 7f f2 83 bd 0a 14 31 3d eb d9 24 be 11 42 8c bd
       -0.06442737 0.043232 -0.16098754 -0.06848539
000390 fd da da 3d e6 73 13 3e fe 8b 54 be ad eb 02 be
       0.106863 0.1439968 -0.20756528 -0.12785216
0003a0 55 ee 45 bd 25 c3 4f 3d c3 fa 98 bd e7 70 2b be
       -0.048322994 0.050723214 -0.07469704 -0.16742288
0003b0 26 11 94 bd bf 04 55 be 2b d6 2c bd b1 81 26 3d
       -0.07229833 -0.20802592 -0.042196434 0.040651027
0003c0 2c 10 02 be 37 47 ce bd 54 93 d1 bd 50 0b f3 bd
       -0.12701482 -0.10072177 -0.10233179 -0.11867392
0003d0 5b 65 b2 bd ee 68 fd 3c 65 76 b8 3c d3 82 bc bd
       -0.08710738 0.030933823 0.022517392 -0.0920464
0003e0 52 b9 72 3e c4 00 e3 bb 68 55 b2 3c ea 80 09 3e
       0.23703507 -0.0069275815 0.02176924 0.13428083
0003f0 b1 fb c0 3d a6 fd 56 bd d0 f0 da 3d 5e 26 13 be
       0.09423006 -0.05248799 0.106904626 -0.14370105
